…
  type: "VideoData"
  top: "data"
  top: "label"
  include {
    phase: TRAIN
  }
  transform_param {
    mirror: true
    crop_size: 224
    mean_value: 128
    multi_scale: true
    scale_ratios: 1
    scale_ratios: 0.875
    scale_ratios: 0.75
    scale_ratios: 0.66
    max_distort: 1
  }
  video_data_param {
    source: "/home/bwzhang/parrots/tsn.parrots/data/kinetics_train_list.txt"
    batch_size: 16
    shuffle: true
    new_height: 256
    new_width: 340
    new_length: 8
    num_segments: 2
    modality: FLOW
    name_pattern: "%c_%05d.jpg"
    length_first: true
  }
}
layer {
  type: "Reshape"
  bottom: "data"
  top: "data_reshape"
  reshape_param {
    shape {
      dim: -1
      dim: 2
      dim: 8
      dim: 224
      dim: 224
    }
  }
}
layer {
  name: "conv1/7x7_s2_2d"
  type: "Convolution"
  bottom: "data_reshape"
  top: "conv1/7x7_s2"
  param {
    lr_mult: 1
    decay_mult: 1
  }
  param {
    lr_mult: 2
    decay_mult: 0
  }
  convolution_param {
    num_output: 64
    pad: 0
    pad: 3
    pad: 3
    kernel_size: 1
    kernel_size: 7
    kernel_size: 7
    stride: 1
    stride: 2
    stride: 2
    weight_filler {
      type: "xavier"
    }
    bias_filler {
      type: "constant"
      value: 0.2
    }
  }
}
layer {
  name: "conv1/7x7_s2_bn"
  type: "BN"
  bottom: "conv1/7x7_s2"
  top: "conv1/7x7_s2_bn"
  param {
    lr_mult: 1
    decay_mult: 0
  }
  param {
    lr_mult: 1
    decay_mult: 0
  }
  bn_param {
    slope_filler {
      type: "constant"
      value: 1
    }
    bias_filler {
      type: "constant"
      value: 0
    }
    frozen: false
    engine: CUDNN
  }
}
layer {
  name: "conv1/relu_7x7"
  type: "ReLU"
  bottom: "conv1/7x7_s2_bn"
  top: "conv1/7x7_s2_bn"
}
layer {
  name: "pool1/3x3_s2_2d"
  type: "Pooling"
  bottom: "conv1/7x7_s2_bn"
  top: "pool1/3x3_s2"
  pooling_param {
    pool: MAX
    kernel_size: 1
    kernel_size: 3
    kernel_size: 3
    stride: 1
    stride: 2
    stride: 2
  }
}
layer {
  name: "conv2/3x3_reduce_2d"
  type: "Convolution"
  bottom: "pool1/3x3_s2"
  top: "conv2/3x3_reduce"
  param {
    lr_mult: 1
    decay_mult: 1
  }
  param {
    lr_mult: 2
    decay_mult: 0
  }
  convolution_param {
    num_output: 64
    kernel_size: 1
    kernel_size: 1
    kernel_size: 1
    weight_filler {
      type: "xavier"
    }
    bias_filler {
      type: "constant"
      value: 0.2
    }
  }
}
layer {
  name: "conv2/3x3_reduce_bn"
  type: "BN"
  bottom: "conv2/3x3_reduce"
  top: "conv2/3x3_reduce_bn"
  param {
    lr_mult: 1
    decay_mult: 0
  }
  param {
    lr_mult: 1
    decay_mult: 0
  }
  bn_param {
    slope_filler {
      type: "constant"
      value: 1
    }
    bias_filler {
      type: "constant"
      value: 0
    }
    frozen: false
  }
}
layer {
  name: "conv2/relu_3x3_reduce"
  type: "ReLU"
  bottom: "conv2/3x3_reduce_bn"
  top: "conv2/3x3_reduce_bn"
}
layer {
  name: "conv2/3x3_2d"
  type: "Convolution"
  bottom: "conv2/3x3_reduce_bn"
  top: "conv2/3x3"
  param {
    lr_mult: 1
    decay_mult: 1
  }
  param {
    lr_mult: 2
    decay_mult: 0
  }
  convolution_param {
    num_output: 192
    pad: 0
    pad: 1
    pad: 1
    kernel_size: 1
    kernel_size: 3
    kernel_size: 3
    weight_filler {
      type: "xavier"
    }
    bias_filler {
      type: "constant"
      value: 0.2
    }
  }
}
layer {
  name: "conv2/3x3_bn"
  type: "BN"
  bottom: "conv2/3x3"
  top: "conv2/3x3_bn"
  param {
    lr_mult: 1
    decay_mult: 0
  }
  param {
    lr_mult: 1
    decay_mult: 0
  }
  bn_param {
    slope_filler {
      type: "constant"
      value: 1
    }
    bias_filler {
      type: "constant"
      value: 0
    }
    frozen: false
  }
}
layer {
  name: "conv2/relu_3x3"
  type: "ReLU"
  bottom: "conv2/3x3_bn"
  top: "conv2/3x3_bn"
}
layer {
  name: "pool2/3x3_s2_2d"
  type: "Pooling"
  bottom: "conv2/3x3_bn"
  top: "pool2/3x3_s2"
  pooling_param {
    pool: MAX
    kernel_size: 2
    kernel_size: 3
    kernel_size: 3
    stride: 2
    stride: 2
    stride: 2
  }
}
layer {
  name: "inception_3a/1x1_2d"
  type: "Convolution"
  bottom: "pool2/3x3_s2"
  top: "inception_3a/1x1"
  param {
    lr_mult: 1
    decay_mult: 1
  }
  param {
    lr_mult: 2
    decay_mult: 0
  }
  convolution_param {
    num_output: 64
    kernel_size: 1
    kernel_size: 1
    kernel_size: 1
    weight_filler {
      type: "xavier"
    }
    bias_filler {
      type: "constant"
      value: 0.2
    }
  }
}
layer {
  name: "inception_3a/1x1_bn"
  type: "BN"
  bottom: "inception_3a/1x1"
  top: "inception_3a/1x1_bn"
  param {
    lr_mult: 1
    decay_mult: 0
  }
  param {
    lr_mult: 1
    decay_mult: 0
  }
  bn_param {
    slope_filler {
      type: "constant"
      value: 1
    }
    bias_filler {
      type: "constant"
      value: 0
    }
    frozen: false
  }
}
layer {
  name: "inception_3a/relu_1x1"
  type: "ReLU"
  bottom: "inception_3a/1x1_bn"
  top: "inception_3a/1x1_bn"
}
layer {
  name: "inception_3a/3x3_reduce_2d"
  type: "Convolution"
  bottom: "pool2/3x3_s2"
  top: "inception_3a/3x3_reduce"
  param {
    lr_mult: 1
    decay_mult: 1
  }
  param {
    lr_mult: 2
    decay_mult: 0
  }
  convolution_param {
    num_output: 64
    kernel_size: 1
    kernel_size: 1
    kernel_size: 1
    weight_filler {
      type: "xavier"
    }
    bias_filler {
      type: "constant"
      value: 0.2
    }
  }
}
layer {
  name: "inception_3a/3x3_reduce_bn"
  type: "BN"
  bottom: "inception_3a/3x3_reduce"
  top: "inception_3a/3x3_reduce_bn"
  param {
    lr_mult: 1
    decay_mult: 0
  }
  param {
    lr_mult: 1
    decay_mult: 0
  }
  bn_param {
    slope_filler {
      type: "constant"
      value: 1
    }
    bias_filler {
      type: "constant"
      value: 0
    }
    frozen: false
  }
}
layer {
  name: "inception_3a/relu_3x3_reduce"
  type: "ReLU"
  bottom: "inception_3a/3x3_reduce_bn"
  top: "inception_3a/3x3_reduce_bn"
}
layer {
  name: "inception_3a/3x3_2d"
  type: "Convolution"
  bottom: "inception_3a/3x3_reduce_bn"
  top: "inception_3a/3x3"
  param {
    lr_mult: 1
    decay_mult: 1
  }
  param {
    lr_mult: 2
    decay_mult: 0
  }
  convolution_param {
    num_output: 64
    pad: 0
    pad: 1
    pad: 1
    kernel_size: 1
    kernel_size: 3
    kernel_size: 3
    weight_filler {
      type: "xavier"
    }
    bias_filler {
      type: "constant"
      value: 0.2
    }
  }
}
layer {
  name: "inception_3a/3x3_bn"
  type: "BN"
  bottom: "inception_3a/3x3"
  top: "inception_3a/3x3_bn"
  param {
    lr_mult: 1
    decay_mult: 0
  }
  param {
    lr_mult: 1
    decay_mult: 0
  }
  bn_param {
    slope_filler {
      type: "constant"
      value: 1
    }
    bias_filler {
      type: "constant"
      value: 0
    }
    frozen: false
  }
}
layer {
  name: "inception_3a/relu_3x3"
  type: "ReLU"
  bottom: "inception_3a/3x3_bn"
  top: "inception_3a/3x3_bn"
}
layer {
  name: "inception_3a/double_3x3_reduce_2d"
  type: "Convolution"
  bottom: "pool2/3x3_s2"
  top: "inception_3a/double_3x3_reduce"
  param {
    lr_mult: 1
    decay_mult: 1
  }
  param {
    lr_mult: 2
    decay_mult: 0
  }
  convolution_param {
    num_output: 64
    kernel_size: 1
    kernel_size: 1
    kernel_size: 1
    weight_filler {
      type: "xavier"
    }
    bias_filler {
      type: "constant"
      value: 0.2
    }
  }
}
layer {
  name: "inception_3a/double_3x3_reduce_bn"
  type: "BN"
  bottom: "inception_3a/double_3x3_reduce"
  top: "inception_3a/double_3x3_reduce_bn"
  param {
    lr_mult: 1
    decay_mult: 0
  }
  param {
    lr_mult: 1
    decay_mult: 0
  }
  bn_param {
    slope_filler {
      type: "constant"
      value: 1
    }
    bias_filler {
      type: "constant"
      value: 0
    }
    frozen: false
  }
}
layer {
  name: "inception_3a/relu_double_3x3_reduce"
  type: "ReLU"
  bottom: "inception_3a/double_3x3_reduce_bn"
  top: "inception_3a/double_3x3_reduce_bn"
}
layer {
  name: "inception_3a/double_3x3_1_2d"
  type: "Convolution"
  bottom: "inception_3a/double_3x3_reduce_bn"
  top: "inception_3a/double_3x3_1"
  param {
    lr_mult: 1
    decay_mult: 1
  }
  param {
    lr_mult: 2
    decay_mult: 0
  }
  convolution_param {
    num_output: 96
    pad: 0
    pad: 1
    pad: 1
    kernel_size: 1
    kernel_size: 3
    kernel_size: 3
    weight_filler {
      type: "xavier"
    }
    bias_filler {
      type: "constant"
      value: 0.2
    }
  }
}
layer {
  name: "inception_3a/double_3x3_1_bn"
  type: "BN"
  bottom: "inception_3a/double_3x3_1"
  top: "inception_3a/double_3x3_1_bn"
  param {
    lr_mult: 1
    decay_mult: 0
  }
  param {
    lr_mult: 1
    decay_mult: 0
  }
  bn_param {
    slope_filler {
      type: "constant"
      value: 1
    }
    bias_filler {
      type: "constant"
      value: 0
    }
    frozen: false
  }
}
layer {
  name: "inception_3a/relu_double_3x3_1"
  type: "ReLU"
  bottom: "inception_3a/double_3x3_1_bn"
  top: "inception_3a/double_3x3_1_bn"
}
layer {
  name: "inception_3a/double_3x3_2_2d"
  type: "Convolution"
  bottom: "inception_3a/double_3x3_1_bn"
  top: "inception_3a/double_3x3_2"
  param {
    lr_mult: 1
    decay_mult: 1
  }
  param {
    lr_mult: 2
    decay_mult: 0
  }
  convolution_param {
    num_output: 96
    pad: 0
    pad: 1
    pad: 1
    kernel_size: 1
    kernel_size: 3
    kernel_size: 3
    weight_filler {
      type: "xavier"
    }
    bias_filler {
      type: "constant"
      value: 0.2
    }
  }
}
layer {
  name: "inception_3a/double_3x3_2_bn"
  type: "BN"
  bottom: "inception_3a/double_3x3_2"
  top: "inception_3a/double_3x3_2_bn"
  param {
    lr_mult: 1
    decay_mult: 0
  }
  param {
    lr_mult: 1
    decay_mult: 0
  }
  bn_param {
    slope_filler {
      type: "constant"
      value: 1
    }
    bias_filler {
      type: "constant"
      value: 0
    }
    frozen: false
  }
}
layer {
  name: "inception_3a/relu_double_3x3_2"
  type: "ReLU"
  bottom: "inception_3a/double_3x3_2_bn"
  top: "inception_3a/double_3x3_2_bn"
}
layer {
  name: "inception_3a/pool_2d"
  type: "Pooling"
  bottom: "pool2/3x3_s2"
  top: "inception_3a/pool"
  pooling_param {
    pool: AVE
    kernel_size: 1
    kernel_size: 3
    kernel_size: 3
    stride: 1
    stride: 1
    stride: 1
    pad: 0
    pad: 1
    pad: 1
  }
}
layer {
  name: "inception_3a/pool_proj_2d"
  type: "Convolution"
  bottom: "inception_3a/pool"
  top: "inception_3a/pool_proj"
  param {
    lr_mult: 1
    decay_mult: 1
  }
  param {
    lr_mult: 2
    decay_mult: 0
  }
  convolution_param {
    num_output: 32
    kernel_size: 1
    kernel_size: 1
    kernel_size: 1
    weight_filler {
      type: "xavier"
    }
    bias_filler {
      type: "constant"
      value: 0.2
    }
  }
}
layer {
  name: "inception_3a/pool_proj_bn"
  type: "BN"
  bottom: "inception_3a/pool_proj"
  top: "inception_3a/pool_proj_bn"
  param {
    lr_mult: 1
    decay_mult: 0
  }
  param {
    lr_mult: 1
    decay_mult: 0
  }
  bn_param {
    slope_filler {
      type: "constant"
      value: 1
    }
    bias_filler {
      type: "constant"
      value: 0
    }
    frozen: false
  }
}
layer {
  name: "inception_3a/relu_pool_proj"
  type: "ReLU"
  bottom: "inception_3a/pool_proj_bn"
  top: "inception_3a/pool_proj_bn"
}
layer {
  name: "inception_3a/output"
  type: "Concat"
  bottom: "inception_3a/1x1_bn"
  bottom: "inception_3a/3x3_bn"
  bottom: "inception_3a/double_3x3_2_bn"
  bottom: "inception_3a/pool_proj_bn"
  top: "inception_3a/output"
}
layer {
  name: "inception_3b/1x1_2d"
  type: "Convolution"
  bottom: "inception_3a/output"
  top: "inception_3b/1x1"
  param {
    lr_mult: 1
    decay_mult: 1
  }
  param {
    lr_mult: 2
    decay_mult: 0
  }
  convolution_param {
    num_output: 64
    kernel_size: 1
    kernel_size: 1
    kernel_size: 1
    weight_filler {
      type: "xavier"
    }
    bias_filler {
      type: "constant"
      value: 0.2
    }
  }
}
layer {
  name: "inception_3b/1x1_bn"
  type: "BN"
  bottom: "inception_3b/1x1"
  top: "inception_3b/1x1_bn"
  param {
    lr_mult: 1
    decay_mult: 0
  }
  param {
    lr_mult: 1
    decay_mult: 0
  }
  bn_param {
    slope_filler {
      type: "constant"
      value: 1
    }
    bias_filler {
      type: "constant"
      value: 0
    }
    frozen: false
  }
}
layer {
  name: "inception_3b/relu_1x1"
  type: "ReLU"
  bottom: "inception_3b/1x1_bn"
  top: "inception_3b/1x1_bn"
}
layer {
  name: "inception_3b/3x3_reduce_2d"
  type: "Convolution"
  bottom: "inception_3a/output"
  top: "inception_3b/3x3_reduce"
  param {
    lr_mult: 1
    decay_mult: 1
  }
  param {
    lr_mult: 2
    decay_mult: 0
  }
  convolution_param {
    num_output: 64
    kernel_size: 1
    kernel_size: 1
    kernel_size: 1
    weight_filler {
      type: "xavier"
    }
    bias_filler {
      type: "constant"
      value: 0.2
    }
  }
}
layer {
  name: "inception_3b/3x3_reduce_bn"
  type: "BN"
  bottom: "inception_3b/3x3_reduce"
  top: "inception_3b/3x3_reduce_bn"
  param {
    lr_mult: 1
    decay_mult: 0
  }
  param {
    lr_mult: 1
    decay_mult: 0
  }
  bn_param {
    slope_filler {
      type: "constant"
      value: 1
    }
    bias_filler {
      type: "constant"
      value: 0
    }
    frozen: false
  }
}
layer {
  name: "inception_3b/relu_3x3_reduce"
  type: "ReLU"
  bottom: "inception_3b/3x3_reduce_bn"
  top: "inception_3b/3x3_reduce_bn"
}
layer {
  name: "inception_3b/3x3_2d"
  type: "Convolution"
  bottom: "inception_3b/3x3_reduce_bn"
  top: "inception_3b/3x3"
  param {
    lr_mult: 1
    decay_mult: 1
  }
  param {
    lr_mult: 2
    decay_mult: 0
  }
  convolution_param {
    num_output: 96
    pad: 0
    pad: 1
    pad: 1
    kernel_size: 1
    kernel_size: 3
    kernel_size: 3
    weight_filler {
      type: "xavier"
    }
    bias_filler {
      type: "constant"
      value: 0.2
    }
  }
}
layer {
  name: "inception_3b/3x3_bn"
  type: "BN"
  bottom: "inception_3b/3x3"
  top: "inception_3b/3x3_bn"
  param {
    lr_mult: 1
    decay_mult: 0
  }
  param {
    lr_mult: 1
    decay_mult: 0
  }
  bn_param {
    slope_filler {
      type: "constant"
      value: 1
    }
    bias_filler {
      type: "constant"
      value: 0
    }
    frozen: false
  }
}
layer {
  name: "inception_3b/relu_3x3"
  type: "ReLU"
  bottom: "inception_3b/3x3_bn"
  top: "inception_3b/3x3_bn"
}
layer {
  name: "inception_3b/double_3x3_reduce_2d"
  type: "Convolution"
  bottom: "inception_3a/output"
  top: "inception_3b/double_3x3_reduce"
  param {
    lr_mult: 1
    decay_mult: 1
  }
  param {
    lr_mult: 2
    decay_mult: 0
  }
  convolution_param {
    num_output: 64
    kernel_size: 1
    kernel_size: 1
    kernel_size: 1
    weight_filler {
      type: "xavier"
    }
    bias_filler {
      type: "constant"
      value: 0.2
    }
  }
}
layer {
  name: "inception_3b/double_3x3_reduce_bn"
  type: "BN"
  bottom: "inception_3b/double_3x3_reduce"
  top: "inception_3b/double_3x3_reduce_bn"
  param {
    lr_mult: 1
    decay_mult: 0
  }
  param {
    lr_mult: 1
    decay_mult: 0
  }
  bn_param {
    slope_filler {
      type: "constant"
      value: 1
    }
    bias_filler {
      type: "constant"
      value: 0
    }
    frozen: false
  }
}
layer {
  name: "inception_3b/relu_double_3x3_reduce"
  type: "ReLU"
  bottom: "inception_3b/double_3x3_reduce_bn"
  top: "inception_3b/double_3x3_reduce_bn"
}
layer {
  name: "inception_3b/double_3x3_1_2d"
  type: "Convolution"
  bottom: "inception_3b/double_3x3_reduce_bn"
  top: "inception_3b/double_3x3_1"
  param {
    lr_mult: 1
    decay_mult: 1
  }
  param {
    lr_mult: 2
    decay_mult: 0
  }
  convolution_param {
    num_output: 96
    pad: 0
    pad: 1
    pad: 1
    kernel_size: 1
    kernel_size: 3
    kernel_size: 3
    weight_filler {
      type: "xavier"
    }
    bias_filler {
      type: "constant"
      value: 0.2
    }
  }
}
layer {
  name: "inception_3b/double_3x3_1_bn"
  type: "BN"
  bottom: "inception_3b/double_3x3_1"
  top: "inception_3b/double_3x3_1_bn"
  param {
    lr_mult: 1
    decay_mult: 0
  }
  param {
    lr_mult: 1
    decay_mult: 0
  }
  bn_param {
    slope_filler {
      type: "constant"
      value: 1
    }
    bias_filler {
      type: "constant"
      value: 0
    }
    frozen: false
  }
}
layer {
  name: "inception_3b/relu_double_3x3_1"
  type: "ReLU"
  bottom: "inception_3b/double_3x3_1_bn"
  top: "inception_3b/double_3x3_1_bn"
}
layer {
  name: "inception_3b/double_3x3_2_2d"
  type: "Convolution"
  bottom: "inception_3b/double_3x3_1_bn"
  top: "inception_3b/double_3x3_2"
  param {
    lr_mult: 1
    decay_mult: 1
  }
  param {
    lr_mult: 2
    decay_mult: 0
  }
  convolution_param {
    num_output: 96
    pad: 0
    pad: 1
    pad: 1
    kernel_size: 1
    kernel_size: 3
    kernel_size: 3
    weight_filler {
      type: "xavier"
    }
    bias_filler {
      type: "constant"
      value: 0.2
    }
  }
}
layer {
  name: "inception_3b/double_3x3_2_bn"
  type: "BN"
  bottom: "inception_3b/double_3x3_2"
  top: "inception_3b/double_3x3_2_bn"
  param {
    lr_mult: 1
    decay_mult: 0
  }
  param {
    lr_mult: 1
    decay_mult: 0
  }
  bn_param {
    slope_filler {
      type: "constant"
      value: 1
    }
    bias_filler {
      type: "constant"
      value: 0
    }
    frozen: false
  }
}
layer {
  name: "inception_3b/relu_double_3x3_2"
  type: "ReLU"
  bottom: "inception_3b/double_3x3_2_bn"
  top: "inception_3b/double_3x3_2_bn"
}
layer {
  name: "inception_3b/pool_2d"
  type: "Pooling"
  bottom: "inception_3a/output"
  top: "inception_3b/pool"
  pooling_param {
    pool: AVE
    kernel_size: 1
    kernel_size: 3
    kernel_size: 3
    stride: 1
    stride: 1
    stride: 1
    pad: 0
    pad: 1
    pad: 1
  }
}
layer {
  name: "inception_3b/pool_proj_2d"
  type: "Convolution"
  bottom: "inception_3b/pool"
  top: "inception_3b/pool_proj"
  param {
    lr_mult: 1
    decay_mult: 1
  }
  param {
    lr_mult: 2
    decay_mult: 0
  }
  convolution_param {
    num_output: 64
    kernel_size: 1
    kernel_size: 1
    kernel_size: 1
    weight_filler {
      type: "xavier"
    }
    bias_filler {
      type: "constant"
      value: 0.2
    }
  }
}
layer {
  name: "inception_3b/pool_proj_bn"
  type: "BN"
  bottom: "inception_3b/pool_proj"
  top: "inception_3b/pool_proj_bn"
  param {
    lr_mult: 1
    decay_mult: 0
  }
  param {
    lr_mult: 1
    decay_mult: 0
  }
  bn_param {
    slope_filler {
      type: "constant"
      value: 1
    }
    bias_filler {
      type: "constant"
      value: 0
    }
    frozen: false
  }
}
layer {
  name: "inception_3b/relu_pool_proj"
  type: "ReLU"
  bottom: "inception_3b/pool_proj_bn"
  top: "inception_3b/pool_proj_bn"
}
layer {
  name: "inception_3b/output"
  type: "Concat"
  bottom: "inception_3b/1x1_bn"
  bottom: "inception_3b/3x3_bn"
  bottom: "inception_3b/double_3x3_2_bn"
  bottom: "inception_3b/pool_proj_bn"
  top: "inception_3b/output"
}
layer {
  name: "inception_3c/3x3_reduce_2d"
  type: "Convolution"
  bottom: "inception_3b/output"
  top: "inception_3c/3x3_reduce"
  param {
    lr_mult: 1
    decay_mult: 1
  }
  param {
    lr_mult: 2
    decay_mult: 0
  }
  convolution_param {
    num_output: 128
    kernel_size: 1
    kernel_size: 1
    kernel_size: 1
    weight_filler {
      type: "xavier"
    }
    bias_filler {
      type: "constant"
      value: 0.2
    }
  }
}
layer {
  name: "inception_3c/3x3_reduce_bn"
  type: "BN"
  bottom: "inception_3c/3x3_reduce"
  top: "inception_3c/3x3_reduce_bn"
  param {
    lr_mult: 1
    decay_mult: 0
  }
  param {
    lr_mult: 1
    decay_mult: 0
  }
  bn_param {
    slope_filler {
      type: "constant"
      value: 1
    }
    bias_filler {
      type: "constant"
      value: 0
    }
    frozen: false
  }
}
layer {
  name: "inception_3c/relu_3x3_reduce"
  type: "ReLU"
  bottom: "inception_3c/3x3_reduce_bn"
  top: "inception_3c/3x3_reduce_bn"
}
layer {
  name: "inception_3c/3x3_2d"
  type: "Convolution"
  bottom: "inception_3c/3x3_reduce_bn"
  top: "inception_3c/3x3"
  param {
    lr_mult: 1
    decay_mult: 1
  }
  param {
    lr_mult: 2
    decay_mult: 0
  }
  convolution_param {
    num_output: 160
    pad: 0
    pad: 1
    pad: 1
    kernel_size: 1
    kernel_size: 3
    kernel_size: 3
    stride: 1
    stride: 2
    stride: 2
    weight_filler {
      type: "xavier"
    }
    bias_filler {
      type: "constant"
      value: 0.2
    }
  }
}
layer {
  name: "inception_3c/3x3_bn"
  type: "BN"
  bottom: "inception_3c/3x3"
  top: "inception_3c/3x3_bn"
  param {
    lr_mult: 1
    decay_mult: 0
  }
  param {
    lr_mult: 1
    decay_mult: 0
  }
  bn_param {
    slope_filler {
      type: "constant"
      value: 1
    }
    bias_filler {
      type: "constant"
      value: 0
    }
    frozen: false
  }
}
layer {
  name: "inception_3c/relu_3x3"
  type: "ReLU"
  bottom: "inception_3c/3x3_bn"
  top: "inception_3c/3x3_bn"
}
layer {
  name: "inception_3c/double_3x3_reduce_2d"
  type: "Convolution"
  bottom: "inception_3b/output"
  top: "inception_3c/double_3x3_reduce"
  param {
    lr_mult: 1
    decay_mult: 1
  }
  param {
    lr_mult: 2
    decay_mult: 0
  }
  convolution_param {
    num_output: 64
    kernel_size: 1
    kernel_size: 1
    kernel_size: 1
    weight_filler {
      type: "xavier"
    }
    bias_filler {
      type: "constant"
      value: 0.2
    }
  }
}
layer {
  name: "inception_3c/double_3x3_reduce_bn"
  type: "BN"
  bottom: "inception_3c/double_3x3_reduce"
  top: "inception_3c/double_3x3_reduce_bn"
  param {
    lr_mult: 1
    decay_mult: 0
  }
  param {
    lr_mult: 1
    decay_mult: 0
  }
  bn_param {
    slope_filler {
      type: "constant"
      value: 1
    }
    bias_filler {
      type: "constant"
      value: 0
    }
    frozen: false
  }
}
layer {
  name: "inception_3c/relu_double_3x3_reduce"
  type: "ReLU"
  bottom: "inception_3c/double_3x3_reduce_bn"
  top: "inception_3c/double_3x3_reduce_bn"
}
layer {
  name: "inception_3c/double_3x3_1_2d"
  type: "Convolution"
  bottom: "inception_3c/double_3x3_reduce_bn"
  top: "inception_3c/double_3x3_1"
  param {
    lr_mult: 1
    decay_mult: 1
  }
  param {
    lr_mult: 2
    decay_mult: 0
  }
  convolution_param {
    num_output: 96
    pad: 0
    pad: 1
    pad: 1
    kernel_size: 1
    kernel_size: 3
    kernel_size: 3
    weight_filler {
      type: "xavier"
    }
    bias_filler {
      type: "constant"
      value: 0.2
    }
  }
}
layer {
  name: "inception_3c/double_3x3_1_bn"
  type: "BN"
  bottom: "inception_3c/double_3x3_1"
  top: "inception_3c/double_3x3_1_bn"
  param {
    lr_mult: 1
    decay_mult: 0
  }
  param {
    lr_mult: 1
    decay_mult: 0
  }
  bn_param {
    slope_filler {
      type: "constant"
      value: 1
    }
    bias_filler {
      type: "constant"
      value: 0
    }
    frozen: false
  }
}
layer {
  name: "inception_3c/relu_double_3x3_1"
  type: "ReLU"
  bottom: "inception_3c/double_3x3_1_bn"
  top: "inception_3c/double_3x3_1_bn"
}
layer {
  name: "inception_3c/double_3x3_2_2d"
  type: "Convolution"
  bottom: "inception_3c/double_3x3_1_bn"
  top: "inception_3c/double_3x3_2"
  param {
    lr_mult: 1
    decay_mult: 1
  }
  param {
    lr_mult: 2
    decay_mult: 0
  }
  convolution_param {
    num_output: 96
    pad: 0
    pad: 1
    pad: 1
    kernel_size: 1
    kernel_size: 3
    kernel_size: 3
    stride: 1
    stride: 2
    stride: 2
    weight_filler {
      type: "xavier"
    }
    bias_filler {
      type: "constant"
      value: 0.2
    }
  }
}
layer {
  name: "inception_3c/double_3x3_2_bn"
  type: "BN"
  bottom: "inception_3c/double_3x3_2"
  top: "inception_3c/double_3x3_2_bn"
  param {
    lr_mult: 1
    decay_mult: 0
  }
  param {
    lr_mult: 1
    decay_mult: 0
  }
  bn_param {
    slope_filler {
      type: "constant"
      value: 1
    }
    bias_filler {
      type: "constant"
      value: 0
    }
    frozen: false
  }
}
layer {
  name: "inception_3c/relu_double_3x3_2"
  type: "ReLU"
  bottom: "inception_3c/double_3x3_2_bn"
  top: "inception_3c/double_3x3_2_bn"
}
layer {
  name: "inception_3c/pool_2d"
  type: "Pooling"
  bottom: "inception_3b/output"
  top: "inception_3c/pool"
  pooling_param {
    pool: MAX
    kernel_size: 1
    kernel_size: 3
    kernel_size: 3
    stride: 1
    stride: 2
    stride: 2
  }
}
layer {
  name: "inception_3c/output"
  type: "Concat"
  bottom: "inception_3c/3x3_bn"
  bottom: "inception_3c/double_3x3_2_bn"
  bottom: "inception_3c/pool"
  top: "inception_3c/output_1"
}
layer {
  name: "pool_3c"
  type: "Pooling"
  bottom: "inception_3c/output_1"
  top: "inception_3c/output"
  pooling_param {
    pool: MAX
    kernel_size: 2
    kernel_size: 1
    kernel_size: 1
    stride: 2
    stride: 1
    stride: 1
  }
}
layer {
  name: "inception_4a/1x1_2d"
  type: "Convolution"
  bottom: "inception_3c/output"
  top: "inception_4a/1x1"
  param {
    lr_mult: 1
    decay_mult: 1
  }
  param {
    lr_mult: 2
    decay_mult: 0
  }
  convolution_param {
    num_output: 224
    kernel_size: 1
    kernel_size: 1
    kernel_size: 1
    weight_filler {
      type: "xavier"
    }
    bias_filler {
      type: "constant"
      value: 0.2
    }
  }
}
layer {
  name: "inception_4a/1x1_bn"
  type: "BN"
  bottom: "inception_4a/1x1"
  top: "inception_4a/1x1_bn"
  param {
    lr_mult: 1
    decay_mult: 0
  }
  param {
    lr_mult: 1
    decay_mult: 0
  }
  bn_param {
    slope_filler {
      type: "constant"
      value: 1
    }
    bias_filler {
      type: "constant"
      value: 0
    }
    frozen: false
  }
}
layer {
  name: "inception_4a/relu_1x1"
  type: "ReLU"
  bottom: "inception_4a/1x1_bn"
  top: "inception_4a/1x1_bn"
}
layer {
  name: "inception_4a/3x3_reduce_2d"
  type: "Convolution"
  bottom: "inception_3c/output"
  top: "inception_4a/3x3_reduce"
  param {
    lr_mult: 1
    decay_mult: 1
  }
  param {
    lr_mult: 2
    decay_mult: 0
  }
  convolution_param {
    num_output: 64
    kernel_size: 1
    kernel_size: 1
    kernel_size: 1
    weight_filler {
      type: "xavier"
    }
    bias_filler {
      type: "constant"
      value: 0.2
    }
  }
}
layer {
  name: "inception_4a/3x3_reduce_bn"
  type: "BN"
  bottom: "inception_4a/3x3_reduce"
  top: "inception_4a/3x3_reduce_bn"
  param {
    lr_mult: 1
    decay_mult: 0
  }
  param {
    lr_mult: 1
    decay_mult: 0
  }
  bn_param {
    slope_filler {
      type: "constant"
      value: 1
    }
    bias_filler {
      type: "constant"
      value: 0
    }
    frozen: false
  }
}
layer {
  name: "inception_4a/relu_3x3_reduce"
  type: "ReLU"
  bottom: "inception_4a/3x3_reduce_bn"
  top: "inception_4a/3x3_reduce_bn"
}
layer {
  name: "inception_4a/3x3_2d"
  type: "Convolution"
  bottom: "inception_4a/3x3_reduce_bn"
  top: "inception_4a/3x3"
  param {
    lr_mult: 1
    decay_mult: 1
  }
  param {
    lr_mult: 2
    decay_mult: 0
  }
  convolution_param {
    num_output: 96
    pad: 0
    pad: 1
    pad: 1
    kernel_size: 1
    kernel_size: 3
    kernel_size: 3
    weight_filler {
      type: "xavier"
    }
    bias_filler {
      type: "constant"
      value: 0.2
    }
  }
}
layer {
  name: "inception_4a/3x3_bn"
  type: "BN"
  bottom: "inception_4a/3x3"
  top: "inception_4a/3x3_bn"
  param {
    lr_mult: 1
    decay_mult: 0
  }
  param {
    lr_mult: 1
    decay_mult: 0
  }
  bn_param {
    slope_filler {
      type: "constant"
      value: 1
    }
    bias_filler {
      type: "constant"
      value: 0
    }
    frozen: false
  }
}
layer {
  name: "inception_4a/relu_3x3"
  type: "ReLU"
  bottom: "inception_4a/3x3_bn"
  top: "inception_4a/3x3_bn"
}
layer {
  name: "inception_4a/double_3x3_reduce_2d"
  type: "Convolution"
  bottom: "inception_3c/output"
  top: "inception_4a/double_3x3_reduce"
  param {
    lr_mult: 1
    decay_mult: 1
  }
  param {
    lr_mult: 2
    decay_mult: 0
  }
  convolution_param {
    num_output: 96
    kernel_size: 1
    kernel_size: 1
    kernel_size: 1
    weight_filler {
      type: "xavier"
    }
    bias_filler {
      type: "constant"
      value: 0.2
    }
  }
}
layer {
  name: "inception_4a/double_3x3_reduce_bn"
  type: "BN"
  bottom: "inception_4a/double_3x3_reduce"
  top: "inception_4a/double_3x3_reduce_bn"
  param {
    lr_mult: 1
    decay_mult: 0
  }
  param {
    lr_mult: 1
    decay_mult: 0
  }
  bn_param {
    slope_filler {
      type: "constant"
      value: 1
    }
    bias_filler {
      type: "constant"
      value: 0
    }
    frozen: false
  }
}
layer {
  name: "inception_4a/relu_double_3x3_reduce"
  type: "ReLU"
  bottom: "inception_4a/double_3x3_reduce_bn"
  top: "inception_4a/double_3x3_reduce_bn"
}
layer {
  name: "inception_4a/double_3x3_1_2d"
  type: "Convolution"
  bottom: "inception_4a/double_3x3_reduce_bn"
  top: "inception_4a/double_3x3_1"
  param {
    lr_mult: 1
    decay_mult: 1
  }
  param {
    lr_mult: 2
    decay_mult: 0
  }
  convolution_param {
    num_output: 128
    pad: 0
    pad: 1
    pad: 1
    kernel_size: 1
    kernel_size: 3
    kernel_size: 3
    weight_filler {
      type: "xavier"
    }
    bias_filler {
      type: "constant"
      value: 0.2
    }
  }
}
layer {
  name: "inception_4a/double_3x3_1_bn"
  type: "BN"
  bottom: "inception_4a/double_3x3_1"
  top: "inception_4a/double_3x3_1_bn"
  param {
    lr_mult: 1
    decay_mult: 0
  }
  param {
    lr_mult: 1
    decay_mult: 0
  }
  bn_param {
    slope_filler {
      type: "constant"
      value: 1
    }
    bias_filler {
      type: "constant"
      value: 0
    }
    frozen: false
  }
}
layer {
  name: "inception_4a/relu_double_3x3_1"
  type: "ReLU"
  bottom: "inception_4a/double_3x3_1_bn"
  top: "inception_4a/double_3x3_1_bn"
}
layer {
  name: "inception_4a/double_3x3_2_2d"
  type: "Convolution"
  bottom: "inception_4a/double_3x3_1_bn"
  top: "inception_4a/double_3x3_2"
  param {
    lr_mult: 1
    decay_mult: 1
  }
  param {
    lr_mult: 2
    decay_mult: 0
  }
  convolution_param {
    num_output: 128
    pad: 0
    pad: 1
    pad: 1
    kernel_size: 1
    kernel_size: 3
    kernel_size: 3
    weight_filler {
      type: "xavier"
    }
    bias_filler {
      type: "constant"
      value: 0.2
    }
  }
}
layer {
  name: "
I0612 16:37:30.813128  3329 layer_factory.hpp:74] Creating layer data
I0612 16:37:30.814185  3329 net.cpp:99] Creating Layer data
I0612 16:37:30.814199  3329 net.cpp:436] data -> data
I0612 16:37:30.816185  3329 net.cpp:436] data -> label
I0612 16:37:30.816200  3329 net.cpp:163] Setting up data
I0612 16:37:30.819169  3329 video_data_layer.cpp:36] Opening file: /home/bwzhang/parrots/tsn.parrots/data/kinetics_train_list.txt
I0612 16:37:30.989259  3329 video_data_layer.cpp:52] A total of 240436 videos.
I0612 16:37:31.057961  3329 video_data_layer.cpp:110] output data size: 16,32,224,224
I0612 16:37:31.082530  3329 net.cpp:170] Top shape: 16 32 224 224 (25690112)
I0612 16:37:31.082553  3329 net.cpp:170] Top shape: 16 1 1 1 (16)
I0612 16:37:31.082561  3329 layer_factory.hpp:74] Creating layer 
I0612 16:37:31.082578  3329 net.cpp:99] Creating Layer 
I0612 16:37:31.082584  3329 net.cpp:480]  <- data
I0612 16:37:31.082594  3329 net.cpp:130] This layer is inheriting previous layer's sync mode: 1
I0612 16:37:31.082602  3329 net.cpp:436]  -> data_reshape
I0612 16:37:31.082613  3329 net.cpp:163] Setting up 
I0612 16:37:31.082623  3329 net.cpp:170] Top shape: 32 2 8 224 224 (25690112)
I0612 16:37:31.082628  3329 layer_factory.hpp:74] Creating layer conv1/7x7_s2_2d
I0612 16:37:31.082638  3329 net.cpp:99] Creating Layer conv1/7x7_s2_2d
I0612 16:37:31.082641  3329 net.cpp:480] conv1/7x7_s2_2d <- data_reshape
I0612 16:37:31.082645  3329 net.cpp:130] This layer is inheriting previous layer's sync mode: 1
I0612 16:37:31.082649  3329 net.cpp:436] conv1/7x7_s2_2d -> conv1/7x7_s2
I0612 16:37:31.082679  3329 net.cpp:163] Setting up conv1/7x7_s2_2d
I0612 16:37:32.973359  3329 net.cpp:170] Top shape: 32 64 8 112 112 (205520896)
I0612 16:37:32.973405  3329 layer_factory.hpp:74] Creating layer conv1/7x7_s2_bn
I0612 16:37:32.973425  3329 layer_factory.cpp:181] Layer conv1/7x7_s2_bn is using CUDNN engine.
I0612 16:37:32.973439  3329 net.cpp:99] Creating Layer conv1/7x7_s2_bn
I0612 16:37:32.973445  3329 net.cpp:480] conv1/7x7_s2_bn <- conv1/7x7_s2
I0612 16:37:32.973462  3329 net.cpp:130] This layer is inheriting previous layer's sync mode: 1
I0612 16:37:32.973467  3329 net.cpp:436] conv1/7x7_s2_bn -> conv1/7x7_s2_bn
I0612 16:37:32.973480  3329 net.cpp:163] Setting up conv1/7x7_s2_bn
I0612 16:37:32.981583  3329 cudnn_bn_layer.cpp:30] using cuDNN BN engine
I0612 16:37:32.981626  3329 net.cpp:170] Top shape: 32 64 8 112 112 (205520896)
I0612 16:37:32.981640  3329 layer_factory.hpp:74] Creating layer conv1/relu_7x7
I0612 16:37:32.981657  3329 net.cpp:99] Creating Layer conv1/relu_7x7
I0612 16:37:32.981662  3329 net.cpp:480] conv1/relu_7x7 <- conv1/7x7_s2_bn
I0612 16:37:32.981665  3329 net.cpp:130] This layer is inheriting previous layer's sync mode: 1
I0612 16:37:32.981672  3329 net.cpp:425] conv1/relu_7x7 -> conv1/7x7_s2_bn (in-place)
I0612 16:37:32.981678  3329 net.cpp:163] Setting up conv1/relu_7x7
I0612 16:37:32.983016  3329 net.cpp:170] Top shape: 32 64 8 112 112 (205520896)
I0612 16:37:32.983047  3329 layer_factory.hpp:74] Creating layer pool1/3x3_s2_2d
I0612 16:37:32.983063  3329 net.cpp:99] Creating Layer pool1/3x3_s2_2d
I0612 16:37:32.983067  3329 net.cpp:480] pool1/3x3_s2_2d <- conv1/7x7_s2_bn
I0612 16:37:32.983073  3329 net.cpp:130] This layer is inheriting previous layer's sync mode: 1
I0612 16:37:32.983078  3329 net.cpp:436] pool1/3x3_s2_2d -> pool1/3x3_s2
I0612 16:37:32.983084  3329 net.cpp:163] Setting up pool1/3x3_s2_2d
I0612 16:37:32.985848  3329 net.cpp:170] Top shape: 32 64 8 56 56 (51380224)
I0612 16:37:32.985880  3329 layer_factory.hpp:74] Creating layer conv2/3x3_reduce_2d
I0612 16:37:32.985896  3329 net.cpp:99] Creating Layer conv2/3x3_reduce_2d
I0612 16:37:32.985900  3329 net.cpp:480] conv2/3x3_reduce_2d <- pool1/3x3_s2
I0612 16:37:32.985905  3329 net.cpp:130] This layer is inheriting previous layer's sync mode: 1
I0612 16:37:32.985911  3329 net.cpp:436] conv2/3x3_reduce_2d -> conv2/3x3_reduce
I0612 16:37:32.985918  3329 net.cpp:163] Setting up conv2/3x3_reduce_2d
I0612 16:37:33.145889  3329 net.cpp:170] Top shape: 32 64 8 56 56 (51380224)
I0612 16:37:33.145921  3329 layer_factory.hpp:74] Creating layer conv2/3x3_reduce_bn
I0612 16:37:33.145927  3329 layer_factory.cpp:181] Layer conv2/3x3_reduce_bn is using CUDNN engine.
I0612 16:37:33.145946  3329 net.cpp:99] Creating Layer conv2/3x3_reduce_bn
I0612 16:37:33.145948  3329 net.cpp:480] conv2/3x3_reduce_bn <- conv2/3x3_reduce
I0612 16:37:33.145954  3329 net.cpp:130] This layer is inheriting previous layer's sync mode: 1
I0612 16:37:33.145970  3329 net.cpp:436] conv2/3x3_reduce_bn -> conv2/3x3_reduce_bn
I0612 16:37:33.145977  3329 net.cpp:163] Setting up conv2/3x3_reduce_bn
I0612 16:37:33.146137  3329 cudnn_bn_layer.cpp:30] using cuDNN BN engine
I0612 16:37:33.146152  3329 net.cpp:170] Top shape: 32 64 8 56 56 (51380224)
I0612 16:37:33.146162  3329 layer_factory.hpp:74] Creating layer conv2/relu_3x3_reduce
I0612 16:37:33.146168  3329 net.cpp:99] Creating Layer conv2/relu_3x3_reduce
I0612 16:37:33.146173  3329 net.cpp:480] conv2/relu_3x3_reduce <- conv2/3x3_reduce_bn
I0612 16:37:33.146176  3329 net.cpp:130] This layer is inheriting previous layer's sync mode: 1
I0612 16:37:33.146180  3329 net.cpp:425] conv2/relu_3x3_reduce -> conv2/3x3_reduce_bn (in-place)
I0612 16:37:33.146184  3329 net.cpp:163] Setting up conv2/relu_3x3_reduce
I0612 16:37:33.147883  3329 net.cpp:170] Top shape: 32 64 8 56 56 (51380224)
I0612 16:37:33.147897  3329 layer_factory.hpp:74] Creating layer conv2/3x3_2d
I0612 16:37:33.147915  3329 net.cpp:99] Creating Layer conv2/3x3_2d
I0612 16:37:33.147919  3329 net.cpp:480] conv2/3x3_2d <- conv2/3x3_reduce_bn
I0612 16:37:33.147927  3329 net.cpp:130] This layer is inheriting previous layer's sync mode: 1
I0612 16:37:33.147951  3329 net.cpp:436] conv2/3x3_2d -> conv2/3x3
I0612 16:37:33.147960  3329 net.cpp:163] Setting up conv2/3x3_2d
I0612 16:37:33.891584  3329 net.cpp:170] Top shape: 32 192 8 56 56 (154140672)
I0612 16:37:33.891618  3329 layer_factory.hpp:74] Creating layer conv2/3x3_bn
I0612 16:37:33.891628  3329 layer_factory.cpp:181] Layer conv2/3x3_bn is using CUDNN engine.
I0612 16:37:33.891636  3329 net.cpp:99] Creating Layer conv2/3x3_bn
I0612 16:37:33.891643  3329 net.cpp:480] conv2/3x3_bn <- conv2/3x3
I0612 16:37:33.891649  3329 net.cpp:130] This layer is inheriting previous layer's sync mode: 1
I0612 16:37:33.891654  3329 net.cpp:436] conv2/3x3_bn -> conv2/3x3_bn
I0612 16:37:33.891659  3329 net.cpp:163] Setting up conv2/3x3_bn
I0612 16:37:33.891954  3329 cudnn_bn_layer.cpp:30] using cuDNN BN engine
I0612 16:37:33.891973  3329 net.cpp:170] Top shape: 32 192 8 56 56 (154140672)
I0612 16:37:33.891993  3329 layer_factory.hpp:74] Creating layer conv2/relu_3x3
I0612 16:37:33.892002  3329 net.cpp:99] Creating Layer conv2/relu_3x3
I0612 16:37:33.892006  3329 net.cpp:480] conv2/relu_3x3 <- conv2/3x3_bn
I0612 16:37:33.892011  3329 net.cpp:130] This layer is inheriting previous layer's sync mode: 1
I0612 16:37:33.892016  3329 net.cpp:425] conv2/relu_3x3 -> conv2/3x3_bn (in-place)
I0612 16:37:33.892021  3329 net.cpp:163] Setting up conv2/relu_3x3
I0612 16:37:33.892882  3329 net.cpp:170] Top shape: 32 192 8 56 56 (154140672)
I0612 16:37:33.892897  3329 layer_factory.hpp:74] Creating layer pool2/3x3_s2_2d
I0612 16:37:33.892918  3329 net.cpp:99] Creating Layer pool2/3x3_s2_2d
I0612 16:37:33.892922  3329 net.cpp:480] pool2/3x3_s2_2d <- conv2/3x3_bn
I0612 16:37:33.892926  3329 net.cpp:130] This layer is inheriting previous layer's sync mode: 1
I0612 16:37:33.892932  3329 net.cpp:436] pool2/3x3_s2_2d -> pool2/3x3_s2
I0612 16:37:33.892940  3329 net.cpp:163] Setting up pool2/3x3_s2_2d
I0612 16:37:33.893120  3329 net.cpp:170] Top shape: 32 192 4 28 28 (19267584)
I0612 16:37:33.893132  3329 layer_factory.hpp:74] Creating layer pool2/3x3_s2_pool2/3x3_s2_2d_0_split
I0612 16:37:33.893151  3329 net.cpp:99] Creating Layer pool2/3x3_s2_pool2/3x3_s2_2d_0_split
I0612 16:37:33.893154  3329 net.cpp:480] pool2/3x3_s2_pool2/3x3_s2_2d_0_split <- pool2/3x3_s2
I0612 16:37:33.893159  3329 net.cpp:130] This layer is inheriting previous layer's sync mode: 1
I0612 16:37:33.893162  3329 net.cpp:436] pool2/3x3_s2_pool2/3x3_s2_2d_0_split -> pool2/3x3_s2_pool2/3x3_s2_2d_0_split_0
I0612 16:37:33.893170  3329 net.cpp:436] pool2/3x3_s2_pool2/3x3_s2_2d_0_split -> pool2/3x3_s2_pool2/3x3_s2_2d_0_split_1
I0612 16:37:33.893175  3329 net.cpp:436] pool2/3x3_s2_pool2/3x3_s2_2d_0_split -> pool2/3x3_s2_pool2/3x3_s2_2d_0_split_2
I0612 16:37:33.893179  3329 net.cpp:436] pool2/3x3_s2_pool2/3x3_s2_2d_0_split -> pool2/3x3_s2_pool2/3x3_s2_2d_0_split_3
I0612 16:37:33.893183  3329 net.cpp:163] Setting up pool2/3x3_s2_pool2/3x3_s2_2d_0_split
I0612 16:37:33.893189  3329 net.cpp:170] Top shape: 32 192 4 28 28 (19267584)
I0612 16:37:33.893193  3329 net.cpp:170] Top shape: 32 192 4 28 28 (19267584)
I0612 16:37:33.893196  3329 net.cpp:170] Top shape: 32 192 4 28 28 (19267584)
I0612 16:37:33.893199  3329 net.cpp:170] Top shape: 32 192 4 28 28 (19267584)
I0612 16:37:33.893203  3329 layer_factory.hpp:74] Creating layer inception_3a/1x1_2d
I0612 16:37:33.893213  3329 net.cpp:99] Creating Layer inception_3a/1x1_2d
I0612 16:37:33.893218  3329 net.cpp:480] inception_3a/1x1_2d <- pool2/3x3_s2_pool2/3x3_s2_2d_0_split_0
I0612 16:37:33.893220  3329 net.cpp:130] This layer is inheriting previous layer's sync mode: 1
I0612 16:37:33.893226  3329 net.cpp:436] inception_3a/1x1_2d -> inception_3a/1x1
I0612 16:37:33.893232  3329 net.cpp:163] Setting up inception_3a/1x1_2d
I0612 16:37:33.981575  3329 net.cpp:170] Top shape: 32 64 4 28 28 (6422528)
I0612 16:37:33.981603  3329 layer_factory.hpp:74] Creating layer inception_3a/1x1_bn
I0612 16:37:33.981608  3329 layer_factory.cpp:181] Layer inception_3a/1x1_bn is using CUDNN engine.
I0612 16:37:33.981628  3329 net.cpp:99] Creating Layer inception_3a/1x1_bn
I0612 16:37:33.981632  3329 net.cpp:480] inception_3a/1x1_bn <- inception_3a/1x1
I0612 16:37:33.981638  3329 net.cpp:130] This layer is inheriting previous layer's sync mode: 1
I0612 16:37:33.981642  3329 net.cpp:436] inception_3a/1x1_bn -> inception_3a/1x1_bn
I0612 16:37:33.981652  3329 net.cpp:163] Setting up inception_3a/1x1_bn
I0612 16:37:33.981827  3329 cudnn_bn_layer.cpp:30] using cuDNN BN engine
I0612 16:37:33.981843  3329 net.cpp:170] Top shape: 32 64 4 28 28 (6422528)
I0612 16:37:33.981851  3329 layer_factory.hpp:74] Creating layer inception_3a/relu_1x1
I0612 16:37:33.981863  3329 net.cpp:99] Creating Layer inception_3a/relu_1x1
I0612 16:37:33.981866  3329 net.cpp:480] inception_3a/relu_1x1 <- inception_3a/1x1_bn
I0612 16:37:33.981870  3329 net.cpp:130] This layer is inheriting previous layer's sync mode: 1
I0612 16:37:33.981873  3329 net.cpp:425] inception_3a/relu_1x1 -> inception_3a/1x1_bn (in-place)
I0612 16:37:33.981878  3329 net.cpp:163] Setting up inception_3a/relu_1x1
I0612 16:37:33.984403  3329 net.cpp:170] Top shape: 32 64 4 28 28 (6422528)
I0612 16:37:33.984418  3329 layer_factory.hpp:74] Creating layer inception_3a/3x3_reduce_2d
I0612 16:37:33.984441  3329 net.cpp:99] Creating Layer inception_3a/3x3_reduce_2d
I0612 16:37:33.984444  3329 net.cpp:480] inception_3a/3x3_reduce_2d <- pool2/3x3_s2_pool2/3x3_s2_2d_0_split_1
I0612 16:37:33.984449  3329 net.cpp:130] This layer is inheriting previous layer's sync mode: 1
I0612 16:37:33.984457  3329 net.cpp:436] inception_3a/3x3_reduce_2d -> inception_3a/3x3_reduce
I0612 16:37:33.984462  3329 net.cpp:163] Setting up inception_3a/3x3_reduce_2d
I0612 16:37:34.077253  3329 net.cpp:170] Top shape: 32 64 4 28 28 (6422528)
I0612 16:37:34.077270  3329 layer_factory.hpp:74] Creating layer inception_3a/3x3_reduce_bn
I0612 16:37:34.077286  3329 layer_factory.cpp:181] Layer inception_3a/3x3_reduce_bn is using CUDNN engine.
I0612 16:37:34.077293  3329 net.cpp:99] Creating Layer inception_3a/3x3_reduce_bn
I0612 16:37:34.077297  3329 net.cpp:480] inception_3a/3x3_reduce_bn <- inception_3a/3x3_reduce
I0612 16:37:34.077302  3329 net.cpp:130] This layer is inheriting previous layer's sync mode: 1
I0612 16:37:34.077306  3329 net.cpp:436] inception_3a/3x3_reduce_bn -> inception_3a/3x3_reduce_bn
I0612 16:37:34.077313  3329 net.cpp:163] Setting up inception_3a/3x3_reduce_bn
I0612 16:37:34.077502  3329 cudnn_bn_layer.cpp:30] using cuDNN BN engine
I0612 16:37:34.077517  3329 net.cpp:170] Top shape: 32 64 4 28 28 (6422528)
I0612 16:37:34.077525  3329 layer_factory.hpp:74] Creating layer inception_3a/relu_3x3_reduce
I0612 16:37:34.077533  3329 net.cpp:99] Creating Layer inception_3a/relu_3x3_reduce
I0612 16:37:34.077540  3329 net.cpp:480] inception_3a/relu_3x3_reduce <- inception_3a/3x3_reduce_bn
I0612 16:37:34.077544  3329 net.cpp:130] This layer is inheriting previous layer's sync mode: 1
I0612 16:37:34.077548  3329 net.cpp:425] inception_3a/relu_3x3_reduce -> inception_3a/3x3_reduce_bn (in-place)
I0612 16:37:34.077553  3329 net.cpp:163] Setting up inception_3a/relu_3x3_reduce
I0612 16:37:34.082799  3329 net.cpp:170] Top shape: 32 64 4 28 28 (6422528)
I0612 16:37:34.082814  3329 layer_factory.hpp:74] Creating layer inception_3a/3x3_2d
I0612 16:37:34.082825  3329 net.cpp:99] Creating Layer inception_3a/3x3_2d
I0612 16:37:34.082829  3329 net.cpp:480] inception_3a/3x3_2d <- inception_3a/3x3_reduce_bn
I0612 16:37:34.082834  3329 net.cpp:130] This layer is inheriting previous layer's sync mode: 1
I0612 16:37:34.082839  3329 net.cpp:436] inception_3a/3x3_2d -> inception_3a/3x3
I0612 16:37:34.082846  3329 net.cpp:163] Setting up inception_3a/3x3_2d
I0612 16:37:34.176767  3329 net.cpp:170] Top shape: 32 64 4 28 28 (6422528)
I0612 16:37:34.176800  3329 layer_factory.hpp:74] Creating layer inception_3a/3x3_bn
I0612 16:37:34.176805  3329 layer_factory.cpp:181] Layer inception_3a/3x3_bn is using CUDNN engine.
I0612 16:37:34.176811  3329 net.cpp:99] Creating Layer inception_3a/3x3_bn
I0612 16:37:34.176815  3329 net.cpp:480] inception_3a/3x3_bn <- inception_3a/3x3
I0612 16:37:34.176831  3329 net.cpp:130] This layer is inheriting previous layer's sync mode: 1
I0612 16:37:34.176836  3329 net.cpp:436] inception_3a/3x3_bn -> inception_3a/3x3_bn
I0612 16:37:34.176842  3329 net.cpp:163] Setting up inception_3a/3x3_bn
I0612 16:37:34.177044  3329 cudnn_bn_layer.cpp:30] using cuDNN BN engine
I0612 16:37:34.177058  3329 net.cpp:170] Top shape: 32 64 4 28 28 (6422528)
I0612 16:37:34.177081  3329 layer_factory.hpp:74] Creating layer inception_3a/relu_3x3
I0612 16:37:34.177088  3329 net.cpp:99] Creating Layer inception_3a/relu_3x3
I0612 16:37:34.177093  3329 net.cpp:480] inception_3a/relu_3x3 <- inception_3a/3x3_bn
I0612 16:37:34.177096  3329 net.cpp:130] This layer is inheriting previous layer's sync mode: 1
I0612 16:37:34.177100  3329 net.cpp:425] inception_3a/relu_3x3 -> inception_3a/3x3_bn (in-place)
I0612 16:37:34.177105  3329 net.cpp:163] Setting up inception_3a/relu_3x3
I0612 16:37:34.183118  3329 net.cpp:170] Top shape: 32 64 4 28 28 (6422528)
I0612 16:37:34.183131  3329 layer_factory.hpp:74] Creating layer inception_3a/double_3x3_reduce_2d
I0612 16:37:34.183156  3329 net.cpp:99] Creating Layer inception_3a/double_3x3_reduce_2d
I0612 16:37:34.183159  3329 net.cpp:480] inception_3a/double_3x3_reduce_2d <- pool2/3x3_s2_pool2/3x3_s2_2d_0_split_2
I0612 16:37:34.183164  3329 net.cpp:130] This layer is inheriting previous layer's sync mode: 1
I0612 16:37:34.183169  3329 net.cpp:436] inception_3a/double_3x3_reduce_2d -> inception_3a/double_3x3_reduce
I0612 16:37:34.183176  3329 net.cpp:163] Setting up inception_3a/double_3x3_reduce_2d
I0612 16:37:34.281849  3329 net.cpp:170] Top shape: 32 64 4 28 28 (6422528)
I0612 16:37:34.281888  3329 layer_factory.hpp:74] Creating layer inception_3a/double_3x3_reduce_bn
I0612 16:37:34.281899  3329 layer_factory.cpp:181] Layer inception_3a/double_3x3_reduce_bn is using CUDNN engine.
I0612 16:37:34.281919  3329 net.cpp:99] Creating Layer inception_3a/double_3x3_reduce_bn
I0612 16:37:34.281929  3329 net.cpp:480] inception_3a/double_3x3_reduce_bn <- inception_3a/double_3x3_reduce
I0612 16:37:34.281940  3329 net.cpp:130] This layer is inheriting previous layer's sync mode: 1
I0612 16:37:34.281951  3329 net.cpp:436] inception_3a/double_3x3_reduce_bn -> inception_3a/double_3x3_reduce_bn
I0612 16:37:34.281968  3329 net.cpp:163] Setting up inception_3a/double_3x3_reduce_bn
I0612 16:37:34.282205  3329 cudnn_bn_layer.cpp:30] using cuDNN BN engine
I0612 16:37:34.282233  3329 net.cpp:170] Top shape: 32 64 4 28 28 (6422528)
I0612 16:37:34.282243  3329 layer_factory.hpp:74] Creating layer inception_3a/relu_double_3x3_reduce
I0612 16:37:34.282249  3329 net.cpp:99] Creating Layer inception_3a/relu_double_3x3_reduce
I0612 16:37:34.282253  3329 net.cpp:480] inception_3a/relu_double_3x3_reduce <- inception_3a/double_3x3_reduce_bn
I0612 16:37:34.282258  3329 net.cpp:130] This layer is inheriting previous layer's sync mode: 1
I0612 16:37:34.282263  3329 net.cpp:425] inception_3a/relu_double_3x3_reduce -> inception_3a/double_3x3_reduce_bn (in-place)
I0612 16:37:34.282269  3329 net.cpp:163] Setting up inception_3a/relu_double_3x3_reduce
I0612 16:37:34.285655  3329 net.cpp:170] Top shape: 32 64 4 28 28 (6422528)
I0612 16:37:34.285681  3329 layer_factory.hpp:74] Creating layer inception_3a/double_3x3_1_2d
I0612 16:37:34.285702  3329 net.cpp:99] Creating Layer inception_3a/double_3x3_1_2d
I0612 16:37:34.285706  3329 net.cpp:480] inception_3a/double_3x3_1_2d <- inception_3a/double_3x3_reduce_bn
I0612 16:37:34.285712  3329 net.cpp:130] This layer is inheriting previous layer's sync mode: 1
I0612 16:37:34.285717  3329 net.cpp:436] inception_3a/double_3x3_1_2d -> inception_3a/double_3x3_1
I0612 16:37:34.285724  3329 net.cpp:163] Setting up inception_3a/double_3x3_1_2d
I0612 16:37:34.381748  3329 net.cpp:170] Top shape: 32 96 4 28 28 (9633792)
I0612 16:37:34.381765  3329 layer_factory.hpp:74] Creating layer inception_3a/double_3x3_1_bn
I0612 16:37:34.381783  3329 layer_factory.cpp:181] Layer inception_3a/double_3x3_1_bn is using CUDNN engine.
I0612 16:37:34.381805  3329 net.cpp:99] Creating Layer inception_3a/double_3x3_1_bn
I0612 16:37:34.381810  3329 net.cpp:480] inception_3a/double_3x3_1_bn <- inception_3a/double_3x3_1
I0612 16:37:34.381815  3329 net.cpp:130] This layer is inheriting previous layer's sync mode: 1
I0612 16:37:34.381820  3329 net.cpp:436] inception_3a/double_3x3_1_bn -> inception_3a/double_3x3_1_bn
I0612 16:37:34.381827  3329 net.cpp:163] Setting up inception_3a/double_3x3_1_bn
I0612 16:37:34.384973  3329 cudnn_bn_layer.cpp:30] using cuDNN BN engine
I0612 16:37:34.385013  3329 net.cpp:170] Top shape: 32 96 4 28 28 (9633792)
I0612 16:37:34.385023  3329 layer_factory.hpp:74] Creating layer inception_3a/relu_double_3x3_1
I0612 16:37:34.385030  3329 net.cpp:99] Creating Layer inception_3a/relu_double_3x3_1
I0612 16:37:34.385035  3329 net.cpp:480] inception_3a/relu_double_3x3_1 <- inception_3a/double_3x3_1_bn
I0612 16:37:34.385040  3329 net.cpp:130] This layer is inheriting previous layer's sync mode: 1
I0612 16:37:34.385044  3329 net.cpp:425] inception_3a/relu_double_3x3_1 -> inception_3a/double_3x3_1_bn (in-place)
I0612 16:37:34.385049  3329 net.cpp:163] Setting up inception_3a/relu_double_3x3_1
I0612 16:37:34.385226  3329 net.cpp:170] Top shape: 32 96 4 28 28 (9633792)
I0612 16:37:34.385237  3329 layer_factory.hpp:74] Creating layer inception_3a/double_3x3_2_2d
I0612 16:37:34.385247  3329 net.cpp:99] Creating Layer inception_3a/double_3x3_2_2d
I0612 16:37:34.385251  3329 net.cpp:480] inception_3a/double_3x3_2_2d <- inception_3a/double_3x3_1_bn
I0612 16:37:34.385255  3329 net.cpp:130] This layer is inheriting previous layer's sync mode: 1
I0612 16:37:34.385262  3329 net.cpp:436] inception_3a/double_3x3_2_2d -> inception_3a/double_3x3_2
I0612 16:37:34.385267  3329 net.cpp:163] Setting up inception_3a/double_3x3_2_2d
I0612 16:37:34.508846  3329 net.cpp:170] Top shape: 32 96 4 28 28 (9633792)
I0612 16:37:34.508860  3329 layer_factory.hpp:74] Creating layer inception_3a/double_3x3_2_bn
I0612 16:37:34.508867  3329 layer_factory.cpp:181] Layer inception_3a/double_3x3_2_bn is using CUDNN engine.
I0612 16:37:34.508872  3329 net.cpp:99] Creating Layer inception_3a/double_3x3_2_bn
I0612 16:37:34.508875  3329 net.cpp:480] inception_3a/double_3x3_2_bn <- inception_3a/double_3x3_2
I0612 16:37:34.508880  3329 net.cpp:130] This layer is inheriting previous layer's sync mode: 1
I0612 16:37:34.508884  3329 net.cpp:436] inception_3a/double_3x3_2_bn -> inception_3a/double_3x3_2_bn
I0612 16:37:34.508890  3329 net.cpp:163] Setting up inception_3a/double_3x3_2_bn
I0612 16:37:34.509640  3329 cudnn_bn_layer.cpp:30] using cuDNN BN engine
I0612 16:37:34.509656  3329 net.cpp:170] Top shape: 32 96 4 28 28 (9633792)
I0612 16:37:34.509665  3329 layer_factory.hpp:74] Creating layer inception_3a/relu_double_3x3_2
I0612 16:37:34.509671  3329 net.cpp:99] Creating Layer inception_3a/relu_double_3x3_2
I0612 16:37:34.509675  3329 net.cpp:480] inception_3a/relu_double_3x3_2 <- inception_3a/double_3x3_2_bn
I0612 16:37:34.509680  3329 net.cpp:130] This layer is inheriting previous layer's sync mode: 1
I0612 16:37:34.509682  3329 net.cpp:425] inception_3a/relu_double_3x3_2 -> inception_3a/double_3x3_2_bn (in-place)
I0612 16:37:34.509687  3329 net.cpp:163] Setting up inception_3a/relu_double_3x3_2
I0612 16:37:34.509832  3329 net.cpp:170] Top shape: 32 96 4 28 28 (9633792)
I0612 16:37:34.509840  3329 layer_factory.hpp:74] Creating layer inception_3a/pool_2d
I0612 16:37:34.509852  3329 net.cpp:99] Creating Layer inception_3a/pool_2d
I0612 16:37:34.509855  3329 net.cpp:480] inception_3a/pool_2d <- pool2/3x3_s2_pool2/3x3_s2_2d_0_split_3
I0612 16:37:34.509860  3329 net.cpp:130] This layer is inheriting previous layer's sync mode: 1
I0612 16:37:34.509863  3329 net.cpp:436] inception_3a/pool_2d -> inception_3a/pool
I0612 16:37:34.509868  3329 net.cpp:163] Setting up inception_3a/pool_2d
I0612 16:37:34.510607  3329 net.cpp:170] Top shape: 32 192 4 28 28 (19267584)
I0612 16:37:34.510618  3329 layer_factory.hpp:74] Creating layer inception_3a/pool_proj_2d
I0612 16:37:34.510641  3329 net.cpp:99] Creating Layer inception_3a/pool_proj_2d
I0612 16:37:34.510654  3329 net.cpp:480] inception_3a/pool_proj_2d <- inception_3a/pool
I0612 16:37:34.510659  3329 net.cpp:130] This layer is inheriting previous layer's sync mode: 1
I0612 16:37:34.510664  3329 net.cpp:436] inception_3a/pool_proj_2d -> inception_3a/pool_proj
I0612 16:37:34.510670  3329 net.cpp:163] Setting up inception_3a/pool_proj_2d
I0612 16:37:34.592280  3329 net.cpp:170] Top shape: 32 32 4 28 28 (3211264)
I0612 16:37:34.592296  3329 layer_factory.hpp:74] Creating layer inception_3a/pool_proj_bn
I0612 16:37:34.592301  3329 layer_factory.cpp:181] Layer inception_3a/pool_proj_bn is using CUDNN engine.
I0612 16:37:34.592309  3329 net.cpp:99] Creating Layer inception_3a/pool_proj_bn
I0612 16:37:34.592313  3329 net.cpp:480] inception_3a/pool_proj_bn <- inception_3a/pool_proj
I0612 16:37:34.592316  3329 net.cpp:130] This layer is inheriting previous layer's sync mode: 1
I0612 16:37:34.592321  3329 net.cpp:436] inception_3a/pool_proj_bn -> inception_3a/pool_proj_bn
I0612 16:37:34.592327  3329 net.cpp:163] Setting up inception_3a/pool_proj_bn
I0612 16:37:34.592486  3329 cudnn_bn_layer.cpp:30] using cuDNN BN engine
I0612 16:37:34.592499  3329 net.cpp:170] Top shape: 32 32 4 28 28 (3211264)
I0612 16:37:34.592509  3329 layer_factory.hpp:74] Creating layer inception_3a/relu_pool_proj
I0612 16:37:34.592515  3329 net.cpp:99] Creating Layer inception_3a/relu_pool_proj
I0612 16:37:34.592519  3329 net.cpp:480] inception_3a/relu_pool_proj <- inception_3a/pool_proj_bn
I0612 16:37:34.592522  3329 net.cpp:130] This layer is inheriting previous layer's sync mode: 1
I0612 16:37:34.592526  3329 net.cpp:425] inception_3a/relu_pool_proj -> inception_3a/pool_proj_bn (in-place)
I0612 16:37:34.592531  3329 net.cpp:163] Setting up inception_3a/relu_pool_proj
I0612 16:37:34.597187  3329 net.cpp:170] Top shape: 32 32 4 28 28 (3211264)
I0612 16:37:34.597199  3329 layer_factory.hpp:74] Creating layer inception_3a/output
I0612 16:37:34.597208  3329 net.cpp:99] Creating Layer inception_3a/output
I0612 16:37:34.597210  3329 net.cpp:480] inception_3a/output <- inception_3a/1x1_bn
I0612 16:37:34.597215  3329 net.cpp:480] inception_3a/output <- inception_3a/3x3_bn
I0612 16:37:34.597218  3329 net.cpp:480] inception_3a/output <- inception_3a/double_3x3_2_bn
I0612 16:37:34.597223  3329 net.cpp:480] inception_3a/output <- inception_3a/pool_proj_bn
I0612 16:37:34.597225  3329 net.cpp:130] This layer is inheriting previous layer's sync mode: 1
I0612 16:37:34.597229  3329 net.cpp:436] inception_3a/output -> inception_3a/output
I0612 16:37:34.597234  3329 net.cpp:163] Setting up inception_3a/output
I0612 16:37:34.597240  3329 net.cpp:170] Top shape: 32 256 4 28 28 (25690112)
I0612 16:37:34.597244  3329 layer_factory.hpp:74] Creating layer inception_3a/output_inception_3a/output_0_split
I0612 16:37:34.597250  3329 net.cpp:99] Creating Layer inception_3a/output_inception_3a/output_0_split
I0612 16:37:34.597254  3329 net.cpp:480] inception_3a/output_inception_3a/output_0_split <- inception_3a/output
I0612 16:37:34.597257  3329 net.cpp:130] This layer is inheriting previous layer's sync mode: 1
I0612 16:37:34.597261  3329 net.cpp:436] inception_3a/output_inception_3a/output_0_split -> inception_3a/output_inception_3a/output_0_split_0
I0612 16:37:34.597265  3329 net.cpp:436] inception_3a/output_inception_3a/output_0_split -> inception_3a/output_inception_3a/output_0_split_1
I0612 16:37:34.597275  3329 net.cpp:436] inception_3a/output_inception_3a/output_0_split -> inception_3a/output_inception_3a/output_0_split_2
I0612 16:37:34.597278  3329 net.cpp:436] inception_3a/output_inception_3a/output_0_split -> inception_3a/output_inception_3a/output_0_split_3
I0612 16:37:34.597282  3329 net.cpp:163] Setting up inception_3a/output_inception_3a/output_0_split
I0612 16:37:34.597287  3329 net.cpp:170] Top shape: 32 256 4 28 28 (25690112)
I0612 16:37:34.597291  3329 net.cpp:170] Top shape: 32 256 4 28 28 (25690112)
I0612 16:37:34.597295  3329 net.cpp:170] Top shape: 32 256 4 28 28 (25690112)
I0612 16:37:34.597297  3329 net.cpp:170] Top shape: 32 256 4 28 28 (25690112)
I0612 16:37:34.597311  3329 layer_factory.hpp:74] Creating layer inception_3b/1x1_2d
I0612 16:37:34.597321  3329 net.cpp:99] Creating Layer inception_3b/1x1_2d
I0612 16:37:34.597323  3329 net.cpp:480] inception_3b/1x1_2d <- inception_3a/output_inception_3a/output_0_split_0
I0612 16:37:34.597327  3329 net.cpp:130] This layer is inheriting previous layer's sync mode: 1
I0612 16:37:34.597342  3329 net.cpp:436] inception_3b/1x1_2d -> inception_3b/1x1
I0612 16:37:34.597348  3329 net.cpp:163] Setting up inception_3b/1x1_2d
I0612 16:37:34.709792  3329 net.cpp:170] Top shape: 32 64 4 28 28 (6422528)
I0612 16:37:34.709810  3329 layer_factory.hpp:74] Creating layer inception_3b/1x1_bn
I0612 16:37:34.709815  3329 layer_factory.cpp:181] Layer inception_3b/1x1_bn is using CUDNN engine.
I0612 16:37:34.709820  3329 net.cpp:99] Creating Layer inception_3b/1x1_bn
I0612 16:37:34.709823  3329 net.cpp:480] inception_3b/1x1_bn <- inception_3b/1x1
I0612 16:37:34.709828  3329 net.cpp:130] This layer is inheriting previous layer's sync mode: 1
I0612 16:37:34.709833  3329 net.cpp:436] inception_3b/1x1_bn -> inception_3b/1x1_bn
I0612 16:37:34.709839  3329 net.cpp:163] Setting up inception_3b/1x1_bn
I0612 16:37:34.710001  3329 cudnn_bn_layer.cpp:30] using cuDNN BN engine
I0612 16:37:34.710014  3329 net.cpp:170] Top shape: 32 64 4 28 28 (6422528)
I0612 16:37:34.710028  3329 layer_factory.hpp:74] Creating layer inception_3b/relu_1x1
I0612 16:37:34.710036  3329 net.cpp:99] Creating Layer inception_3b/relu_1x1
I0612 16:37:34.710039  3329 net.cpp:480] inception_3b/relu_1x1 <- inception_3b/1x1_bn
I0612 16:37:34.710043  3329 net.cpp:130] This layer is inheriting previous layer's sync mode: 1
I0612 16:37:34.710047  3329 net.cpp:425] inception_3b/relu_1x1 -> inception_3b/1x1_bn (in-place)
I0612 16:37:34.710052  3329 net.cpp:163] Setting up inception_3b/relu_1x1
I0612 16:37:34.712250  3329 net.cpp:170] Top shape: 32 64 4 28 28 (6422528)
I0612 16:37:34.712265  3329 layer_factory.hpp:74] Creating layer inception_3b/3x3_reduce_2d
I0612 16:37:34.712273  3329 net.cpp:99] Creating Layer inception_3b/3x3_reduce_2d
I0612 16:37:34.712277  3329 net.cpp:480] inception_3b/3x3_reduce_2d <- inception_3a/output_inception_3a/output_0_split_1
I0612 16:37:34.712281  3329 net.cpp:130] This layer is inheriting previous layer's sync mode: 1
I0612 16:37:34.712287  3329 net.cpp:436] inception_3b/3x3_reduce_2d -> inception_3b/3x3_reduce
I0612 16:37:34.712294  3329 net.cpp:163] Setting up inception_3b/3x3_reduce_2d
I0612 16:37:34.810894  3329 net.cpp:170] Top shape: 32 64 4 28 28 (6422528)
I0612 16:37:34.810910  3329 layer_factory.hpp:74] Creating layer inception_3b/3x3_reduce_bn
I0612 16:37:34.810914  3329 layer_factory.cpp:181] Layer inception_3b/3x3_reduce_bn is using CUDNN engine.
I0612 16:37:34.810921  3329 net.cpp:99] Creating Layer inception_3b/3x3_reduce_bn
I0612 16:37:34.810925  3329 net.cpp:480] inception_3b/3x3_reduce_bn <- inception_3b/3x3_reduce
I0612 16:37:34.810930  3329 net.cpp:130] This layer is inheriting previous layer's sync mode: 1
I0612 16:37:34.810935  3329 net.cpp:436] inception_3b/3x3_reduce_bn -> inception_3b/3x3_reduce_bn
I0612 16:37:34.810940  3329 net.cpp:163] Setting up inception_3b/3x3_reduce_bn
I0612 16:37:34.811707  3329 cudnn_bn_layer.cpp:30] using cuDNN BN engine
I0612 16:37:34.811724  3329 net.cpp:170] Top shape: 32 64 4 28 28 (6422528)
I0612 16:37:34.811733  3329 layer_factory.hpp:74] Creating layer inception_3b/relu_3x3_reduce
I0612 16:37:34.811738  3329 net.cpp:99] Creating Layer inception_3b/relu_3x3_reduce
I0612 16:37:34.811741  3329 net.cpp:480] inception_3b/relu_3x3_reduce <- inception_3b/3x3_reduce_bn
I0612 16:37:34.811745  3329 net.cpp:130] This layer is inheriting previous layer's sync mode: 1
I0612 16:37:34.811749  3329 net.cpp:425] inception_3b/relu_3x3_reduce -> inception_3b/3x3_reduce_bn (in-place)
I0612 16:37:34.811753  3329 net.cpp:163] Setting up inception_3b/relu_3x3_reduce
I0612 16:37:34.811906  3329 net.cpp:170] Top shape: 32 64 4 28 28 (6422528)
I0612 16:37:34.811915  3329 layer_factory.hpp:74] Creating layer inception_3b/3x3_2d
I0612 16:37:34.811933  3329 net.cpp:99] Creating Layer inception_3b/3x3_2d
I0612 16:37:34.811936  3329 net.cpp:480] inception_3b/3x3_2d <- inception_3b/3x3_reduce_bn
I0612 16:37:34.811942  3329 net.cpp:130] This layer is inheriting previous layer's sync mode: 1
I0612 16:37:34.811946  3329 net.cpp:436] inception_3b/3x3_2d -> inception_3b/3x3
I0612 16:37:34.811952  3329 net.cpp:163] Setting up inception_3b/3x3_2d
I0612 16:37:34.917335  3329 net.cpp:170] Top shape: 32 96 4 28 28 (9633792)
I0612 16:37:34.917351  3329 layer_factory.hpp:74] Creating layer inception_3b/3x3_bn
I0612 16:37:34.917357  3329 layer_factory.cpp:181] Layer inception_3b/3x3_bn is using CUDNN engine.
I0612 16:37:34.917364  3329 net.cpp:99] Creating Layer inception_3b/3x3_bn
I0612 16:37:34.917367  3329 net.cpp:480] inception_3b/3x3_bn <- inception_3b/3x3
I0612 16:37:34.917372  3329 net.cpp:130] This layer is inheriting previous layer's sync mode: 1
I0612 16:37:34.917376  3329 net.cpp:436] inception_3b/3x3_bn -> inception_3b/3x3_bn
I0612 16:37:34.917382  3329 net.cpp:163] Setting up inception_3b/3x3_bn
I0612 16:37:34.920737  3329 cudnn_bn_layer.cpp:30] using cuDNN BN engine
I0612 16:37:34.920754  3329 net.cpp:170] Top shape: 32 96 4 28 28 (9633792)
I0612 16:37:34.920763  3329 layer_factory.hpp:74] Creating layer inception_3b/relu_3x3
I0612 16:37:34.920773  3329 net.cpp:99] Creating Layer inception_3b/relu_3x3
I0612 16:37:34.920778  3329 net.cpp:480] inception_3b/relu_3x3 <- inception_3b/3x3_bn
I0612 16:37:34.920794  3329 net.cpp:130] This layer is inheriting previous layer's sync mode: 1
I0612 16:37:34.920796  3329 net.cpp:425] inception_3b/relu_3x3 -> inception_3b/3x3_bn (in-place)
I0612 16:37:34.920801  3329 net.cpp:163] Setting up inception_3b/relu_3x3
I0612 16:37:34.920977  3329 net.cpp:170] Top shape: 32 96 4 28 28 (9633792)
I0612 16:37:34.920985  3329 layer_factory.hpp:74] Creating layer inception_3b/double_3x3_reduce_2d
I0612 16:37:34.921008  3329 net.cpp:99] Creating Layer inception_3b/double_3x3_reduce_2d
I0612 16:37:34.921012  3329 net.cpp:480] inception_3b/double_3x3_reduce_2d <- inception_3a/output_inception_3a/output_0_split_2
I0612 16:37:34.921016  3329 net.cpp:130] This layer is inheriting previous layer's sync mode: 1
I0612 16:37:34.921021  3329 net.cpp:436] inception_3b/double_3x3_reduce_2d -> inception_3b/double_3x3_reduce
I0612 16:37:34.921027  3329 net.cpp:163] Setting up inception_3b/double_3x3_reduce_2d
I0612 16:37:35.044320  3329 net.cpp:170] Top shape: 32 64 4 28 28 (6422528)
I0612 16:37:35.044335  3329 layer_factory.hpp:74] Creating layer inception_3b/double_3x3_reduce_bn
I0612 16:37:35.044342  3329 layer_factory.cpp:181] Layer inception_3b/double_3x3_reduce_bn is using CUDNN engine.
I0612 16:37:35.044348  3329 net.cpp:99] Creating Layer inception_3b/double_3x3_reduce_bn
I0612 16:37:35.044353  3329 net.cpp:480] inception_3b/double_3x3_reduce_bn <- inception_3b/double_3x3_reduce
I0612 16:37:35.044356  3329 net.cpp:130] This layer is inheriting previous layer's sync mode: 1
I0612 16:37:35.044360  3329 net.cpp:436] inception_3b/double_3x3_reduce_bn -> inception_3b/double_3x3_reduce_bn
I0612 16:37:35.044368  3329 net.cpp:163] Setting up inception_3b/double_3x3_reduce_bn
I0612 16:37:35.047407  3329 cudnn_bn_layer.cpp:30] using cuDNN BN engine
I0612 16:37:35.047425  3329 net.cpp:170] Top shape: 32 64 4 28 28 (6422528)
I0612 16:37:35.047454  3329 layer_factory.hpp:74] Creating layer inception_3b/relu_double_3x3_reduce
I0612 16:37:35.047461  3329 net.cpp:99] Creating Layer inception_3b/relu_double_3x3_reduce
I0612 16:37:35.047466  3329 net.cpp:480] inception_3b/relu_double_3x3_reduce <- inception_3b/double_3x3_reduce_bn
I0612 16:37:35.047471  3329 net.cpp:130] This layer is inheriting previous layer's sync mode: 1
I0612 16:37:35.047475  3329 net.cpp:425] inception_3b/relu_double_3x3_reduce -> inception_3b/double_3x3_reduce_bn (in-place)
I0612 16:37:35.047480  3329 net.cpp:163] Setting up inception_3b/relu_double_3x3_reduce
I0612 16:37:35.047636  3329 net.cpp:170] Top shape: 32 64 4 28 28 (6422528)
I0612 16:37:35.047654  3329 layer_factory.hpp:74] Creating layer inception_3b/double_3x3_1_2d
I0612 16:37:35.047664  3329 net.cpp:99] Creating Layer inception_3b/double_3x3_1_2d
I0612 16:37:35.047668  3329 net.cpp:480] inception_3b/double_3x3_1_2d <- inception_3b/double_3x3_reduce_bn
I0612 16:37:35.047672  3329 net.cpp:130] This layer is inheriting previous layer's sync mode: 1
I0612 16:37:35.047677  3329 net.cpp:436] inception_3b/double_3x3_1_2d -> inception_3b/double_3x3_1
I0612 16:37:35.047684  3329 net.cpp:163] Setting up inception_3b/double_3x3_1_2d
I0612 16:37:35.145048  3329 net.cpp:170] Top shape: 32 96 4 28 28 (9633792)
I0612 16:37:35.145074  3329 layer_factory.hpp:74] Creating layer inception_3b/double_3x3_1_bn
I0612 16:37:35.145081  3329 layer_factory.cpp:181] Layer inception_3b/double_3x3_1_bn is using CUDNN engine.
I0612 16:37:35.145087  3329 net.cpp:99] Creating Layer inception_3b/double_3x3_1_bn
I0612 16:37:35.145092  3329 net.cpp:480] inception_3b/double_3x3_1_bn <- inception_3b/double_3x3_1
I0612 16:37:35.145095  3329 net.cpp:130] This layer is inheriting previous layer's sync mode: 1
I0612 16:37:35.145100  3329 net.cpp:436] inception_3b/double_3x3_1_bn -> inception_3b/double_3x3_1_bn
I0612 16:37:35.145107  3329 net.cpp:163] Setting up inception_3b/double_3x3_1_bn
I0612 16:37:35.149582  3329 cudnn_bn_layer.cpp:30] using cuDNN BN engine
I0612 16:37:35.149612  3329 net.cpp:170] Top shape: 32 96 4 28 28 (9633792)
I0612 16:37:35.149621  3329 layer_factory.hpp:74] Creating layer inception_3b/relu_double_3x3_1
I0612 16:37:35.149628  3329 net.cpp:99] Creating Layer inception_3b/relu_double_3x3_1
I0612 16:37:35.149633  3329 net.cpp:480] inception_3b/relu_double_3x3_1 <- inception_3b/double_3x3_1_bn
I0612 16:37:35.149637  3329 net.cpp:130] This layer is inheriting previous layer's sync mode: 1
I0612 16:37:35.149641  3329 net.cpp:425] inception_3b/relu_double_3x3_1 -> inception_3b/double_3x3_1_bn (in-place)
I0612 16:37:35.149646  3329 net.cpp:163] Setting up inception_3b/relu_double_3x3_1
I0612 16:37:35.149817  3329 net.cpp:170] Top shape: 32 96 4 28 28 (9633792)
I0612 16:37:35.149838  3329 layer_factory.hpp:74] Creating layer inception_3b/double_3x3_2_2d
I0612 16:37:35.149848  3329 net.cpp:99] Creating Layer inception_3b/double_3x3_2_2d
I0612 16:37:35.149852  3329 net.cpp:480] inception_3b/double_3x3_2_2d <- inception_3b/double_3x3_1_bn
I0612 16:37:35.149855  3329 net.cpp:130] This layer is inheriting previous layer's sync mode: 1
I0612 16:37:35.149859  3329 net.cpp:436] inception_3b/double_3x3_2_2d -> inception_3b/double_3x3_2
I0612 16:37:35.149868  3329 net.cpp:163] Setting up inception_3b/double_3x3_2_2d
I0612 16:37:35.271522  3329 net.cpp:170] Top shape: 32 96 4 28 28 (9633792)
I0612 16:37:35.271550  3329 layer_factory.hpp:74] Creating layer inception_3b/double_3x3_2_bn
I0612 16:37:35.271556  3329 layer_factory.cpp:181] Layer inception_3b/double_3x3_2_bn is using CUDNN engine.
I0612 16:37:35.271564  3329 net.cpp:99] Creating Layer inception_3b/double_3x3_2_bn
I0612 16:37:35.271567  3329 net.cpp:480] inception_3b/double_3x3_2_bn <- inception_3b/double_3x3_2
I0612 16:37:35.271572  3329 net.cpp:130] This layer is inheriting previous layer's sync mode: 1
I0612 16:37:35.271577  3329 net.cpp:436] inception_3b/double_3x3_2_bn -> inception_3b/double_3x3_2_bn
I0612 16:37:35.271584  3329 net.cpp:163] Setting up inception_3b/double_3x3_2_bn
I0612 16:37:35.271775  3329 cudnn_bn_layer.cpp:30] using cuDNN BN engine
I0612 16:37:35.271787  3329 net.cpp:170] Top shape: 32 96 4 28 28 (9633792)
I0612 16:37:35.271796  3329 layer_factory.hpp:74] Creating layer inception_3b/relu_double_3x3_2
I0612 16:37:35.271803  3329 net.cpp:99] Creating Layer inception_3b/relu_double_3x3_2
I0612 16:37:35.271807  3329 net.cpp:480] inception_3b/relu_double_3x3_2 <- inception_3b/double_3x3_2_bn
I0612 16:37:35.271811  3329 net.cpp:130] This layer is inheriting previous layer's sync mode: 1
I0612 16:37:35.271814  3329 net.cpp:425] inception_3b/relu_double_3x3_2 -> inception_3b/double_3x3_2_bn (in-place)
I0612 16:37:35.271819  3329 net.cpp:163] Setting up inception_3b/relu_double_3x3_2
I0612 16:37:35.276417  3329 net.cpp:170] Top shape: 32 96 4 28 28 (9633792)
I0612 16:37:35.276430  3329 layer_factory.hpp:74] Creating layer inception_3b/pool_2d
I0612 16:37:35.276450  3329 net.cpp:99] Creating Layer inception_3b/pool_2d
I0612 16:37:35.276454  3329 net.cpp:480] inception_3b/pool_2d <- inception_3a/output_inception_3a/output_0_split_3
I0612 16:37:35.276459  3329 net.cpp:130] This layer is inheriting previous layer's sync mode: 1
I0612 16:37:35.276463  3329 net.cpp:436] inception_3b/pool_2d -> inception_3b/pool
I0612 16:37:35.276470  3329 net.cpp:163] Setting up inception_3b/pool_2d
I0612 16:37:35.276665  3329 net.cpp:170] Top shape: 32 256 4 28 28 (25690112)
I0612 16:37:35.276675  3329 layer_factory.hpp:74] Creating layer inception_3b/pool_proj_2d
I0612 16:37:35.276690  3329 net.cpp:99] Creating Layer inception_3b/pool_proj_2d
I0612 16:37:35.276693  3329 net.cpp:480] inception_3b/pool_proj_2d <- inception_3b/pool
I0612 16:37:35.276697  3329 net.cpp:130] This layer is inheriting previous layer's sync mode: 1
I0612 16:37:35.276703  3329 net.cpp:436] inception_3b/pool_proj_2d -> inception_3b/pool_proj
I0612 16:37:35.276710  3329 net.cpp:163] Setting up inception_3b/pool_proj_2d
I0612 16:37:35.383697  3329 net.cpp:170] Top shape: 32 64 4 28 28 (6422528)
I0612 16:37:35.383713  3329 layer_factory.hpp:74] Creating layer inception_3b/pool_proj_bn
I0612 16:37:35.383716  3329 layer_factory.cpp:181] Layer inception_3b/pool_proj_bn is using CUDNN engine.
I0612 16:37:35.383723  3329 net.cpp:99] Creating Layer inception_3b/pool_proj_bn
I0612 16:37:35.383726  3329 net.cpp:480] inception_3b/pool_proj_bn <- inception_3b/pool_proj
I0612 16:37:35.383730  3329 net.cpp:130] This layer is inheriting previous layer's sync mode: 1
I0612 16:37:35.383735  3329 net.cpp:436] inception_3b/pool_proj_bn -> inception_3b/pool_proj_bn
I0612 16:37:35.383741  3329 net.cpp:163] Setting up inception_3b/pool_proj_bn
I0612 16:37:35.385390  3329 cudnn_bn_layer.cpp:30] using cuDNN BN engine
I0612 16:37:35.385408  3329 net.cpp:170] Top shape: 32 64 4 28 28 (6422528)
I0612 16:37:35.385418  3329 layer_factory.hpp:74] Creating layer inception_3b/relu_pool_proj
I0612 16:37:35.385424  3329 net.cpp:99] Creating Layer inception_3b/relu_pool_proj
I0612 16:37:35.385428  3329 net.cpp:480] inception_3b/relu_pool_proj <- inception_3b/pool_proj_bn
I0612 16:37:35.385432  3329 net.cpp:130] This layer is inheriting previous layer's sync mode: 1
I0612 16:37:35.385437  3329 net.cpp:425] inception_3b/relu_pool_proj -> inception_3b/pool_proj_bn (in-place)
I0612 16:37:35.385442  3329 net.cpp:163] Setting up inception_3b/relu_pool_proj
I0612 16:37:35.385625  3329 net.cpp:170] Top shape: 32 64 4 28 28 (6422528)
I0612 16:37:35.385634  3329 layer_factory.hpp:74] Creating layer inception_3b/output
I0612 16:37:35.385641  3329 net.cpp:99] Creating Layer inception_3b/output
I0612 16:37:35.385644  3329 net.cpp:480] inception_3b/output <- inception_3b/1x1_bn
I0612 16:37:35.385649  3329 net.cpp:480] inception_3b/output <- inception_3b/3x3_bn
I0612 16:37:35.385653  3329 net.cpp:480] inception_3b/output <- inception_3b/double_3x3_2_bn
I0612 16:37:35.385656  3329 net.cpp:480] inception_3b/output <- inception_3b/pool_proj_bn
I0612 16:37:35.385659  3329 net.cpp:130] This layer is inheriting previous layer's sync mode: 1
I0612 16:37:35.385663  3329 net.cpp:436] inception_3b/output -> inception_3b/output
I0612 16:37:35.385668  3329 net.cpp:163] Setting up inception_3b/output
I0612 16:37:35.385674  3329 net.cpp:170] Top shape: 32 320 4 28 28 (32112640)
I0612 16:37:35.385679  3329 layer_factory.hpp:74] Creating layer inception_3b/output_inception_3b/output_0_split
I0612 16:37:35.385684  3329 net.cpp:99] Creating Layer inception_3b/output_inception_3b/output_0_split
I0612 16:37:35.385687  3329 net.cpp:480] inception_3b/output_inception_3b/output_0_split <- inception_3b/output
I0612 16:37:35.385690  3329 net.cpp:130] This layer is inheriting previous layer's sync mode: 1
I0612 16:37:35.385694  3329 net.cpp:436] inception_3b/output_inception_3b/output_0_split -> inception_3b/output_inception_3b/output_0_split_0
I0612 16:37:35.385710  3329 net.cpp:436] inception_3b/output_inception_3b/output_0_split -> inception_3b/output_inception_3b/output_0_split_1
I0612 16:37:35.385715  3329 net.cpp:436] inception_3b/output_inception_3b/output_0_split -> inception_3b/output_inception_3b/output_0_split_2
I0612 16:37:35.385720  3329 net.cpp:163] Setting up inception_3b/output_inception_3b/output_0_split
I0612 16:37:35.385727  3329 net.cpp:170] Top shape: 32 320 4 28 28 (32112640)
I0612 16:37:35.385730  3329 net.cpp:170] Top shape: 32 320 4 28 28 (32112640)
I0612 16:37:35.385735  3329 net.cpp:170] Top shape: 32 320 4 28 28 (32112640)
I0612 16:37:35.385737  3329 layer_factory.hpp:74] Creating layer inception_3c/3x3_reduce_2d
I0612 16:37:35.385746  3329 net.cpp:99] Creating Layer inception_3c/3x3_reduce_2d
I0612 16:37:35.385749  3329 net.cpp:480] inception_3c/3x3_reduce_2d <- inception_3b/output_inception_3b/output_0_split_0
I0612 16:37:35.385753  3329 net.cpp:130] This layer is inheriting previous layer's sync mode: 1
I0612 16:37:35.385758  3329 net.cpp:436] inception_3c/3x3_reduce_2d -> inception_3c/3x3_reduce
I0612 16:37:35.385764  3329 net.cpp:163] Setting up inception_3c/3x3_reduce_2d
I0612 16:37:35.562667  3329 net.cpp:170] Top shape: 32 128 4 28 28 (12845056)
I0612 16:37:35.562713  3329 layer_factory.hpp:74] Creating layer inception_3c/3x3_reduce_bn
I0612 16:37:35.562719  3329 layer_factory.cpp:181] Layer inception_3c/3x3_reduce_bn is using CUDNN engine.
I0612 16:37:35.562727  3329 net.cpp:99] Creating Layer inception_3c/3x3_reduce_bn
I0612 16:37:35.562731  3329 net.cpp:480] inception_3c/3x3_reduce_bn <- inception_3c/3x3_reduce
I0612 16:37:35.562736  3329 net.cpp:130] This layer is inheriting previous layer's sync mode: 1
I0612 16:37:35.562741  3329 net.cpp:436] inception_3c/3x3_reduce_bn -> inception_3c/3x3_reduce_bn
I0612 16:37:35.562747  3329 net.cpp:163] Setting up inception_3c/3x3_reduce_bn
I0612 16:37:35.563534  3329 cudnn_bn_layer.cpp:30] using cuDNN BN engine
I0612 16:37:35.563562  3329 net.cpp:170] Top shape: 32 128 4 28 28 (12845056)
I0612 16:37:35.563571  3329 layer_factory.hpp:74] Creating layer inception_3c/relu_3x3_reduce
I0612 16:37:35.563585  3329 net.cpp:99] Creating Layer inception_3c/relu_3x3_reduce
I0612 16:37:35.563590  3329 net.cpp:480] inception_3c/relu_3x3_reduce <- inception_3c/3x3_reduce_bn
I0612 16:37:35.563593  3329 net.cpp:130] This layer is inheriting previous layer's sync mode: 1
I0612 16:37:35.563596  3329 net.cpp:425] inception_3c/relu_3x3_reduce -> inception_3c/3x3_reduce_bn (in-place)
I0612 16:37:35.563601  3329 net.cpp:163] Setting up inception_3c/relu_3x3_reduce
I0612 16:37:35.563768  3329 net.cpp:170] Top shape: 32 128 4 28 28 (12845056)
I0612 16:37:35.563777  3329 layer_factory.hpp:74] Creating layer inception_3c/3x3_2d
I0612 16:37:35.563787  3329 net.cpp:99] Creating Layer inception_3c/3x3_2d
I0612 16:37:35.563791  3329 net.cpp:480] inception_3c/3x3_2d <- inception_3c/3x3_reduce_bn
I0612 16:37:35.563794  3329 net.cpp:130] This layer is inheriting previous layer's sync mode: 1
I0612 16:37:35.563798  3329 net.cpp:436] inception_3c/3x3_2d -> inception_3c/3x3
I0612 16:37:35.563804  3329 net.cpp:163] Setting up inception_3c/3x3_2d
I0612 16:37:35.622059  3329 net.cpp:170] Top shape: 32 160 4 14 14 (4014080)
I0612 16:37:35.622097  3329 layer_factory.hpp:74] Creating layer inception_3c/3x3_bn
I0612 16:37:35.622108  3329 layer_factory.cpp:181] Layer inception_3c/3x3_bn is using CUDNN engine.
I0612 16:37:35.622123  3329 net.cpp:99] Creating Layer inception_3c/3x3_bn
I0612 16:37:35.622133  3329 net.cpp:480] inception_3c/3x3_bn <- inception_3c/3x3
I0612 16:37:35.622144  3329 net.cpp:130] This layer is inheriting previous layer's sync mode: 1
I0612 16:37:35.622156  3329 net.cpp:436] inception_3c/3x3_bn -> inception_3c/3x3_bn
I0612 16:37:35.622174  3329 net.cpp:163] Setting up inception_3c/3x3_bn
I0612 16:37:35.625432  3329 cudnn_bn_layer.cpp:30] using cuDNN BN engine
I0612 16:37:35.625463  3329 net.cpp:170] Top shape: 32 160 4 14 14 (4014080)
I0612 16:37:35.625485  3329 layer_factory.hpp:74] Creating layer inception_3c/relu_3x3
I0612 16:37:35.625494  3329 net.cpp:99] Creating Layer inception_3c/relu_3x3
I0612 16:37:35.625497  3329 net.cpp:480] inception_3c/relu_3x3 <- inception_3c/3x3_bn
I0612 16:37:35.625501  3329 net.cpp:130] This layer is inheriting previous layer's sync mode: 1
I0612 16:37:35.625505  3329 net.cpp:425] inception_3c/relu_3x3 -> inception_3c/3x3_bn (in-place)
I0612 16:37:35.625510  3329 net.cpp:163] Setting up inception_3c/relu_3x3
I0612 16:37:35.625668  3329 net.cpp:170] Top shape: 32 160 4 14 14 (4014080)
I0612 16:37:35.625676  3329 layer_factory.hpp:74] Creating layer inception_3c/double_3x3_reduce_2d
I0612 16:37:35.625685  3329 net.cpp:99] Creating Layer inception_3c/double_3x3_reduce_2d
I0612 16:37:35.625689  3329 net.cpp:480] inception_3c/double_3x3_reduce_2d <- inception_3b/output_inception_3b/output_0_split_1
I0612 16:37:35.625694  3329 net.cpp:130] This layer is inheriting previous layer's sync mode: 1
I0612 16:37:35.625699  3329 net.cpp:436] inception_3c/double_3x3_reduce_2d -> inception_3c/double_3x3_reduce
I0612 16:37:35.625705  3329 net.cpp:163] Setting up inception_3c/double_3x3_reduce_2d
I0612 16:37:35.757340  3329 net.cpp:170] Top shape: 32 64 4 28 28 (6422528)
I0612 16:37:35.757355  3329 layer_factory.hpp:74] Creating layer inception_3c/double_3x3_reduce_bn
I0612 16:37:35.757362  3329 layer_factory.cpp:181] Layer inception_3c/double_3x3_reduce_bn is using CUDNN engine.
I0612 16:37:35.757369  3329 net.cpp:99] Creating Layer inception_3c/double_3x3_reduce_bn
I0612 16:37:35.757372  3329 net.cpp:480] inception_3c/double_3x3_reduce_bn <- inception_3c/double_3x3_reduce
I0612 16:37:35.757376  3329 net.cpp:130] This layer is inheriting previous layer's sync mode: 1
I0612 16:37:35.757381  3329 net.cpp:436] inception_3c/double_3x3_reduce_bn -> inception_3c/double_3x3_reduce_bn
I0612 16:37:35.757387  3329 net.cpp:163] Setting up inception_3c/double_3x3_reduce_bn
I0612 16:37:35.757589  3329 cudnn_bn_layer.cpp:30] using cuDNN BN engine
I0612 16:37:35.757606  3329 net.cpp:170] Top shape: 32 64 4 28 28 (6422528)
I0612 16:37:35.757613  3329 layer_factory.hpp:74] Creating layer inception_3c/relu_double_3x3_reduce
I0612 16:37:35.757618  3329 net.cpp:99] Creating Layer inception_3c/relu_double_3x3_reduce
I0612 16:37:35.757622  3329 net.cpp:480] inception_3c/relu_double_3x3_reduce <- inception_3c/double_3x3_reduce_bn
I0612 16:37:35.757627  3329 net.cpp:130] This layer is inheriting previous layer's sync mode: 1
I0612 16:37:35.757630  3329 net.cpp:425] inception_3c/relu_double_3x3_reduce -> inception_3c/double_3x3_reduce_bn (in-place)
I0612 16:37:35.757635  3329 net.cpp:163] Setting up inception_3c/relu_double_3x3_reduce
I0612 16:37:35.759398  3329 net.cpp:170] Top shape: 32 64 4 28 28 (6422528)
I0612 16:37:35.759409  3329 layer_factory.hpp:74] Creating layer inception_3c/double_3x3_1_2d
I0612 16:37:35.759421  3329 net.cpp:99] Creating Layer inception_3c/double_3x3_1_2d
I0612 16:37:35.759425  3329 net.cpp:480] inception_3c/double_3x3_1_2d <- inception_3c/double_3x3_reduce_bn
I0612 16:37:35.759429  3329 net.cpp:130] This layer is inheriting previous layer's sync mode: 1
I0612 16:37:35.759433  3329 net.cpp:436] inception_3c/double_3x3_1_2d -> inception_3c/double_3x3_1
I0612 16:37:35.759439  3329 net.cpp:163] Setting up inception_3c/double_3x3_1_2d
I0612 16:37:35.854286  3329 net.cpp:170] Top shape: 32 96 4 28 28 (9633792)
I0612 16:37:35.854315  3329 layer_factory.hpp:74] Creating layer inception_3c/double_3x3_1_bn
I0612 16:37:35.854321  3329 layer_factory.cpp:181] Layer inception_3c/double_3x3_1_bn is using CUDNN engine.
I0612 16:37:35.854328  3329 net.cpp:99] Creating Layer inception_3c/double_3x3_1_bn
I0612 16:37:35.854332  3329 net.cpp:480] inception_3c/double_3x3_1_bn <- inception_3c/double_3x3_1
I0612 16:37:35.854337  3329 net.cpp:130] This layer is inheriting previous layer's sync mode: 1
I0612 16:37:35.854342  3329 net.cpp:436] inception_3c/double_3x3_1_bn -> inception_3c/double_3x3_1_bn
I0612 16:37:35.854349  3329 net.cpp:163] Setting up inception_3c/double_3x3_1_bn
I0612 16:37:35.854578  3329 cudnn_bn_layer.cpp:30] using cuDNN BN engine
I0612 16:37:35.854591  3329 net.cpp:170] Top shape: 32 96 4 28 28 (9633792)
I0612 16:37:35.854599  3329 layer_factory.hpp:74] Creating layer inception_3c/relu_double_3x3_1
I0612 16:37:35.854605  3329 net.cpp:99] Creating Layer inception_3c/relu_double_3x3_1
I0612 16:37:35.854609  3329 net.cpp:480] inception_3c/relu_double_3x3_1 <- inception_3c/double_3x3_1_bn
I0612 16:37:35.854614  3329 net.cpp:130] This layer is inheriting previous layer's sync mode: 1
I0612 16:37:35.854616  3329 net.cpp:425] inception_3c/relu_double_3x3_1 -> inception_3c/double_3x3_1_bn (in-place)
I0612 16:37:35.854621  3329 net.cpp:163] Setting up inception_3c/relu_double_3x3_1
I0612 16:37:35.856292  3329 net.cpp:170] Top shape: 32 96 4 28 28 (9633792)
I0612 16:37:35.856317  3329 layer_factory.hpp:74] Creating layer inception_3c/double_3x3_2_2d
I0612 16:37:35.856328  3329 net.cpp:99] Creating Layer inception_3c/double_3x3_2_2d
I0612 16:37:35.856333  3329 net.cpp:480] inception_3c/double_3x3_2_2d <- inception_3c/double_3x3_1_bn
I0612 16:37:35.856336  3329 net.cpp:130] This layer is inheriting previous layer's sync mode: 1
I0612 16:37:35.856340  3329 net.cpp:436] inception_3c/double_3x3_2_2d -> inception_3c/double_3x3_2
I0612 16:37:35.856346  3329 net.cpp:163] Setting up inception_3c/double_3x3_2_2d
I0612 16:37:35.910274  3329 net.cpp:170] Top shape: 32 96 4 14 14 (2408448)
I0612 16:37:35.910306  3329 layer_factory.hpp:74] Creating layer inception_3c/double_3x3_2_bn
I0612 16:37:35.910315  3329 layer_factory.cpp:181] Layer inception_3c/double_3x3_2_bn is using CUDNN engine.
I0612 16:37:35.910320  3329 net.cpp:99] Creating Layer inception_3c/double_3x3_2_bn
I0612 16:37:35.910328  3329 net.cpp:480] inception_3c/double_3x3_2_bn <- inception_3c/double_3x3_2
I0612 16:37:35.910334  3329 net.cpp:130] This layer is inheriting previous layer's sync mode: 1
I0612 16:37:35.910338  3329 net.cpp:436] inception_3c/double_3x3_2_bn -> inception_3c/double_3x3_2_bn
I0612 16:37:35.910346  3329 net.cpp:163] Setting up inception_3c/double_3x3_2_bn
I0612 16:37:35.910573  3329 cudnn_bn_layer.cpp:30] using cuDNN BN engine
I0612 16:37:35.910588  3329 net.cpp:170] Top shape: 32 96 4 14 14 (2408448)
I0612 16:37:35.910617  3329 layer_factory.hpp:74] Creating layer inception_3c/relu_double_3x3_2
I0612 16:37:35.910626  3329 net.cpp:99] Creating Layer inception_3c/relu_double_3x3_2
I0612 16:37:35.910631  3329 net.cpp:480] inception_3c/relu_double_3x3_2 <- inception_3c/double_3x3_2_bn
I0612 16:37:35.910635  3329 net.cpp:130] This layer is inheriting previous layer's sync mode: 1
I0612 16:37:35.910640  3329 net.cpp:425] inception_3c/relu_double_3x3_2 -> inception_3c/double_3x3_2_bn (in-place)
I0612 16:37:35.910645  3329 net.cpp:163] Setting up inception_3c/relu_double_3x3_2
I0612 16:37:35.912612  3329 net.cpp:170] Top shape: 32 96 4 14 14 (2408448)
I0612 16:37:35.912627  3329 layer_factory.hpp:74] Creating layer inception_3c/pool_2d
I0612 16:37:35.912636  3329 net.cpp:99] Creating Layer inception_3c/pool_2d
I0612 16:37:35.912642  3329 net.cpp:480] inception_3c/pool_2d <- inception_3b/output_inception_3b/output_0_split_2
I0612 16:37:35.912647  3329 net.cpp:130] This layer is inheriting previous layer's sync mode: 1
I0612 16:37:35.912652  3329 net.cpp:436] inception_3c/pool_2d -> inception_3c/pool
I0612 16:37:35.912675  3329 net.cpp:163] Setting up inception_3c/pool_2d
I0612 16:37:35.912834  3329 net.cpp:170] Top shape: 32 320 4 14 14 (8028160)
I0612 16:37:35.912844  3329 layer_factory.hpp:74] Creating layer inception_3c/output
I0612 16:37:35.912850  3329 net.cpp:99] Creating Layer inception_3c/output
I0612 16:37:35.912853  3329 net.cpp:480] inception_3c/output <- inception_3c/3x3_bn
I0612 16:37:35.912859  3329 net.cpp:480] inception_3c/output <- inception_3c/double_3x3_2_bn
I0612 16:37:35.912863  3329 net.cpp:480] inception_3c/output <- inception_3c/pool
I0612 16:37:35.912865  3329 net.cpp:130] This layer is inheriting previous layer's sync mode: 1
I0612 16:37:35.912870  3329 net.cpp:436] inception_3c/output -> inception_3c/output_1
I0612 16:37:35.912889  3329 net.cpp:163] Setting up inception_3c/output
I0612 16:37:35.912897  3329 net.cpp:170] Top shape: 32 576 4 14 14 (14450688)
I0612 16:37:35.912900  3329 layer_factory.hpp:74] Creating layer pool_3c
I0612 16:37:35.912906  3329 net.cpp:99] Creating Layer pool_3c
I0612 16:37:35.912909  3329 net.cpp:480] pool_3c <- inception_3c/output_1
I0612 16:37:35.912914  3329 net.cpp:130] This layer is inheriting previous layer's sync mode: 1
I0612 16:37:35.912919  3329 net.cpp:436] pool_3c -> inception_3c/output
I0612 16:37:35.912922  3329 net.cpp:163] Setting up pool_3c
I0612 16:37:35.918329  3329 net.cpp:170] Top shape: 32 576 2 14 14 (7225344)
I0612 16:37:35.918342  3329 layer_factory.hpp:74] Creating layer inception_3c/output_pool_3c_0_split
I0612 16:37:35.918364  3329 net.cpp:99] Creating Layer inception_3c/output_pool_3c_0_split
I0612 16:37:35.918367  3329 net.cpp:480] inception_3c/output_pool_3c_0_split <- inception_3c/output
I0612 16:37:35.918371  3329 net.cpp:130] This layer is inheriting previous layer's sync mode: 1
I0612 16:37:35.918375  3329 net.cpp:436] inception_3c/output_pool_3c_0_split -> inception_3c/output_pool_3c_0_split_0
I0612 16:37:35.918381  3329 net.cpp:436] inception_3c/output_pool_3c_0_split -> inception_3c/output_pool_3c_0_split_1
I0612 16:37:35.918388  3329 net.cpp:436] inception_3c/output_pool_3c_0_split -> inception_3c/output_pool_3c_0_split_2
I0612 16:37:35.918392  3329 net.cpp:436] inception_3c/output_pool_3c_0_split -> inception_3c/output_pool_3c_0_split_3
I0612 16:37:35.918396  3329 net.cpp:163] Setting up inception_3c/output_pool_3c_0_split
I0612 16:37:35.918402  3329 net.cpp:170] Top shape: 32 576 2 14 14 (7225344)
I0612 16:37:35.918406  3329 net.cpp:170] Top shape: 32 576 2 14 14 (7225344)
I0612 16:37:35.918409  3329 net.cpp:170] Top shape: 32 576 2 14 14 (7225344)
I0612 16:37:35.918412  3329 net.cpp:170] Top shape: 32 576 2 14 14 (7225344)
I0612 16:37:35.918416  3329 layer_factory.hpp:74] Creating layer inception_4a/1x1_2d
I0612 16:37:35.918424  3329 net.cpp:99] Creating Layer inception_4a/1x1_2d
I0612 16:37:35.918427  3329 net.cpp:480] inception_4a/1x1_2d <- inception_3c/output_pool_3c_0_split_0
I0612 16:37:35.918431  3329 net.cpp:130] This layer is inheriting previous layer's sync mode: 1
I0612 16:37:35.918437  3329 net.cpp:436] inception_4a/1x1_2d -> inception_4a/1x1
I0612 16:37:35.918442  3329 net.cpp:163] Setting up inception_4a/1x1_2d
I0612 16:37:36.119643  3329 net.cpp:170] Top shape: 32 224 2 14 14 (2809856)
I0612 16:37:36.119659  3329 layer_factory.hpp:74] Creating layer inception_4a/1x1_bn
I0612 16:37:36.119676  3329 layer_factory.cpp:181] Layer inception_4a/1x1_bn is using CUDNN engine.
I0612 16:37:36.119683  3329 net.cpp:99] Creating Layer inception_4a/1x1_bn
I0612 16:37:36.119698  3329 net.cpp:480] inception_4a/1x1_bn <- inception_4a/1x1
I0612 16:37:36.119702  3329 net.cpp:130] This layer is inheriting previous layer's sync mode: 1
I0612 16:37:36.119707  3329 net.cpp:436] inception_4a/1x1_bn -> inception_4a/1x1_bn
I0612 16:37:36.119724  3329 net.cpp:163] Setting up inception_4a/1x1_bn
I0612 16:37:36.119910  3329 cudnn_bn_layer.cpp:30] using cuDNN BN engine
I0612 16:37:36.119923  3329 net.cpp:170] Top shape: 32 224 2 14 14 (2809856)
I0612 16:37:36.119931  3329 layer_factory.hpp:74] Creating layer inception_4a/relu_1x1
I0612 16:37:36.119940  3329 net.cpp:99] Creating Layer inception_4a/relu_1x1
I0612 16:37:36.119943  3329 net.cpp:480] inception_4a/relu_1x1 <- inception_4a/1x1_bn
I0612 16:37:36.119946  3329 net.cpp:130] This layer is inheriting previous layer's sync mode: 1
I0612 16:37:36.119951  3329 net.cpp:425] inception_4a/relu_1x1 -> inception_4a/1x1_bn (in-place)
I0612 16:37:36.119956  3329 net.cpp:163] Setting up inception_4a/relu_1x1
I0612 16:37:36.121585  3329 net.cpp:170] Top shape: 32 224 2 14 14 (2809856)
I0612 16:37:36.121599  3329 layer_factory.hpp:74] Creating layer inception_4a/3x3_reduce_2d
I0612 16:37:36.121620  3329 net.cpp:99] Creating Layer inception_4a/3x3_reduce_2d
I0612 16:37:36.121624  3329 net.cpp:480] inception_4a/3x3_reduce_2d <- inception_3c/output_pool_3c_0_split_1
I0612 16:37:36.121640  3329 net.cpp:130] This layer is inheriting previous layer's sync mode: 1
I0612 16:37:36.121646  3329 net.cpp:436] inception_4a/3x3_reduce_2d -> inception_4a/3x3_reduce
I0612 16:37:36.121654  3329 net.cpp:163] Setting up inception_4a/3x3_reduce_2d
I0612 16:37:36.238554  3329 net.cpp:170] Top shape: 32 64 2 14 14 (802816)
I0612 16:37:36.238569  3329 layer_factory.hpp:74] Creating layer inception_4a/3x3_reduce_bn
I0612 16:37:36.238584  3329 layer_factory.cpp:181] Layer inception_4a/3x3_reduce_bn is using CUDNN engine.
I0612 16:37:36.238591  3329 net.cpp:99] Creating Layer inception_4a/3x3_reduce_bn
I0612 16:37:36.238595  3329 net.cpp:480] inception_4a/3x3_reduce_bn <- inception_4a/3x3_reduce
I0612 16:37:36.238600  3329 net.cpp:130] This layer is inheriting previous layer's sync mode: 1
I0612 16:37:36.238603  3329 net.cpp:436] inception_4a/3x3_reduce_bn -> inception_4a/3x3_reduce_bn
I0612 16:37:36.238610  3329 net.cpp:163] Setting up inception_4a/3x3_reduce_bn
I0612 16:37:36.240247  3329 cudnn_bn_layer.cpp:30] using cuDNN BN engine
I0612 16:37:36.240279  3329 net.cpp:170] Top shape: 32 64 2 14 14 (802816)
I0612 16:37:36.240289  3329 layer_factory.hpp:74] Creating layer inception_4a/relu_3x3_reduce
I0612 16:37:36.240295  3329 net.cpp:99] Creating Layer inception_4a/relu_3x3_reduce
I0612 16:37:36.240300  3329 net.cpp:480] inception_4a/relu_3x3_reduce <- inception_4a/3x3_reduce_bn
I0612 16:37:36.240304  3329 net.cpp:130] This layer is inheriting previous layer's sync mode: 1
I0612 16:37:36.240309  3329 net.cpp:425] inception_4a/relu_3x3_reduce -> inception_4a/3x3_reduce_bn (in-place)
I0612 16:37:36.240315  3329 net.cpp:163] Setting up inception_4a/relu_3x3_reduce
I0612 16:37:36.240537  3329 net.cpp:170] Top shape: 32 64 2 14 14 (802816)
I0612 16:37:36.240547  3329 layer_factory.hpp:74] Creating layer inception_4a/3x3_2d
I0612 16:37:36.240558  3329 net.cpp:99] Creating Layer inception_4a/3x3_2d
I0612 16:37:36.240562  3329 net.cpp:480] inception_4a/3x3_2d <- inception_4a/3x3_reduce_bn
I0612 16:37:36.240566  3329 net.cpp:130] This layer is inheriting previous layer's sync mode: 1
I0612 16:37:36.240572  3329 net.cpp:436] inception_4a/3x3_2d -> inception_4a/3x3
I0612 16:37:36.240578  3329 net.cpp:163] Setting up inception_4a/3x3_2d
I0612 16:37:36.332190  3329 net.cpp:170] Top shape: 32 96 2 14 14 (1204224)
I0612 16:37:36.332216  3329 layer_factory.hpp:74] Creating layer inception_4a/3x3_bn
I0612 16:37:36.332221  3329 layer_factory.cpp:181] Layer inception_4a/3x3_bn is using CUDNN engine.
I0612 16:37:36.332227  3329 net.cpp:99] Creating Layer inception_4a/3x3_bn
I0612 16:37:36.332231  3329 net.cpp:480] inception_4a/3x3_bn <- inception_4a/3x3
I0612 16:37:36.332235  3329 net.cpp:130] This layer is inheriting previous layer's sync mode: 1
I0612 16:37:36.332239  3329 net.cpp:436] inception_4a/3x3_bn -> inception_4a/3x3_bn
I0612 16:37:36.332247  3329 net.cpp:163] Setting up inception_4a/3x3_bn
I0612 16:37:36.336668  3329 cudnn_bn_layer.cpp:30] using cuDNN BN engine
I0612 16:37:36.336700  3329 net.cpp:170] Top shape: 32 96 2 14 14 (1204224)
I0612 16:37:36.336709  3329 layer_factory.hpp:74] Creating layer inception_4a/relu_3x3
I0612 16:37:36.336716  3329 net.cpp:99] Creating Layer inception_4a/relu_3x3
I0612 16:37:36.336720  3329 net.cpp:480] inception_4a/relu_3x3 <- inception_4a/3x3_bn
I0612 16:37:36.336724  3329 net.cpp:130] This layer is inheriting previous layer's sync mode: 1
I0612 16:37:36.336729  3329 net.cpp:425] inception_4a/relu_3x3 -> inception_4a/3x3_bn (in-place)
I0612 16:37:36.336733  3329 net.cpp:163] Setting up inception_4a/relu_3x3
I0612 16:37:36.336905  3329 net.cpp:170] Top shape: 32 96 2 14 14 (1204224)
I0612 16:37:36.336915  3329 layer_factory.hpp:74] Creating layer inception_4a/double_3x3_reduce_2d
I0612 16:37:36.336922  3329 net.cpp:99] Creating Layer inception_4a/double_3x3_reduce_2d
I0612 16:37:36.336926  3329 net.cpp:480] inception_4a/double_3x3_reduce_2d <- inception_3c/output_pool_3c_0_split_2
I0612 16:37:36.336930  3329 net.cpp:130] This layer is inheriting previous layer's sync mode: 1
I0612 16:37:36.336947  3329 net.cpp:436] inception_4a/double_3x3_reduce_2d -> inception_4a/double_3x3_reduce
I0612 16:37:36.336954  3329 net.cpp:163] Setting up inception_4a/double_3x3_reduce_2d
I0612 16:37:36.486140  3329 net.cpp:170] Top shape: 32 96 2 14 14 (1204224)
I0612 16:37:36.486168  3329 layer_factory.hpp:74] Creating layer inception_4a/double_3x3_reduce_bn
I0612 16:37:36.486173  3329 layer_factory.cpp:181] Layer inception_4a/double_3x3_reduce_bn is using CUDNN engine.
I0612 16:37:36.486179  3329 net.cpp:99] Creating Layer inception_4a/double_3x3_reduce_bn
I0612 16:37:36.486183  3329 net.cpp:480] inception_4a/double_3x3_reduce_bn <- inception_4a/double_3x3_reduce
I0612 16:37:36.486188  3329 net.cpp:130] This layer is inheriting previous layer's sync mode: 1
I0612 16:37:36.486192  3329 net.cpp:436] inception_4a/double_3x3_reduce_bn -> inception_4a/double_3x3_reduce_bn
I0612 16:37:36.486198  3329 net.cpp:163] Setting up inception_4a/double_3x3_reduce_bn
I0612 16:37:36.490413  3329 cudnn_bn_layer.cpp:30] using cuDNN BN engine
I0612 16:37:36.490432  3329 net.cpp:170] Top shape: 32 96 2 14 14 (1204224)
I0612 16:37:36.490442  3329 layer_factory.hpp:74] Creating layer inception_4a/relu_double_3x3_reduce
I0612 16:37:36.490452  3329 net.cpp:99] Creating Layer inception_4a/relu_double_3x3_reduce
I0612 16:37:36.490455  3329 net.cpp:480] inception_4a/relu_double_3x3_reduce <- inception_4a/double_3x3_reduce_bn
I0612 16:37:36.490460  3329 net.cpp:130] This layer is inheriting previous layer's sync mode: 1
I0612 16:37:36.490478  3329 net.cpp:425] inception_4a/relu_double_3x3_reduce -> inception_4a/double_3x3_reduce_bn (in-place)
I0612 16:37:36.490483  3329 net.cpp:163] Setting up inception_4a/relu_double_3x3_reduce
I0612 16:37:36.490676  3329 net.cpp:170] Top shape: 32 96 2 14 14 (1204224)
I0612 16:37:36.490686  3329 layer_factory.hpp:74] Creating layer inception_4a/double_3x3_1_2d
I0612 16:37:36.490698  3329 net.cpp:99] Creating Layer inception_4a/double_3x3_1_2d
I0612 16:37:36.490702  3329 net.cpp:480] inception_4a/double_3x3_1_2d <- inception_4a/double_3x3_reduce_bn
I0612 16:37:36.490707  3329 net.cpp:130] This layer is inheriting previous layer's sync mode: 1
I0612 16:37:36.490711  3329 net.cpp:436] inception_4a/double_3x3_1_2d -> inception_4a/double_3x3_1
I0612 16:37:36.490717  3329 net.cpp:163] Setting up inception_4a/double_3x3_1_2d
I0612 16:37:36.585469  3329 net.cpp:170] Top shape: 32 128 2 14 14 (1605632)
I0612 16:37:36.585495  3329 layer_factory.hpp:74] Creating layer inception_4a/double_3x3_1_bn
I0612 16:37:36.585500  3329 layer_factory.cpp:181] Layer inception_4a/double_3x3_1_bn is using CUDNN engine.
I0612 16:37:36.585507  3329 net.cpp:99] Creating Layer inception_4a/double_3x3_1_bn
I0612 16:37:36.585511  3329 net.cpp:480] inception_4a/double_3x3_1_bn <- inception_4a/double_3x3_1
I0612 16:37:36.585516  3329 net.cpp:130] This layer is inheriting previous layer's sync mode: 1
I0612 16:37:36.585520  3329 net.cpp:436] inception_4a/double_3x3_1_bn -> inception_4a/double_3x3_1_bn
I0612 16:37:36.585527  3329 net.cpp:163] Setting up inception_4a/double_3x3_1_bn
I0612 16:37:36.589429  3329 cudnn_bn_layer.cpp:30] using cuDNN BN engine
I0612 16:37:36.589447  3329 net.cpp:170] Top shape: 32 128 2 14 14 (1605632)
I0612 16:37:36.589455  3329 layer_factory.hpp:74] Creating layer inception_4a/relu_double_3x3_1
I0612 16:37:36.589464  3329 net.cpp:99] Creating Layer inception_4a/relu_double_3x3_1
I0612 16:37:36.589468  3329 net.cpp:480] inception_4a/relu_double_3x3_1 <- inception_4a/double_3x3_1_bn
I0612 16:37:36.589473  3329 net.cpp:130] This layer is inheriting previous layer's sync mode: 1
I0612 16:37:36.589475  3329 net.cpp:425] inception_4a/relu_double_3x3_1 -> inception_4a/double_3x3_1_bn (in-place)
I0612 16:37:36.589480  3329 net.cpp:163] Setting up inception_4a/relu_double_3x3_1
I0612 16:37:36.589632  3329 net.cpp:170] Top shape: 32 128 2 14 14 (1605632)
I0612 16:37:36.589639  3329 layer_factory.hpp:74] Creating layer inception_4a/double_3x3_2_2d
I0612 16:37:36.589658  3329 net.cpp:99] Creating Layer inception_4a/double_3x3_2_2d
I0612 16:37:36.589663  3329 net.cpp:480] inception_4a/double_3x3_2_2d <- inception_4a/double_3x3_1_bn
I0612 16:37:36.589665  3329 net.cpp:130] This layer is inheriting previous layer's sync mode: 1
I0612 16:37:36.589671  3329 net.cpp:436] inception_4a/double_3x3_2_2d -> inception_4a/double_3x3_2
I0612 16:37:36.589678  3329 net.cpp:163] Setting up inception_4a/double_3x3_2_2d
I0612 16:37:36.692715  3329 net.cpp:170] Top shape: 32 128 2 14 14 (1605632)
I0612 16:37:36.692728  3329 layer_factory.hpp:74] Creating layer inception_4a/double_3x3_2_bn
I0612 16:37:36.692734  3329 layer_factory.cpp:181] Layer inception_4a/double_3x3_2_bn is using CUDNN engine.
I0612 16:37:36.692739  3329 net.cpp:99] Creating Layer inception_4a/double_3x3_2_bn
I0612 16:37:36.692742  3329 net.cpp:480] inception_4a/double_3x3_2_bn <- inception_4a/double_3x3_2
I0612 16:37:36.692746  3329 net.cpp:130] This layer is inheriting previous layer's sync mode: 1
I0612 16:37:36.692751  3329 net.cpp:436] inception_4a/double_3x3_2_bn -> inception_4a/double_3x3_2_bn
I0612 16:37:36.692757  3329 net.cpp:163] Setting up inception_4a/double_3x3_2_bn
I0612 16:37:36.692955  3329 cudnn_bn_layer.cpp:30] using cuDNN BN engine
I0612 16:37:36.692966  3329 net.cpp:170] Top shape: 32 128 2 14 14 (1605632)
I0612 16:37:36.692986  3329 layer_factory.hpp:74] Creating layer inception_4a/relu_double_3x3_2
I0612 16:37:36.692992  3329 net.cpp:99] Creating Layer inception_4a/relu_double_3x3_2
I0612 16:37:36.693007  3329 net.cpp:480] inception_4a/relu_double_3x3_2 <- inception_4a/double_3x3_2_bn
I0612 16:37:36.693011  3329 net.cpp:130] This layer is inheriting previous layer's sync mode: 1
I0612 16:37:36.693027  3329 net.cpp:425] inception_4a/relu_double_3x3_2 -> inception_4a/double_3x3_2_bn (in-place)
I0612 16:37:36.693032  3329 net.cpp:163] Setting up inception_4a/relu_double_3x3_2
I0612 16:37:36.696785  3329 net.cpp:170] Top shape: 32 128 2 14 14 (1605632)
I0612 16:37:36.696796  3329 layer_factory.hpp:74] Creating layer inception_4a/pool_2d
I0612 16:37:36.696805  3329 net.cpp:99] Creating Layer inception_4a/pool_2d
I0612 16:37:36.696808  3329 net.cpp:480] inception_4a/pool_2d <- inception_3c/output_pool_3c_0_split_3
I0612 16:37:36.696812  3329 net.cpp:130] This layer is inheriting previous layer's sync mode: 1
I0612 16:37:36.696818  3329 net.cpp:436] inception_4a/pool_2d -> inception_4a/pool
I0612 16:37:36.696823  3329 net.cpp:163] Setting up inception_4a/pool_2d
I0612 16:37:36.696979  3329 net.cpp:170] Top shape: 32 576 2 14 14 (7225344)
I0612 16:37:36.696986  3329 layer_factory.hpp:74] Creating layer inception_4a/pool_proj_2d
I0612 16:37:36.696996  3329 net.cpp:99] Creating Layer inception_4a/pool_proj_2d
I0612 16:37:36.697000  3329 net.cpp:480] inception_4a/pool_proj_2d <- inception_4a/pool
I0612 16:37:36.697003  3329 net.cpp:130] This layer is inheriting previous layer's sync mode: 1
I0612 16:37:36.697007  3329 net.cpp:436] inception_4a/pool_proj_2d -> inception_4a/pool_proj
I0612 16:37:36.697013  3329 net.cpp:163] Setting up inception_4a/pool_proj_2d
I0612 16:37:36.861629  3329 net.cpp:170] Top shape: 32 128 2 14 14 (1605632)
I0612 16:37:36.861647  3329 layer_factory.hpp:74] Creating layer inception_4a/pool_proj_bn
I0612 16:37:36.861652  3329 layer_factory.cpp:181] Layer inception_4a/pool_proj_bn is using CUDNN engine.
I0612 16:37:36.861660  3329 net.cpp:99] Creating Layer inception_4a/pool_proj_bn
I0612 16:37:36.861667  3329 net.cpp:480] inception_4a/pool_proj_bn <- inception_4a/pool_proj
I0612 16:37:36.861672  3329 net.cpp:130] This layer is inheriting previous layer's sync mode: 1
I0612 16:37:36.861676  3329 net.cpp:436] inception_4a/pool_proj_bn -> inception_4a/pool_proj_bn
I0612 16:37:36.861696  3329 net.cpp:163] Setting up inception_4a/pool_proj_bn
I0612 16:37:36.865300  3329 cudnn_bn_layer.cpp:30] using cuDNN BN engine
I0612 16:37:36.865329  3329 net.cpp:170] Top shape: 32 128 2 14 14 (1605632)
I0612 16:37:36.865341  3329 layer_factory.hpp:74] Creating layer inception_4a/relu_pool_proj
I0612 16:37:36.865358  3329 net.cpp:99] Creating Layer inception_4a/relu_pool_proj
I0612 16:37:36.865363  3329 net.cpp:480] inception_4a/relu_pool_proj <- inception_4a/pool_proj_bn
I0612 16:37:36.865367  3329 net.cpp:130] This layer is inheriting previous layer's sync mode: 1
I0612 16:37:36.865370  3329 net.cpp:425] inception_4a/relu_pool_proj -> inception_4a/pool_proj_bn (in-place)
I0612 16:37:36.865376  3329 net.cpp:163] Setting up inception_4a/relu_pool_proj
I0612 16:37:36.865571  3329 net.cpp:170] Top shape: 32 128 2 14 14 (1605632)
I0612 16:37:36.865578  3329 layer_factory.hpp:74] Creating layer inception_4a/output
I0612 16:37:36.865586  3329 net.cpp:99] Creating Layer inception_4a/output
I0612 16:37:36.865589  3329 net.cpp:480] inception_4a/output <- inception_4a/1x1_bn
I0612 16:37:36.865597  3329 net.cpp:480] inception_4a/output <- inception_4a/3x3_bn
I0612 16:37:36.865602  3329 net.cpp:480] inception_4a/output <- inception_4a/double_3x3_2_bn
I0612 16:37:36.865604  3329 net.cpp:480] inception_4a/output <- inception_4a/pool_proj_bn
I0612 16:37:36.865607  3329 net.cpp:130] This layer is inheriting previous layer's sync mode: 1
I0612 16:37:36.865612  3329 net.cpp:436] inception_4a/output -> inception_4a/output
I0612 16:37:36.865617  3329 net.cpp:163] Setting up inception_4a/output
I0612 16:37:36.865624  3329 net.cpp:170] Top shape: 32 576 2 14 14 (7225344)
I0612 16:37:36.865628  3329 layer_factory.hpp:74] Creating layer inception_4a/output_inception_4a/output_0_split
I0612 16:37:36.865643  3329 net.cpp:99] Creating Layer inception_4a/output_inception_4a/output_0_split
I0612 16:37:36.865646  3329 net.cpp:480] inception_4a/output_inception_4a/output_0_split <- inception_4a/output
I0612 16:37:36.865649  3329 net.cpp:130] This layer is inheriting previous layer's sync mode: 1
I0612 16:37:36.865655  3329 net.cpp:436] inception_4a/output_inception_4a/output_0_split -> inception_4a/output_inception_4a/output_0_split_0
I0612 16:37:36.865661  3329 net.cpp:436] inception_4a/output_inception_4a/output_0_split -> inception_4a/output_inception_4a/output_0_split_1
I0612 16:37:36.865665  3329 net.cpp:436] inception_4a/output_inception_4a/output_0_split -> inception_4a/output_inception_4a/output_0_split_2
I0612 16:37:36.865670  3329 net.cpp:436] inception_4a/output_inception_4a/output_0_split -> inception_4a/output_inception_4a/output_0_split_3
I0612 16:37:36.865675  3329 net.cpp:163] Setting up inception_4a/output_inception_4a/output_0_split
I0612 16:37:36.865692  3329 net.cpp:170] Top shape: 32 576 2 14 14 (7225344)
I0612 16:37:36.865696  3329 net.cpp:170] Top shape: 32 576 2 14 14 (7225344)
I0612 16:37:36.865700  3329 net.cpp:170] Top shape: 32 576 2 14 14 (7225344)
I0612 16:37:36.865702  3329 net.cpp:170] Top shape: 32 576 2 14 14 (7225344)
I0612 16:37:36.865705  3329 layer_factory.hpp:74] Creating layer inception_4b/1x1_2d
I0612 16:37:36.865713  3329 net.cpp:99] Creating Layer inception_4b/1x1_2d
I0612 16:37:36.865716  3329 net.cpp:480] inception_4b/1x1_2d <- inception_4a/output_inception_4a/output_0_split_0
I0612 16:37:36.865720  3329 net.cpp:130] This layer is inheriting previous layer's sync mode: 1
I0612 16:37:36.865725  3329 net.cpp:436] inception_4b/1x1_2d -> inception_4b/1x1
I0612 16:37:36.865741  3329 net.cpp:163] Setting up inception_4b/1x1_2d
I0612 16:37:37.048382  3329 net.cpp:170] Top shape: 32 192 2 14 14 (2408448)
I0612 16:37:37.048399  3329 layer_factory.hpp:74] Creating layer inception_4b/1x1_bn
I0612 16:37:37.048403  3329 layer_factory.cpp:181] Layer inception_4b/1x1_bn is using CUDNN engine.
I0612 16:37:37.048410  3329 net.cpp:99] Creating Layer inception_4b/1x1_bn
I0612 16:37:37.048413  3329 net.cpp:480] inception_4b/1x1_bn <- inception_4b/1x1
I0612 16:37:37.048418  3329 net.cpp:130] This layer is inheriting previous layer's sync mode: 1
I0612 16:37:37.048424  3329 net.cpp:436] inception_4b/1x1_bn -> inception_4b/1x1_bn
I0612 16:37:37.048429  3329 net.cpp:163] Setting up inception_4b/1x1_bn
I0612 16:37:37.051769  3329 cudnn_bn_layer.cpp:30] using cuDNN BN engine
I0612 16:37:37.051786  3329 net.cpp:170] Top shape: 32 192 2 14 14 (2408448)
I0612 16:37:37.051805  3329 layer_factory.hpp:74] Creating layer inception_4b/relu_1x1
I0612 16:37:37.051812  3329 net.cpp:99] Creating Layer inception_4b/relu_1x1
I0612 16:37:37.051820  3329 net.cpp:480] inception_4b/relu_1x1 <- inception_4b/1x1_bn
I0612 16:37:37.051825  3329 net.cpp:130] This layer is inheriting previous layer's sync mode: 1
I0612 16:37:37.051827  3329 net.cpp:425] inception_4b/relu_1x1 -> inception_4b/1x1_bn (in-place)
I0612 16:37:37.051833  3329 net.cpp:163] Setting up inception_4b/relu_1x1
I0612 16:37:37.051990  3329 net.cpp:170] Top shape: 32 192 2 14 14 (2408448)
I0612 16:37:37.051998  3329 layer_factory.hpp:74] Creating layer inception_4b/3x3_reduce_2d
I0612 16:37:37.052007  3329 net.cpp:99] Creating Layer inception_4b/3x3_reduce_2d
I0612 16:37:37.052011  3329 net.cpp:480] inception_4b/3x3_reduce_2d <- inception_4a/output_inception_4a/output_0_split_1
I0612 16:37:37.052016  3329 net.cpp:130] This layer is inheriting previous layer's sync mode: 1
I0612 16:37:37.052021  3329 net.cpp:436] inception_4b/3x3_reduce_2d -> inception_4b/3x3_reduce
I0612 16:37:37.052027  3329 net.cpp:163] Setting up inception_4b/3x3_reduce_2d
I0612 16:37:37.173004  3329 net.cpp:170] Top shape: 32 96 2 14 14 (1204224)
I0612 16:37:37.173020  3329 layer_factory.hpp:74] Creating layer inception_4b/3x3_reduce_bn
I0612 16:37:37.173038  3329 layer_factory.cpp:181] Layer inception_4b/3x3_reduce_bn is using CUDNN engine.
I0612 16:37:37.173044  3329 net.cpp:99] Creating Layer inception_4b/3x3_reduce_bn
I0612 16:37:37.173048  3329 net.cpp:480] inception_4b/3x3_reduce_bn <- inception_4b/3x3_reduce
I0612 16:37:37.173053  3329 net.cpp:130] This layer is inheriting previous layer's sync mode: 1
I0612 16:37:37.173058  3329 net.cpp:436] inception_4b/3x3_reduce_bn -> inception_4b/3x3_reduce_bn
I0612 16:37:37.173065  3329 net.cpp:163] Setting up inception_4b/3x3_reduce_bn
I0612 16:37:37.179407  3329 cudnn_bn_layer.cpp:30] using cuDNN BN engine
I0612 16:37:37.179425  3329 net.cpp:170] Top shape: 32 96 2 14 14 (1204224)
I0612 16:37:37.179435  3329 layer_factory.hpp:74] Creating layer inception_4b/relu_3x3_reduce
I0612 16:37:37.179443  3329 net.cpp:99] Creating Layer inception_4b/relu_3x3_reduce
I0612 16:37:37.179447  3329 net.cpp:480] inception_4b/relu_3x3_reduce <- inception_4b/3x3_reduce_bn
I0612 16:37:37.179452  3329 net.cpp:130] This layer is inheriting previous layer's sync mode: 1
I0612 16:37:37.179457  3329 net.cpp:425] inception_4b/relu_3x3_reduce -> inception_4b/3x3_reduce_bn (in-place)
I0612 16:37:37.179463  3329 net.cpp:163] Setting up inception_4b/relu_3x3_reduce
I0612 16:37:37.179632  3329 net.cpp:170] Top shape: 32 96 2 14 14 (1204224)
I0612 16:37:37.179641  3329 layer_factory.hpp:74] Creating layer inception_4b/3x3_2d
I0612 16:37:37.179651  3329 net.cpp:99] Creating Layer inception_4b/3x3_2d
I0612 16:37:37.179656  3329 net.cpp:480] inception_4b/3x3_2d <- inception_4b/3x3_reduce_bn
I0612 16:37:37.179659  3329 net.cpp:130] This layer is inheriting previous layer's sync mode: 1
I0612 16:37:37.179666  3329 net.cpp:436] inception_4b/3x3_2d -> inception_4b/3x3
I0612 16:37:37.179672  3329 net.cpp:163] Setting up inception_4b/3x3_2d
I0612 16:37:37.271430  3329 net.cpp:170] Top shape: 32 128 2 14 14 (1605632)
I0612 16:37:37.271466  3329 layer_factory.hpp:74] Creating layer inception_4b/3x3_bn
I0612 16:37:37.271481  3329 layer_factory.cpp:181] Layer inception_4b/3x3_bn is using CUDNN engine.
I0612 16:37:37.271495  3329 net.cpp:99] Creating Layer inception_4b/3x3_bn
I0612 16:37:37.271505  3329 net.cpp:480] inception_4b/3x3_bn <- inception_4b/3x3
I0612 16:37:37.271517  3329 net.cpp:130] This layer is inheriting previous layer's sync mode: 1
I0612 16:37:37.271529  3329 net.cpp:436] inception_4b/3x3_bn -> inception_4b/3x3_bn
I0612 16:37:37.271546  3329 net.cpp:163] Setting up inception_4b/3x3_bn
I0612 16:37:37.271764  3329 cudnn_bn_layer.cpp:30] using cuDNN BN engine
I0612 16:37:37.271777  3329 net.cpp:170] Top shape: 32 128 2 14 14 (1605632)
I0612 16:37:37.271786  3329 layer_factory.hpp:74] Creating layer inception_4b/relu_3x3
I0612 16:37:37.271803  3329 net.cpp:99] Creating Layer inception_4b/relu_3x3
I0612 16:37:37.271808  3329 net.cpp:480] inception_4b/relu_3x3 <- inception_4b/3x3_bn
I0612 16:37:37.271812  3329 net.cpp:130] This layer is inheriting previous layer's sync mode: 1
I0612 16:37:37.271817  3329 net.cpp:425] inception_4b/relu_3x3 -> inception_4b/3x3_bn (in-place)
I0612 16:37:37.271822  3329 net.cpp:163] Setting up inception_4b/relu_3x3
I0612 16:37:37.276715  3329 net.cpp:170] Top shape: 32 128 2 14 14 (1605632)
I0612 16:37:37.276726  3329 layer_factory.hpp:74] Creating layer inception_4b/double_3x3_reduce_2d
I0612 16:37:37.276736  3329 net.cpp:99] Creating Layer inception_4b/double_3x3_reduce_2d
I0612 16:37:37.276739  3329 net.cpp:480] inception_4b/double_3x3_reduce_2d <- inception_4a/output_inception_4a/output_0_split_2
I0612 16:37:37.276743  3329 net.cpp:130] This layer is inheriting previous layer's sync mode: 1
I0612 16:37:37.276751  3329 net.cpp:436] inception_4b/double_3x3_reduce_2d -> inception_4b/double_3x3_reduce
I0612 16:37:37.276757  3329 net.cpp:163] Setting up inception_4b/double_3x3_reduce_2d
I0612 16:37:37.443320  3329 net.cpp:170] Top shape: 32 96 2 14 14 (1204224)
I0612 16:37:37.443367  3329 layer_factory.hpp:74] Creating layer inception_4b/double_3x3_reduce_bn
I0612 16:37:37.443388  3329 layer_factory.cpp:181] Layer inception_4b/double_3x3_reduce_bn is using CUDNN engine.
I0612 16:37:37.443397  3329 net.cpp:99] Creating Layer inception_4b/double_3x3_reduce_bn
I0612 16:37:37.443400  3329 net.cpp:480] inception_4b/double_3x3_reduce_bn <- inception_4b/double_3x3_reduce
I0612 16:37:37.443405  3329 net.cpp:130] This layer is inheriting previous layer's sync mode: 1
I0612 16:37:37.443413  3329 net.cpp:436] inception_4b/double_3x3_reduce_bn -> inception_4b/double_3x3_reduce_bn
I0612 16:37:37.443419  3329 net.cpp:163] Setting up inception_4b/double_3x3_reduce_bn
I0612 16:37:37.443606  3329 cudnn_bn_layer.cpp:30] using cuDNN BN engine
I0612 16:37:37.443620  3329 net.cpp:170] Top shape: 32 96 2 14 14 (1204224)
I0612 16:37:37.443629  3329 layer_factory.hpp:74] Creating layer inception_4b/relu_double_3x3_reduce
I0612 16:37:37.443637  3329 net.cpp:99] Creating Layer inception_4b/relu_double_3x3_reduce
I0612 16:37:37.443641  3329 net.cpp:480] inception_4b/relu_double_3x3_reduce <- inception_4b/double_3x3_reduce_bn
I0612 16:37:37.443646  3329 net.cpp:130] This layer is inheriting previous layer's sync mode: 1
I0612 16:37:37.443650  3329 net.cpp:425] inception_4b/relu_double_3x3_reduce -> inception_4b/double_3x3_reduce_bn (in-place)
I0612 16:37:37.443655  3329 net.cpp:163] Setting up inception_4b/relu_double_3x3_reduce
I0612 16:37:37.446579  3329 net.cpp:170] Top shape: 32 96 2 14 14 (1204224)
I0612 16:37:37.446593  3329 layer_factory.hpp:74] Creating layer inception_4b/double_3x3_1_2d
I0612 16:37:37.446602  3329 net.cpp:99] Creating Layer inception_4b/double_3x3_1_2d
I0612 16:37:37.446606  3329 net.cpp:480] inception_4b/double_3x3_1_2d <- inception_4b/double_3x3_reduce_bn
I0612 16:37:37.446610  3329 net.cpp:130] This layer is inheriting previous layer's sync mode: 1
I0612 16:37:37.446616  3329 net.cpp:436] inception_4b/double_3x3_1_2d -> inception_4b/double_3x3_1
I0612 16:37:37.446622  3329 net.cpp:163] Setting up inception_4b/double_3x3_1_2d
I0612 16:37:37.543051  3329 net.cpp:170] Top shape: 32 128 2 14 14 (1605632)
I0612 16:37:37.543089  3329 layer_factory.hpp:74] Creating layer inception_4b/double_3x3_1_bn
I0612 16:37:37.543102  3329 layer_factory.cpp:181] Layer inception_4b/double_3x3_1_bn is using CUDNN engine.
I0612 16:37:37.543121  3329 net.cpp:99] Creating Layer inception_4b/double_3x3_1_bn
I0612 16:37:37.543125  3329 net.cpp:480] inception_4b/double_3x3_1_bn <- inception_4b/double_3x3_1
I0612 16:37:37.543130  3329 net.cpp:130] This layer is inheriting previous layer's sync mode: 1
I0612 16:37:37.543135  3329 net.cpp:436] inception_4b/double_3x3_1_bn -> inception_4b/double_3x3_1_bn
I0612 16:37:37.543143  3329 net.cpp:163] Setting up inception_4b/double_3x3_1_bn
I0612 16:37:37.543330  3329 cudnn_bn_layer.cpp:30] using cuDNN BN engine
I0612 16:37:37.543352  3329 net.cpp:170] Top shape: 32 128 2 14 14 (1605632)
I0612 16:37:37.543364  3329 layer_factory.hpp:74] Creating layer inception_4b/relu_double_3x3_1
I0612 16:37:37.543371  3329 net.cpp:99] Creating Layer inception_4b/relu_double_3x3_1
I0612 16:37:37.543375  3329 net.cpp:480] inception_4b/relu_double_3x3_1 <- inception_4b/double_3x3_1_bn
I0612 16:37:37.543380  3329 net.cpp:130] This layer is inheriting previous layer's sync mode: 1
I0612 16:37:37.543390  3329 net.cpp:425] inception_4b/relu_double_3x3_1 -> inception_4b/double_3x3_1_bn (in-place)
I0612 16:37:37.543396  3329 net.cpp:163] Setting up inception_4b/relu_double_3x3_1
I0612 16:37:37.548640  3329 net.cpp:170] Top shape: 32 128 2 14 14 (1605632)
I0612 16:37:37.548653  3329 layer_factory.hpp:74] Creating layer inception_4b/double_3x3_2_2d
I0612 16:37:37.548673  3329 net.cpp:99] Creating Layer inception_4b/double_3x3_2_2d
I0612 16:37:37.548678  3329 net.cpp:480] inception_4b/double_3x3_2_2d <- inception_4b/double_3x3_1_bn
I0612 16:37:37.548682  3329 net.cpp:130] This layer is inheriting previous layer's sync mode: 1
I0612 16:37:37.548687  3329 net.cpp:436] inception_4b/double_3x3_2_2d -> inception_4b/double_3x3_2
I0612 16:37:37.548693  3329 net.cpp:163] Setting up inception_4b/double_3x3_2_2d
I0612 16:37:37.652258  3329 net.cpp:170] Top shape: 32 128 2 14 14 (1605632)
I0612 16:37:37.652292  3329 layer_factory.hpp:74] Creating layer inception_4b/double_3x3_2_bn
I0612 16:37:37.652302  3329 layer_factory.cpp:181] Layer inception_4b/double_3x3_2_bn is using CUDNN engine.
I0612 16:37:37.652318  3329 net.cpp:99] Creating Layer inception_4b/double_3x3_2_bn
I0612 16:37:37.652329  3329 net.cpp:480] inception_4b/double_3x3_2_bn <- inception_4b/double_3x3_2
I0612 16:37:37.652340  3329 net.cpp:130] This layer is inheriting previous layer's sync mode: 1
I0612 16:37:37.652362  3329 net.cpp:436] inception_4b/double_3x3_2_bn -> inception_4b/double_3x3_2_bn
I0612 16:37:37.652369  3329 net.cpp:163] Setting up inception_4b/double_3x3_2_bn
I0612 16:37:37.656841  3329 cudnn_bn_layer.cpp:30] using cuDNN BN engine
I0612 16:37:37.656855  3329 net.cpp:170] Top shape: 32 128 2 14 14 (1605632)
I0612 16:37:37.656864  3329 layer_factory.hpp:74] Creating layer inception_4b/relu_double_3x3_2
I0612 16:37:37.656870  3329 net.cpp:99] Creating Layer inception_4b/relu_double_3x3_2
I0612 16:37:37.656874  3329 net.cpp:480] inception_4b/relu_double_3x3_2 <- inception_4b/double_3x3_2_bn
I0612 16:37:37.656878  3329 net.cpp:130] This layer is inheriting previous layer's sync mode: 1
I0612 16:37:37.656883  3329 net.cpp:425] inception_4b/relu_double_3x3_2 -> inception_4b/double_3x3_2_bn (in-place)
I0612 16:37:37.656888  3329 net.cpp:163] Setting up inception_4b/relu_double_3x3_2
I0612 16:37:37.659759  3329 net.cpp:170] Top shape: 32 128 2 14 14 (1605632)
I0612 16:37:37.659768  3329 layer_factory.hpp:74] Creating layer inception_4b/pool_2d
I0612 16:37:37.659778  3329 net.cpp:99] Creating Layer inception_4b/pool_2d
I0612 16:37:37.659782  3329 net.cpp:480] inception_4b/pool_2d <- inception_4a/output_inception_4a/output_0_split_3
I0612 16:37:37.659786  3329 net.cpp:130] This layer is inheriting previous layer's sync mode: 1
I0612 16:37:37.659790  3329 net.cpp:436] inception_4b/pool_2d -> inception_4b/pool
I0612 16:37:37.659795  3329 net.cpp:163] Setting up inception_4b/pool_2d
I0612 16:37:37.659955  3329 net.cpp:170] Top shape: 32 576 2 14 14 (7225344)
I0612 16:37:37.659963  3329 layer_factory.hpp:74] Creating layer inception_4b/pool_proj_2d
I0612 16:37:37.659971  3329 net.cpp:99] Creating Layer inception_4b/pool_proj_2d
I0612 16:37:37.659976  3329 net.cpp:480] inception_4b/pool_proj_2d <- inception_4b/pool
I0612 16:37:37.659979  3329 net.cpp:130] This layer is inheriting previous layer's sync mode: 1
I0612 16:37:37.659984  3329 net.cpp:436] inception_4b/pool_proj_2d -> inception_4b/pool_proj
I0612 16:37:37.659991  3329 net.cpp:163] Setting up inception_4b/pool_proj_2d
I0612 16:37:37.827724  3329 net.cpp:170] Top shape: 32 128 2 14 14 (1605632)
I0612 16:37:37.827739  3329 layer_factory.hpp:74] Creating layer inception_4b/pool_proj_bn
I0612 16:37:37.827752  3329 layer_factory.cpp:181] Layer inception_4b/pool_proj_bn is using CUDNN engine.
I0612 16:37:37.827760  3329 net.cpp:99] Creating Layer inception_4b/pool_proj_bn
I0612 16:37:37.827764  3329 net.cpp:480] inception_4b/pool_proj_bn <- inception_4b/pool_proj
I0612 16:37:37.827767  3329 net.cpp:130] This layer is inheriting previous layer's sync mode: 1
I0612 16:37:37.827772  3329 net.cpp:436] inception_4b/pool_proj_bn -> inception_4b/pool_proj_bn
I0612 16:37:37.827778  3329 net.cpp:163] Setting up inception_4b/pool_proj_bn
I0612 16:37:37.827951  3329 cudnn_bn_layer.cpp:30] using cuDNN BN engine
I0612 16:37:37.827962  3329 net.cpp:170] Top shape: 32 128 2 14 14 (1605632)
I0612 16:37:37.827970  3329 layer_factory.hpp:74] Creating layer inception_4b/relu_pool_proj
I0612 16:37:37.827976  3329 net.cpp:99] Creating Layer inception_4b/relu_pool_proj
I0612 16:37:37.827980  3329 net.cpp:480] inception_4b/relu_pool_proj <- inception_4b/pool_proj_bn
I0612 16:37:37.827983  3329 net.cpp:130] This layer is inheriting previous layer's sync mode: 1
I0612 16:37:37.827986  3329 net.cpp:425] inception_4b/relu_pool_proj -> inception_4b/pool_proj_bn (in-place)
I0612 16:37:37.827991  3329 net.cpp:163] Setting up inception_4b/relu_pool_proj
I0612 16:37:37.830618  3329 net.cpp:170] Top shape: 32 128 2 14 14 (1605632)
I0612 16:37:37.830629  3329 layer_factory.hpp:74] Creating layer inception_4b/output
I0612 16:37:37.830637  3329 net.cpp:99] Creating Layer inception_4b/output
I0612 16:37:37.830641  3329 net.cpp:480] inception_4b/output <- inception_4b/1x1_bn
I0612 16:37:37.830646  3329 net.cpp:480] inception_4b/output <- inception_4b/3x3_bn
I0612 16:37:37.830649  3329 net.cpp:480] inception_4b/output <- inception_4b/double_3x3_2_bn
I0612 16:37:37.830653  3329 net.cpp:480] inception_4b/output <- inception_4b/pool_proj_bn
I0612 16:37:37.830655  3329 net.cpp:130] This layer is inheriting previous layer's sync mode: 1
I0612 16:37:37.830660  3329 net.cpp:436] inception_4b/output -> inception_4b/output
I0612 16:37:37.830667  3329 net.cpp:163] Setting up inception_4b/output
I0612 16:37:37.830672  3329 net.cpp:170] Top shape: 32 576 2 14 14 (7225344)
I0612 16:37:37.830675  3329 layer_factory.hpp:74] Creating layer inception_4b/output_inception_4b/output_0_split
I0612 16:37:37.830729  3329 net.cpp:99] Creating Layer inception_4b/output_inception_4b/output_0_split
I0612 16:37:37.830731  3329 net.cpp:480] inception_4b/output_inception_4b/output_0_split <- inception_4b/output
I0612 16:37:37.830734  3329 net.cpp:130] This layer is inheriting previous layer's sync mode: 1
I0612 16:37:37.830739  3329 net.cpp:436] inception_4b/output_inception_4b/output_0_split -> inception_4b/output_inception_4b/output_0_split_0
I0612 16:37:37.830744  3329 net.cpp:436] inception_4b/output_inception_4b/output_0_split -> inception_4b/output_inception_4b/output_0_split_1
I0612 16:37:37.830749  3329 net.cpp:436] inception_4b/output_inception_4b/output_0_split -> inception_4b/output_inception_4b/output_0_split_2
I0612 16:37:37.830754  3329 net.cpp:436] inception_4b/output_inception_4b/output_0_split -> inception_4b/output_inception_4b/output_0_split_3
I0612 16:37:37.830757  3329 net.cpp:163] Setting up inception_4b/output_inception_4b/output_0_split
I0612 16:37:37.830763  3329 net.cpp:170] Top shape: 32 576 2 14 14 (7225344)
I0612 16:37:37.830766  3329 net.cpp:170] Top shape: 32 576 2 14 14 (7225344)
I0612 16:37:37.830770  3329 net.cpp:170] Top shape: 32 576 2 14 14 (7225344)
I0612 16:37:37.830772  3329 net.cpp:170] Top shape: 32 576 2 14 14 (7225344)
I0612 16:37:37.830775  3329 layer_factory.hpp:74] Creating layer inception_4c/1x1_2d
I0612 16:37:37.830782  3329 net.cpp:99] Creating Layer inception_4c/1x1_2d
I0612 16:37:37.830785  3329 net.cpp:480] inception_4c/1x1_2d <- inception_4b/output_inception_4b/output_0_split_0
I0612 16:37:37.830788  3329 net.cpp:130] This layer is inheriting previous layer's sync mode: 1
I0612 16:37:37.830793  3329 net.cpp:436] inception_4c/1x1_2d -> inception_4c/1x1
I0612 16:37:37.830807  3329 net.cpp:163] Setting up inception_4c/1x1_2d
I0612 16:37:37.983877  3329 net.cpp:170] Top shape: 32 160 2 14 14 (2007040)
I0612 16:37:37.983891  3329 layer_factory.hpp:74] Creating layer inception_4c/1x1_bn
I0612 16:37:37.983896  3329 layer_factory.cpp:181] Layer inception_4c/1x1_bn is using CUDNN engine.
I0612 16:37:37.983901  3329 net.cpp:99] Creating Layer inception_4c/1x1_bn
I0612 16:37:37.983906  3329 net.cpp:480] inception_4c/1x1_bn <- inception_4c/1x1
I0612 16:37:37.983911  3329 net.cpp:130] This layer is inheriting previous layer's sync mode: 1
I0612 16:37:37.983925  3329 net.cpp:436] inception_4c/1x1_bn -> inception_4c/1x1_bn
I0612 16:37:37.983932  3329 net.cpp:163] Setting up inception_4c/1x1_bn
I0612 16:37:37.986009  3329 cudnn_bn_layer.cpp:30] using cuDNN BN engine
I0612 16:37:37.986037  3329 net.cpp:170] Top shape: 32 160 2 14 14 (2007040)
I0612 16:37:37.986045  3329 layer_factory.hpp:74] Creating layer inception_4c/relu_1x1
I0612 16:37:37.986052  3329 net.cpp:99] Creating Layer inception_4c/relu_1x1
I0612 16:37:37.986057  3329 net.cpp:480] inception_4c/relu_1x1 <- inception_4c/1x1_bn
I0612 16:37:37.986062  3329 net.cpp:130] This layer is inheriting previous layer's sync mode: 1
I0612 16:37:37.986065  3329 net.cpp:425] inception_4c/relu_1x1 -> inception_4c/1x1_bn (in-place)
I0612 16:37:37.986070  3329 net.cpp:163] Setting up inception_4c/relu_1x1
I0612 16:37:37.988240  3329 net.cpp:170] Top shape: 32 160 2 14 14 (2007040)
I0612 16:37:37.988250  3329 layer_factory.hpp:74] Creating layer inception_4c/3x3_reduce_2d
I0612 16:37:37.988260  3329 net.cpp:99] Creating Layer inception_4c/3x3_reduce_2d
I0612 16:37:37.988263  3329 net.cpp:480] inception_4c/3x3_reduce_2d <- inception_4b/output_inception_4b/output_0_split_1
I0612 16:37:37.988267  3329 net.cpp:130] This layer is inheriting previous layer's sync mode: 1
I0612 16:37:37.988273  3329 net.cpp:436] inception_4c/3x3_reduce_2d -> inception_4c/3x3_reduce
I0612 16:37:37.988279  3329 net.cpp:163] Setting up inception_4c/3x3_reduce_2d
I0612 16:37:38.130404  3329 net.cpp:170] Top shape: 32 128 2 14 14 (1605632)
I0612 16:37:38.130437  3329 layer_factory.hpp:74] Creating layer inception_4c/3x3_reduce_bn
I0612 16:37:38.130448  3329 layer_factory.cpp:181] Layer inception_4c/3x3_reduce_bn is using CUDNN engine.
I0612 16:37:38.130463  3329 net.cpp:99] Creating Layer inception_4c/3x3_reduce_bn
I0612 16:37:38.130473  3329 net.cpp:480] inception_4c/3x3_reduce_bn <- inception_4c/3x3_reduce
I0612 16:37:38.130483  3329 net.cpp:130] This layer is inheriting previous layer's sync mode: 1
I0612 16:37:38.130496  3329 net.cpp:436] inception_4c/3x3_reduce_bn -> inception_4c/3x3_reduce_bn
I0612 16:37:38.130513  3329 net.cpp:163] Setting up inception_4c/3x3_reduce_bn
I0612 16:37:38.130800  3329 cudnn_bn_layer.cpp:30] using cuDNN BN engine
I0612 16:37:38.130811  3329 net.cpp:170] Top shape: 32 128 2 14 14 (1605632)
I0612 16:37:38.130820  3329 layer_factory.hpp:74] Creating layer inception_4c/relu_3x3_reduce
I0612 16:37:38.130827  3329 net.cpp:99] Creating Layer inception_4c/relu_3x3_reduce
I0612 16:37:38.130831  3329 net.cpp:480] inception_4c/relu_3x3_reduce <- inception_4c/3x3_reduce_bn
I0612 16:37:38.130834  3329 net.cpp:130] This layer is inheriting previous layer's sync mode: 1
I0612 16:37:38.130839  3329 net.cpp:425] inception_4c/relu_3x3_reduce -> inception_4c/3x3_reduce_bn (in-place)
I0612 16:37:38.130844  3329 net.cpp:163] Setting up inception_4c/relu_3x3_reduce
I0612 16:37:38.132377  3329 net.cpp:170] Top shape: 32 128 2 14 14 (1605632)
I0612 16:37:38.132388  3329 layer_factory.hpp:74] Creating layer inception_4c/3x3_2d
I0612 16:37:38.132397  3329 net.cpp:99] Creating Layer inception_4c/3x3_2d
I0612 16:37:38.132401  3329 net.cpp:480] inception_4c/3x3_2d <- inception_4c/3x3_reduce_bn
I0612 16:37:38.132405  3329 net.cpp:130] This layer is inheriting previous layer's sync mode: 1
I0612 16:37:38.132411  3329 net.cpp:436] inception_4c/3x3_2d -> inception_4c/3x3
I0612 16:37:38.132416  3329 net.cpp:163] Setting up inception_4c/3x3_2d
I0612 16:37:38.231698  3329 net.cpp:170] Top shape: 32 160 2 14 14 (2007040)
I0612 16:37:38.231751  3329 layer_factory.hpp:74] Creating layer inception_4c/3x3_bn
I0612 16:37:38.231766  3329 layer_factory.cpp:181] Layer inception_4c/3x3_bn is using CUDNN engine.
I0612 16:37:38.231781  3329 net.cpp:99] Creating Layer inception_4c/3x3_bn
I0612 16:37:38.231791  3329 net.cpp:480] inception_4c/3x3_bn <- inception_4c/3x3
I0612 16:37:38.231801  3329 net.cpp:130] This layer is inheriting previous layer's sync mode: 1
I0612 16:37:38.231812  3329 net.cpp:436] inception_4c/3x3_bn -> inception_4c/3x3_bn
I0612 16:37:38.231830  3329 net.cpp:163] Setting up inception_4c/3x3_bn
I0612 16:37:38.236711  3329 cudnn_bn_layer.cpp:30] using cuDNN BN engine
I0612 16:37:38.236726  3329 net.cpp:170] Top shape: 32 160 2 14 14 (2007040)
I0612 16:37:38.236737  3329 layer_factory.hpp:74] Creating layer inception_4c/relu_3x3
I0612 16:37:38.236742  3329 net.cpp:99] Creating Layer inception_4c/relu_3x3
I0612 16:37:38.236747  3329 net.cpp:480] inception_4c/relu_3x3 <- inception_4c/3x3_bn
I0612 16:37:38.236750  3329 net.cpp:130] This layer is inheriting previous layer's sync mode: 1
I0612 16:37:38.236754  3329 net.cpp:425] inception_4c/relu_3x3 -> inception_4c/3x3_bn (in-place)
I0612 16:37:38.236759  3329 net.cpp:163] Setting up inception_4c/relu_3x3
I0612 16:37:38.240716  3329 net.cpp:170] Top shape: 32 160 2 14 14 (2007040)
I0612 16:37:38.240730  3329 layer_factory.hpp:74] Creating layer inception_4c/double_3x3_reduce_2d
I0612 16:37:38.240739  3329 net.cpp:99] Creating Layer inception_4c/double_3x3_reduce_2d
I0612 16:37:38.240753  3329 net.cpp:480] inception_4c/double_3x3_reduce_2d <- inception_4b/output_inception_4b/output_0_split_2
I0612 16:37:38.240757  3329 net.cpp:130] This layer is inheriting previous layer's sync mode: 1
I0612 16:37:38.240763  3329 net.cpp:436] inception_4c/double_3x3_reduce_2d -> inception_4c/double_3x3_reduce
I0612 16:37:38.240769  3329 net.cpp:163] Setting up inception_4c/double_3x3_reduce_2d
I0612 16:37:38.392635  3329 net.cpp:170] Top shape: 32 128 2 14 14 (1605632)
I0612 16:37:38.392649  3329 layer_factory.hpp:74] Creating layer inception_4c/double_3x3_reduce_bn
I0612 16:37:38.392655  3329 layer_factory.cpp:181] Layer inception_4c/double_3x3_reduce_bn is using CUDNN engine.
I0612 16:37:38.392663  3329 net.cpp:99] Creating Layer inception_4c/double_3x3_reduce_bn
I0612 16:37:38.392666  3329 net.cpp:480] inception_4c/double_3x3_reduce_bn <- inception_4c/double_3x3_reduce
I0612 16:37:38.392670  3329 net.cpp:130] This layer is inheriting previous layer's sync mode: 1
I0612 16:37:38.392675  3329 net.cpp:436] inception_4c/double_3x3_reduce_bn -> inception_4c/double_3x3_reduce_bn
I0612 16:37:38.392681  3329 net.cpp:163] Setting up inception_4c/double_3x3_reduce_bn
I0612 16:37:38.394982  3329 cudnn_bn_layer.cpp:30] using cuDNN BN engine
I0612 16:37:38.394999  3329 net.cpp:170] Top shape: 32 128 2 14 14 (1605632)
I0612 16:37:38.395007  3329 layer_factory.hpp:74] Creating layer inception_4c/relu_double_3x3_reduce
I0612 16:37:38.395014  3329 net.cpp:99] Creating Layer inception_4c/relu_double_3x3_reduce
I0612 16:37:38.395016  3329 net.cpp:480] inception_4c/relu_double_3x3_reduce <- inception_4c/double_3x3_reduce_bn
I0612 16:37:38.395020  3329 net.cpp:130] This layer is inheriting previous layer's sync mode: 1
I0612 16:37:38.395025  3329 net.cpp:425] inception_4c/relu_double_3x3_reduce -> inception_4c/double_3x3_reduce_bn (in-place)
I0612 16:37:38.395030  3329 net.cpp:163] Setting up inception_4c/relu_double_3x3_reduce
I0612 16:37:38.395195  3329 net.cpp:170] Top shape: 32 128 2 14 14 (1605632)
I0612 16:37:38.395200  3329 layer_factory.hpp:74] Creating layer inception_4c/double_3x3_1_2d
I0612 16:37:38.395210  3329 net.cpp:99] Creating Layer inception_4c/double_3x3_1_2d
I0612 16:37:38.395212  3329 net.cpp:480] inception_4c/double_3x3_1_2d <- inception_4c/double_3x3_reduce_bn
I0612 16:37:38.395216  3329 net.cpp:130] This layer is inheriting previous layer's sync mode: 1
I0612 16:37:38.395222  3329 net.cpp:436] inception_4c/double_3x3_1_2d -> inception_4c/double_3x3_1
I0612 16:37:38.395239  3329 net.cpp:163] Setting up inception_4c/double_3x3_1_2d
I0612 16:37:38.496546  3329 net.cpp:170] Top shape: 32 160 2 14 14 (2007040)
I0612 16:37:38.496559  3329 layer_factory.hpp:74] Creating layer inception_4c/double_3x3_1_bn
I0612 16:37:38.496564  3329 layer_factory.cpp:181] Layer inception_4c/double_3x3_1_bn is using CUDNN engine.
I0612 16:37:38.496570  3329 net.cpp:99] Creating Layer inception_4c/double_3x3_1_bn
I0612 16:37:38.496574  3329 net.cpp:480] inception_4c/double_3x3_1_bn <- inception_4c/double_3x3_1
I0612 16:37:38.496578  3329 net.cpp:130] This layer is inheriting previous layer's sync mode: 1
I0612 16:37:38.496582  3329 net.cpp:436] inception_4c/double_3x3_1_bn -> inception_4c/double_3x3_1_bn
I0612 16:37:38.496588  3329 net.cpp:163] Setting up inception_4c/double_3x3_1_bn
I0612 16:37:38.497364  3329 cudnn_bn_layer.cpp:30] using cuDNN BN engine
I0612 16:37:38.497377  3329 net.cpp:170] Top shape: 32 160 2 14 14 (2007040)
I0612 16:37:38.497385  3329 layer_factory.hpp:74] Creating layer inception_4c/relu_double_3x3_1
I0612 16:37:38.497392  3329 net.cpp:99] Creating Layer inception_4c/relu_double_3x3_1
I0612 16:37:38.497395  3329 net.cpp:480] inception_4c/relu_double_3x3_1 <- inception_4c/double_3x3_1_bn
I0612 16:37:38.497400  3329 net.cpp:130] This layer is inheriting previous layer's sync mode: 1
I0612 16:37:38.497402  3329 net.cpp:425] inception_4c/relu_double_3x3_1 -> inception_4c/double_3x3_1_bn (in-place)
I0612 16:37:38.497407  3329 net.cpp:163] Setting up inception_4c/relu_double_3x3_1
I0612 16:37:38.497575  3329 net.cpp:170] Top shape: 32 160 2 14 14 (2007040)
I0612 16:37:38.497581  3329 layer_factory.hpp:74] Creating layer inception_4c/double_3x3_2_2d
I0612 16:37:38.497591  3329 net.cpp:99] Creating Layer inception_4c/double_3x3_2_2d
I0612 16:37:38.497594  3329 net.cpp:480] inception_4c/double_3x3_2_2d <- inception_4c/double_3x3_1_bn
I0612 16:37:38.497598  3329 net.cpp:130] This layer is inheriting previous layer's sync mode: 1
I0612 16:37:38.497602  3329 net.cpp:436] inception_4c/double_3x3_2_2d -> inception_4c/double_3x3_2
I0612 16:37:38.497608  3329 net.cpp:163] Setting up inception_4c/double_3x3_2_2d
I0612 16:37:38.606695  3329 net.cpp:170] Top shape: 32 160 2 14 14 (2007040)
I0612 16:37:38.606712  3329 layer_factory.hpp:74] Creating layer inception_4c/double_3x3_2_bn
I0612 16:37:38.606719  3329 layer_factory.cpp:181] Layer inception_4c/double_3x3_2_bn is using CUDNN engine.
I0612 16:37:38.606725  3329 net.cpp:99] Creating Layer inception_4c/double_3x3_2_bn
I0612 16:37:38.606729  3329 net.cpp:480] inception_4c/double_3x3_2_bn <- inception_4c/double_3x3_2
I0612 16:37:38.606734  3329 net.cpp:130] This layer is inheriting previous layer's sync mode: 1
I0612 16:37:38.606739  3329 net.cpp:436] inception_4c/double_3x3_2_bn -> inception_4c/double_3x3_2_bn
I0612 16:37:38.606755  3329 net.cpp:163] Setting up inception_4c/double_3x3_2_bn
I0612 16:37:38.610189  3329 cudnn_bn_layer.cpp:30] using cuDNN BN engine
I0612 16:37:38.610206  3329 net.cpp:170] Top shape: 32 160 2 14 14 (2007040)
I0612 16:37:38.610214  3329 layer_factory.hpp:74] Creating layer inception_4c/relu_double_3x3_2
I0612 16:37:38.610220  3329 net.cpp:99] Creating Layer inception_4c/relu_double_3x3_2
I0612 16:37:38.610224  3329 net.cpp:480] inception_4c/relu_double_3x3_2 <- inception_4c/double_3x3_2_bn
I0612 16:37:38.610229  3329 net.cpp:130] This layer is inheriting previous layer's sync mode: 1
I0612 16:37:38.610232  3329 net.cpp:425] inception_4c/relu_double_3x3_2 -> inception_4c/double_3x3_2_bn (in-place)
I0612 16:37:38.610237  3329 net.cpp:163] Setting up inception_4c/relu_double_3x3_2
I0612 16:37:38.610405  3329 net.cpp:170] Top shape: 32 160 2 14 14 (2007040)
I0612 16:37:38.610412  3329 layer_factory.hpp:74] Creating layer inception_4c/pool_2d
I0612 16:37:38.610420  3329 net.cpp:99] Creating Layer inception_4c/pool_2d
I0612 16:37:38.610424  3329 net.cpp:480] inception_4c/pool_2d <- inception_4b/output_inception_4b/output_0_split_3
I0612 16:37:38.610427  3329 net.cpp:130] This layer is inheriting previous layer's sync mode: 1
I0612 16:37:38.610442  3329 net.cpp:436] inception_4c/pool_2d -> inception_4c/pool
I0612 16:37:38.610448  3329 net.cpp:163] Setting up inception_4c/pool_2d
I0612 16:37:38.616228  3329 net.cpp:170] Top shape: 32 576 2 14 14 (7225344)
I0612 16:37:38.616240  3329 layer_factory.hpp:74] Creating layer inception_4c/pool_proj_2d
I0612 16:37:38.616251  3329 net.cpp:99] Creating Layer inception_4c/pool_proj_2d
I0612 16:37:38.616255  3329 net.cpp:480] inception_4c/pool_proj_2d <- inception_4c/pool
I0612 16:37:38.616259  3329 net.cpp:130] This layer is inheriting previous layer's sync mode: 1
I0612 16:37:38.616266  3329 net.cpp:436] inception_4c/pool_proj_2d -> inception_4c/pool_proj
I0612 16:37:38.616272  3329 net.cpp:163] Setting up inception_4c/pool_proj_2d
I0612 16:37:38.769649  3329 net.cpp:170] Top shape: 32 128 2 14 14 (1605632)
I0612 16:37:38.769664  3329 layer_factory.hpp:74] Creating layer inception_4c/pool_proj_bn
I0612 16:37:38.769667  3329 layer_factory.cpp:181] Layer inception_4c/pool_proj_bn is using CUDNN engine.
I0612 16:37:38.769675  3329 net.cpp:99] Creating Layer inception_4c/pool_proj_bn
I0612 16:37:38.769677  3329 net.cpp:480] inception_4c/pool_proj_bn <- inception_4c/pool_proj
I0612 16:37:38.769681  3329 net.cpp:130] This layer is inheriting previous layer's sync mode: 1
I0612 16:37:38.769686  3329 net.cpp:436] inception_4c/pool_proj_bn -> inception_4c/pool_proj_bn
I0612 16:37:38.769692  3329 net.cpp:163] Setting up inception_4c/pool_proj_bn
I0612 16:37:38.772907  3329 cudnn_bn_layer.cpp:30] using cuDNN BN engine
I0612 16:37:38.772924  3329 net.cpp:170] Top shape: 32 128 2 14 14 (1605632)
I0612 16:37:38.773020  3329 layer_factory.hpp:74] Creating layer inception_4c/relu_pool_proj
I0612 16:37:38.773027  3329 net.cpp:99] Creating Layer inception_4c/relu_pool_proj
I0612 16:37:38.773031  3329 net.cpp:480] inception_4c/relu_pool_proj <- inception_4c/pool_proj_bn
I0612 16:37:38.773036  3329 net.cpp:130] This layer is inheriting previous layer's sync mode: 1
I0612 16:37:38.773038  3329 net.cpp:425] inception_4c/relu_pool_proj -> inception_4c/pool_proj_bn (in-place)
I0612 16:37:38.773043  3329 net.cpp:163] Setting up inception_4c/relu_pool_proj
I0612 16:37:38.787307  3329 net.cpp:170] Top shape: 32 128 2 14 14 (1605632)
I0612 16:37:38.787338  3329 layer_factory.hpp:74] Creating layer inception_4c/output
I0612 16:37:38.787356  3329 net.cpp:99] Creating Layer inception_4c/output
I0612 16:37:38.787365  3329 net.cpp:480] inception_4c/output <- inception_4c/1x1_bn
I0612 16:37:38.787377  3329 net.cpp:480] inception_4c/output <- inception_4c/3x3_bn
I0612 16:37:38.787416  3329 net.cpp:480] inception_4c/output <- inception_4c/double_3x3_2_bn
I0612 16:37:38.787420  3329 net.cpp:480] inception_4c/output <- inception_4c/pool_proj_bn
I0612 16:37:38.787423  3329 net.cpp:130] This layer is inheriting previous layer's sync mode: 1
I0612 16:37:38.787427  3329 net.cpp:436] inception_4c/output -> inception_4c/output
I0612 16:37:38.787433  3329 net.cpp:163] Setting up inception_4c/output
I0612 16:37:38.787439  3329 net.cpp:170] Top shape: 32 608 2 14 14 (7626752)
I0612 16:37:38.787446  3329 layer_factory.hpp:74] Creating layer inception_4c/output_inception_4c/output_0_split
I0612 16:37:38.787451  3329 net.cpp:99] Creating Layer inception_4c/output_inception_4c/output_0_split
I0612 16:37:38.787454  3329 net.cpp:480] inception_4c/output_inception_4c/output_0_split <- inception_4c/output
I0612 16:37:38.787458  3329 net.cpp:130] This layer is inheriting previous layer's sync mode: 1
I0612 16:37:38.787463  3329 net.cpp:436] inception_4c/output_inception_4c/output_0_split -> inception_4c/output_inception_4c/output_0_split_0
I0612 16:37:38.787468  3329 net.cpp:436] inception_4c/output_inception_4c/output_0_split -> inception_4c/output_inception_4c/output_0_split_1
I0612 16:37:38.787493  3329 net.cpp:436] inception_4c/output_inception_4c/output_0_split -> inception_4c/output_inception_4c/output_0_split_2
I0612 16:37:38.787499  3329 net.cpp:436] inception_4c/output_inception_4c/output_0_split -> inception_4c/output_inception_4c/output_0_split_3
I0612 16:37:38.787513  3329 net.cpp:163] Setting up inception_4c/output_inception_4c/output_0_split
I0612 16:37:38.787520  3329 net.cpp:170] Top shape: 32 608 2 14 14 (7626752)
I0612 16:37:38.787524  3329 net.cpp:170] Top shape: 32 608 2 14 14 (7626752)
I0612 16:37:38.787528  3329 net.cpp:170] Top shape: 32 608 2 14 14 (7626752)
I0612 16:37:38.787530  3329 net.cpp:170] Top shape: 32 608 2 14 14 (7626752)
I0612 16:37:38.787545  3329 layer_factory.hpp:74] Creating layer inception_4d/1x1_2d
I0612 16:37:38.787554  3329 net.cpp:99] Creating Layer inception_4d/1x1_2d
I0612 16:37:38.787556  3329 net.cpp:480] inception_4d/1x1_2d <- inception_4c/output_inception_4c/output_0_split_0
I0612 16:37:38.787559  3329 net.cpp:130] This layer is inheriting previous layer's sync mode: 1
I0612 16:37:38.787564  3329 net.cpp:436] inception_4d/1x1_2d -> inception_4d/1x1
I0612 16:37:38.787569  3329 net.cpp:163] Setting up inception_4d/1x1_2d
I0612 16:37:38.922619  3329 net.cpp:170] Top shape: 32 96 2 14 14 (1204224)
I0612 16:37:38.922633  3329 layer_factory.hpp:74] Creating layer inception_4d/1x1_bn
I0612 16:37:38.922638  3329 layer_factory.cpp:181] Layer inception_4d/1x1_bn is using CUDNN engine.
I0612 16:37:38.922644  3329 net.cpp:99] Creating Layer inception_4d/1x1_bn
I0612 16:37:38.922648  3329 net.cpp:480] inception_4d/1x1_bn <- inception_4d/1x1
I0612 16:37:38.922652  3329 net.cpp:130] This layer is inheriting previous layer's sync mode: 1
I0612 16:37:38.922657  3329 net.cpp:436] inception_4d/1x1_bn -> inception_4d/1x1_bn
I0612 16:37:38.922662  3329 net.cpp:163] Setting up inception_4d/1x1_bn
I0612 16:37:38.924892  3329 cudnn_bn_layer.cpp:30] using cuDNN BN engine
I0612 16:37:38.924908  3329 net.cpp:170] Top shape: 32 96 2 14 14 (1204224)
I0612 16:37:38.924918  3329 layer_factory.hpp:74] Creating layer inception_4d/relu_1x1
I0612 16:37:38.924924  3329 net.cpp:99] Creating Layer inception_4d/relu_1x1
I0612 16:37:38.924927  3329 net.cpp:480] inception_4d/relu_1x1 <- inception_4d/1x1_bn
I0612 16:37:38.924932  3329 net.cpp:130] This layer is inheriting previous layer's sync mode: 1
I0612 16:37:38.924934  3329 net.cpp:425] inception_4d/relu_1x1 -> inception_4d/1x1_bn (in-place)
I0612 16:37:38.924939  3329 net.cpp:163] Setting up inception_4d/relu_1x1
I0612 16:37:38.925098  3329 net.cpp:170] Top shape: 32 96 2 14 14 (1204224)
I0612 16:37:38.925106  3329 layer_factory.hpp:74] Creating layer inception_4d/3x3_reduce_2d
I0612 16:37:38.925112  3329 net.cpp:99] Creating Layer inception_4d/3x3_reduce_2d
I0612 16:37:38.925115  3329 net.cpp:480] inception_4d/3x3_reduce_2d <- inception_4c/output_inception_4c/output_0_split_1
I0612 16:37:38.925119  3329 net.cpp:130] This layer is inheriting previous layer's sync mode: 1
I0612 16:37:38.925125  3329 net.cpp:436] inception_4d/3x3_reduce_2d -> inception_4d/3x3_reduce
I0612 16:37:38.925130  3329 net.cpp:163] Setting up inception_4d/3x3_reduce_2d
I0612 16:37:39.064653  3329 net.cpp:170] Top shape: 32 128 2 14 14 (1605632)
I0612 16:37:39.064666  3329 layer_factory.hpp:74] Creating layer inception_4d/3x3_reduce_bn
I0612 16:37:39.064671  3329 layer_factory.cpp:181] Layer inception_4d/3x3_reduce_bn is using CUDNN engine.
I0612 16:37:39.064683  3329 net.cpp:99] Creating Layer inception_4d/3x3_reduce_bn
I0612 16:37:39.064687  3329 net.cpp:480] inception_4d/3x3_reduce_bn <- inception_4d/3x3_reduce
I0612 16:37:39.064692  3329 net.cpp:130] This layer is inheriting previous layer's sync mode: 1
I0612 16:37:39.064695  3329 net.cpp:436] inception_4d/3x3_reduce_bn -> inception_4d/3x3_reduce_bn
I0612 16:37:39.064702  3329 net.cpp:163] Setting up inception_4d/3x3_reduce_bn
I0612 16:37:39.069753  3329 cudnn_bn_layer.cpp:30] using cuDNN BN engine
I0612 16:37:39.069769  3329 net.cpp:170] Top shape: 32 128 2 14 14 (1605632)
I0612 16:37:39.069777  3329 layer_factory.hpp:74] Creating layer inception_4d/relu_3x3_reduce
I0612 16:37:39.069783  3329 net.cpp:99] Creating Layer inception_4d/relu_3x3_reduce
I0612 16:37:39.069787  3329 net.cpp:480] inception_4d/relu_3x3_reduce <- inception_4d/3x3_reduce_bn
I0612 16:37:39.069792  3329 net.cpp:130] This layer is inheriting previous layer's sync mode: 1
I0612 16:37:39.069805  3329 net.cpp:425] inception_4d/relu_3x3_reduce -> inception_4d/3x3_reduce_bn (in-place)
I0612 16:37:39.069811  3329 net.cpp:163] Setting up inception_4d/relu_3x3_reduce
I0612 16:37:39.069972  3329 net.cpp:170] Top shape: 32 128 2 14 14 (1605632)
I0612 16:37:39.069978  3329 layer_factory.hpp:74] Creating layer inception_4d/3x3_2d
I0612 16:37:39.069986  3329 net.cpp:99] Creating Layer inception_4d/3x3_2d
I0612 16:37:39.069990  3329 net.cpp:480] inception_4d/3x3_2d <- inception_4d/3x3_reduce_bn
I0612 16:37:39.069994  3329 net.cpp:130] This layer is inheriting previous layer's sync mode: 1
I0612 16:37:39.069999  3329 net.cpp:436] inception_4d/3x3_2d -> inception_4d/3x3
I0612 16:37:39.070005  3329 net.cpp:163] Setting up inception_4d/3x3_2d
I0612 16:37:39.176057  3329 net.cpp:170] Top shape: 32 192 2 14 14 (2408448)
I0612 16:37:39.176093  3329 layer_factory.hpp:74] Creating layer inception_4d/3x3_bn
I0612 16:37:39.176106  3329 layer_factory.cpp:181] Layer inception_4d/3x3_bn is using CUDNN engine.
I0612 16:37:39.176120  3329 net.cpp:99] Creating Layer inception_4d/3x3_bn
I0612 16:37:39.176131  3329 net.cpp:480] inception_4d/3x3_bn <- inception_4d/3x3
I0612 16:37:39.176141  3329 net.cpp:130] This layer is inheriting previous layer's sync mode: 1
I0612 16:37:39.176154  3329 net.cpp:436] inception_4d/3x3_bn -> inception_4d/3x3_bn
I0612 16:37:39.176172  3329 net.cpp:163] Setting up inception_4d/3x3_bn
I0612 16:37:39.182497  3329 cudnn_bn_layer.cpp:30] using cuDNN BN engine
I0612 16:37:39.182513  3329 net.cpp:170] Top shape: 32 192 2 14 14 (2408448)
I0612 16:37:39.182521  3329 layer_factory.hpp:74] Creating layer inception_4d/relu_3x3
I0612 16:37:39.182528  3329 net.cpp:99] Creating Layer inception_4d/relu_3x3
I0612 16:37:39.182531  3329 net.cpp:480] inception_4d/relu_3x3 <- inception_4d/3x3_bn
I0612 16:37:39.182534  3329 net.cpp:130] This layer is inheriting previous layer's sync mode: 1
I0612 16:37:39.182538  3329 net.cpp:425] inception_4d/relu_3x3 -> inception_4d/3x3_bn (in-place)
I0612 16:37:39.182543  3329 net.cpp:163] Setting up inception_4d/relu_3x3
I0612 16:37:39.182790  3329 net.cpp:170] Top shape: 32 192 2 14 14 (2408448)
I0612 16:37:39.182797  3329 layer_factory.hpp:74] Creating layer inception_4d/double_3x3_reduce_2d
I0612 16:37:39.182806  3329 net.cpp:99] Creating Layer inception_4d/double_3x3_reduce_2d
I0612 16:37:39.182811  3329 net.cpp:480] inception_4d/double_3x3_reduce_2d <- inception_4c/output_inception_4c/output_0_split_2
I0612 16:37:39.182814  3329 net.cpp:130] This layer is inheriting previous layer's sync mode: 1
I0612 16:37:39.182818  3329 net.cpp:436] inception_4d/double_3x3_reduce_2d -> inception_4d/double_3x3_reduce
I0612 16:37:39.182824  3329 net.cpp:163] Setting up inception_4d/double_3x3_reduce_2d
I0612 16:37:39.349334  3329 net.cpp:170] Top shape: 32 160 2 14 14 (2007040)
I0612 16:37:39.349372  3329 layer_factory.hpp:74] Creating layer inception_4d/double_3x3_reduce_bn
I0612 16:37:39.349377  3329 layer_factory.cpp:181] Layer inception_4d/double_3x3_reduce_bn is using CUDNN engine.
I0612 16:37:39.349383  3329 net.cpp:99] Creating Layer inception_4d/double_3x3_reduce_bn
I0612 16:37:39.349387  3329 net.cpp:480] inception_4d/double_3x3_reduce_bn <- inception_4d/double_3x3_reduce
I0612 16:37:39.349391  3329 net.cpp:130] This layer is inheriting previous layer's sync mode: 1
I0612 16:37:39.349395  3329 net.cpp:436] inception_4d/double_3x3_reduce_bn -> inception_4d/double_3x3_reduce_bn
I0612 16:37:39.349413  3329 net.cpp:163] Setting up inception_4d/double_3x3_reduce_bn
I0612 16:37:39.349607  3329 cudnn_bn_layer.cpp:30] using cuDNN BN engine
I0612 16:37:39.349619  3329 net.cpp:170] Top shape: 32 160 2 14 14 (2007040)
I0612 16:37:39.349627  3329 layer_factory.hpp:74] Creating layer inception_4d/relu_double_3x3_reduce
I0612 16:37:39.349632  3329 net.cpp:99] Creating Layer inception_4d/relu_double_3x3_reduce
I0612 16:37:39.349635  3329 net.cpp:480] inception_4d/relu_double_3x3_reduce <- inception_4d/double_3x3_reduce_bn
I0612 16:37:39.349649  3329 net.cpp:130] This layer is inheriting previous layer's sync mode: 1
I0612 16:37:39.349653  3329 net.cpp:425] inception_4d/relu_double_3x3_reduce -> inception_4d/double_3x3_reduce_bn (in-place)
I0612 16:37:39.349658  3329 net.cpp:163] Setting up inception_4d/relu_double_3x3_reduce
I0612 16:37:39.354082  3329 net.cpp:170] Top shape: 32 160 2 14 14 (2007040)
I0612 16:37:39.354094  3329 layer_factory.hpp:74] Creating layer inception_4d/double_3x3_1_2d
I0612 16:37:39.354105  3329 net.cpp:99] Creating Layer inception_4d/double_3x3_1_2d
I0612 16:37:39.354110  3329 net.cpp:480] inception_4d/double_3x3_1_2d <- inception_4d/double_3x3_reduce_bn
I0612 16:37:39.354113  3329 net.cpp:130] This layer is inheriting previous layer's sync mode: 1
I0612 16:37:39.354118  3329 net.cpp:436] inception_4d/double_3x3_1_2d -> inception_4d/double_3x3_1
I0612 16:37:39.354125  3329 net.cpp:163] Setting up inception_4d/double_3x3_1_2d
I0612 16:37:39.460608  3329 net.cpp:170] Top shape: 32 192 2 14 14 (2408448)
I0612 16:37:39.460626  3329 layer_factory.hpp:74] Creating layer inception_4d/double_3x3_1_bn
I0612 16:37:39.460633  3329 layer_factory.cpp:181] Layer inception_4d/double_3x3_1_bn is using CUDNN engine.
I0612 16:37:39.460640  3329 net.cpp:99] Creating Layer inception_4d/double_3x3_1_bn
I0612 16:37:39.460650  3329 net.cpp:480] inception_4d/double_3x3_1_bn <- inception_4d/double_3x3_1
I0612 16:37:39.460669  3329 net.cpp:130] This layer is inheriting previous layer's sync mode: 1
I0612 16:37:39.460674  3329 net.cpp:436] inception_4d/double_3x3_1_bn -> inception_4d/double_3x3_1_bn
I0612 16:37:39.460680  3329 net.cpp:163] Setting up inception_4d/double_3x3_1_bn
I0612 16:37:39.460903  3329 cudnn_bn_layer.cpp:30] using cuDNN BN engine
I0612 16:37:39.460916  3329 net.cpp:170] Top shape: 32 192 2 14 14 (2408448)
I0612 16:37:39.460924  3329 layer_factory.hpp:74] Creating layer inception_4d/relu_double_3x3_1
I0612 16:37:39.460942  3329 net.cpp:99] Creating Layer inception_4d/relu_double_3x3_1
I0612 16:37:39.460947  3329 net.cpp:480] inception_4d/relu_double_3x3_1 <- inception_4d/double_3x3_1_bn
I0612 16:37:39.460952  3329 net.cpp:130] This layer is inheriting previous layer's sync mode: 1
I0612 16:37:39.460965  3329 net.cpp:425] inception_4d/relu_double_3x3_1 -> inception_4d/double_3x3_1_bn (in-place)
I0612 16:37:39.460970  3329 net.cpp:163] Setting up inception_4d/relu_double_3x3_1
I0612 16:37:39.468027  3329 net.cpp:170] Top shape: 32 192 2 14 14 (2408448)
I0612 16:37:39.468039  3329 layer_factory.hpp:74] Creating layer inception_4d/double_3x3_2_2d
I0612 16:37:39.468050  3329 net.cpp:99] Creating Layer inception_4d/double_3x3_2_2d
I0612 16:37:39.468055  3329 net.cpp:480] inception_4d/double_3x3_2_2d <- inception_4d/double_3x3_1_bn
I0612 16:37:39.468058  3329 net.cpp:130] This layer is inheriting previous layer's sync mode: 1
I0612 16:37:39.468063  3329 net.cpp:436] inception_4d/double_3x3_2_2d -> inception_4d/double_3x3_2
I0612 16:37:39.468070  3329 net.cpp:163] Setting up inception_4d/double_3x3_2_2d
I0612 16:37:39.597975  3329 net.cpp:170] Top shape: 32 192 2 14 14 (2408448)
I0612 16:37:39.597990  3329 layer_factory.hpp:74] Creating layer inception_4d/double_3x3_2_bn
I0612 16:37:39.597993  3329 layer_factory.cpp:181] Layer inception_4d/double_3x3_2_bn is using CUDNN engine.
I0612 16:37:39.598000  3329 net.cpp:99] Creating Layer inception_4d/double_3x3_2_bn
I0612 16:37:39.598003  3329 net.cpp:480] inception_4d/double_3x3_2_bn <- inception_4d/double_3x3_2
I0612 16:37:39.598007  3329 net.cpp:130] This layer is inheriting previous layer's sync mode: 1
I0612 16:37:39.598012  3329 net.cpp:436] inception_4d/double_3x3_2_bn -> inception_4d/double_3x3_2_bn
I0612 16:37:39.598019  3329 net.cpp:163] Setting up inception_4d/double_3x3_2_bn
…
I0612 16:37:58.449239  3329 layer_factory.cpp:181] Layer inception_4e/3x3_reduce_bn is using CUDNN engine.
I0612 16:37:58.449245  3329 net.cpp:99] Creating Layer inception_4e/3x3_reduce_bn
I0612 16:37:58.449249  3329 net.cpp:480] inception_4e/3x3_reduce_bn <- inception_4e/3x3_reduce
I0612 16:37:58.449254  3329 net.cpp:130] This layer is inheriting previous layer's sync mode: 1
I0612 16:37:58.449259  3329 net.cpp:436] inception_4e/3x3_reduce_bn -> inception_4e/3x3_reduce_bn
I0612 16:37:58.449265  3329 net.cpp:163] Setting up inception_4e/3x3_reduce_bn
I0612 16:37:58.449487  3329 cudnn_bn_layer.cpp:30] using cuDNN BN engine
I0612 16:37:58.449499  3329 net.cpp:170] Top shape: 2 128 2 14 14 (100352)
I0612 16:37:58.449507  3329 layer_factory.hpp:74] Creating layer inception_4e/relu_3x3_reduce
I0612 16:37:58.449513  3329 net.cpp:99] Creating Layer inception_4e/relu_3x3_reduce
I0612 16:37:58.449517  3329 net.cpp:480] inception_4e/relu_3x3_reduce <- inception_4e/3x3_reduce_bn
I0612 16:37:58.449523  3329 net.cpp:130] This layer is inheriting previous layer's sync mode: 1
I0612 16:37:58.449527  3329 net.cpp:425] inception_4e/relu_3x3_reduce -> inception_4e/3x3_reduce_bn (in-place)
I0612 16:37:58.449532  3329 net.cpp:163] Setting up inception_4e/relu_3x3_reduce
I0612 16:37:58.450361  3329 net.cpp:170] Top shape: 2 128 2 14 14 (100352)
I0612 16:37:58.450371  3329 layer_factory.hpp:74] Creating layer inception_4e/3x3_2d
I0612 16:37:58.450381  3329 net.cpp:99] Creating Layer inception_4e/3x3_2d
I0612 16:37:58.450386  3329 net.cpp:480] inception_4e/3x3_2d <- inception_4e/3x3_reduce_bn
I0612 16:37:58.450389  3329 net.cpp:130] This layer is inheriting previous layer's sync mode: 1
I0612 16:37:58.450395  3329 net.cpp:436] inception_4e/3x3_2d -> inception_4e/3x3
I0612 16:37:58.450402  3329 net.cpp:163] Setting up inception_4e/3x3_2d
I0612 16:37:58.460259  3329 net.cpp:170] Top shape: 2 192 2 7 7 (37632)
I0612 16:37:58.460284  3329 layer_factory.hpp:74] Creating layer inception_4e/3x3_bn
I0612 16:37:58.460289  3329 layer_factory.cpp:181] Layer inception_4e/3x3_bn is using CUDNN engine.
I0612 16:37:58.460294  3329 net.cpp:99] Creating Layer inception_4e/3x3_bn
I0612 16:37:58.460299  3329 net.cpp:480] inception_4e/3x3_bn <- inception_4e/3x3
I0612 16:37:58.460304  3329 net.cpp:130] This layer is inheriting previous layer's sync mode: 1
I0612 16:37:58.460309  3329 net.cpp:436] inception_4e/3x3_bn -> inception_4e/3x3_bn
I0612 16:37:58.460315  3329 net.cpp:163] Setting up inception_4e/3x3_bn
I0612 16:37:58.460537  3329 cudnn_bn_layer.cpp:30] using cuDNN BN engine
I0612 16:37:58.460548  3329 net.cpp:170] Top shape: 2 192 2 7 7 (37632)
I0612 16:37:58.460556  3329 layer_factory.hpp:74] Creating layer inception_4e/relu_3x3
I0612 16:37:58.460563  3329 net.cpp:99] Creating Layer inception_4e/relu_3x3
I0612 16:37:58.460567  3329 net.cpp:480] inception_4e/relu_3x3 <- inception_4e/3x3_bn
I0612 16:37:58.460572  3329 net.cpp:130] This layer is inheriting previous layer's sync mode: 1
I0612 16:37:58.460587  3329 net.cpp:425] inception_4e/relu_3x3 -> inception_4e/3x3_bn (in-place)
I0612 16:37:58.460592  3329 net.cpp:163] Setting up inception_4e/relu_3x3
I0612 16:37:58.461470  3329 net.cpp:170] Top shape: 2 192 2 7 7 (37632)
I0612 16:37:58.461480  3329 layer_factory.hpp:74] Creating layer inception_4e/double_3x3_reduce_2d
I0612 16:37:58.461489  3329 net.cpp:99] Creating Layer inception_4e/double_3x3_reduce_2d
I0612 16:37:58.461493  3329 net.cpp:480] inception_4e/double_3x3_reduce_2d <- inception_4d/output_inception_4d/output_0_split_1
I0612 16:37:58.461498  3329 net.cpp:130] This layer is inheriting previous layer's sync mode: 1
I0612 16:37:58.461503  3329 net.cpp:436] inception_4e/double_3x3_reduce_2d -> inception_4e/double_3x3_reduce
I0612 16:37:58.461510  3329 net.cpp:163] Setting up inception_4e/double_3x3_reduce_2d
I0612 16:37:58.583112  3329 net.cpp:170] Top shape: 2 192 2 14 14 (150528)
I0612 16:37:58.583125  3329 layer_factory.hpp:74] Creating layer inception_4e/double_3x3_reduce_bn
I0612 16:37:58.583129  3329 layer_factory.cpp:181] Layer inception_4e/double_3x3_reduce_bn is using CUDNN engine.
I0612 16:37:58.583137  3329 net.cpp:99] Creating Layer inception_4e/double_3x3_reduce_bn
I0612 16:37:58.583140  3329 net.cpp:480] inception_4e/double_3x3_reduce_bn <- inception_4e/double_3x3_reduce
I0612 16:37:58.583145  3329 net.cpp:130] This layer is inheriting previous layer's sync mode: 1
I0612 16:37:58.583149  3329 net.cpp:436] inception_4e/double_3x3_reduce_bn -> inception_4e/double_3x3_reduce_bn
I0612 16:37:58.583156  3329 net.cpp:163] Setting up inception_4e/double_3x3_reduce_bn
I0612 16:37:58.583380  3329 cudnn_bn_layer.cpp:30] using cuDNN BN engine
I0612 16:37:58.583400  3329 net.cpp:170] Top shape: 2 192 2 14 14 (150528)
I0612 16:37:58.583408  3329 layer_factory.hpp:74] Creating layer inception_4e/relu_double_3x3_reduce
I0612 16:37:58.583415  3329 net.cpp:99] Creating Layer inception_4e/relu_double_3x3_reduce
I0612 16:37:58.583418  3329 net.cpp:480] inception_4e/relu_double_3x3_reduce <- inception_4e/double_3x3_reduce_bn
I0612 16:37:58.583425  3329 net.cpp:130] This layer is inheriting previous layer's sync mode: 1
I0612 16:37:58.583427  3329 net.cpp:425] inception_4e/relu_double_3x3_reduce -> inception_4e/double_3x3_reduce_bn (in-place)
I0612 16:37:58.583432  3329 net.cpp:163] Setting up inception_4e/relu_double_3x3_reduce
I0612 16:37:58.584287  3329 net.cpp:170] Top shape: 2 192 2 14 14 (150528)
I0612 16:37:58.584297  3329 layer_factory.hpp:74] Creating layer inception_4e/double_3x3_1_2d
I0612 16:37:58.584306  3329 net.cpp:99] Creating Layer inception_4e/double_3x3_1_2d
I0612 16:37:58.584311  3329 net.cpp:480] inception_4e/double_3x3_1_2d <- inception_4e/double_3x3_reduce_bn
I0612 16:37:58.584316  3329 net.cpp:130] This layer is inheriting previous layer's sync mode: 1
I0612 16:37:58.584321  3329 net.cpp:436] inception_4e/double_3x3_1_2d -> inception_4e/double_3x3_1
I0612 16:37:58.584327  3329 net.cpp:163] Setting up inception_4e/double_3x3_1_2d
I0612 16:37:58.648382  3329 net.cpp:170] Top shape: 2 256 2 14 14 (200704)
I0612 16:37:58.648396  3329 layer_factory.hpp:74] Creating layer inception_4e/double_3x3_1_bn
I0612 16:37:58.648401  3329 layer_factory.cpp:181] Layer inception_4e/double_3x3_1_bn is using CUDNN engine.
I0612 16:37:58.648407  3329 net.cpp:99] Creating Layer inception_4e/double_3x3_1_bn
I0612 16:37:58.648411  3329 net.cpp:480] inception_4e/double_3x3_1_bn <- inception_4e/double_3x3_1
I0612 16:37:58.648416  3329 net.cpp:130] This layer is inheriting previous layer's sync mode: 1
I0612 16:37:58.648422  3329 net.cpp:436] inception_4e/double_3x3_1_bn -> inception_4e/double_3x3_1_bn
I0612 16:37:58.648427  3329 net.cpp:163] Setting up inception_4e/double_3x3_1_bn
I0612 16:37:58.649277  3329 cudnn_bn_layer.cpp:30] using cuDNN BN engine
I0612 16:37:58.649291  3329 net.cpp:170] Top shape: 2 256 2 14 14 (200704)
I0612 16:37:58.649300  3329 layer_factory.hpp:74] Creating layer inception_4e/relu_double_3x3_1
I0612 16:37:58.649307  3329 net.cpp:99] Creating Layer inception_4e/relu_double_3x3_1
I0612 16:37:58.649322  3329 net.cpp:480] inception_4e/relu_double_3x3_1 <- inception_4e/double_3x3_1_bn
I0612 16:37:58.649327  3329 net.cpp:130] This layer is inheriting previous layer's sync mode: 1
I0612 16:37:58.649330  3329 net.cpp:425] inception_4e/relu_double_3x3_1 -> inception_4e/double_3x3_1_bn (in-place)
I0612 16:37:58.649335  3329 net.cpp:163] Setting up inception_4e/relu_double_3x3_1
I0612 16:37:58.649538  3329 net.cpp:170] Top shape: 2 256 2 14 14 (200704)
I0612 16:37:58.649544  3329 layer_factory.hpp:74] Creating layer inception_4e/double_3x3_2_2d
I0612 16:37:58.649554  3329 net.cpp:99] Creating Layer inception_4e/double_3x3_2_2d
I0612 16:37:58.649557  3329 net.cpp:480] inception_4e/double_3x3_2_2d <- inception_4e/double_3x3_1_bn
I0612 16:37:58.649561  3329 net.cpp:130] This layer is inheriting previous layer's sync mode: 1
I0612 16:37:58.649566  3329 net.cpp:436] inception_4e/double_3x3_2_2d -> inception_4e/double_3x3_2
I0612 16:37:58.649574  3329 net.cpp:163] Setting up inception_4e/double_3x3_2_2d
I0612 16:37:58.663069  3329 net.cpp:170] Top shape: 2 256 2 7 7 (50176)
I0612 16:37:58.663082  3329 layer_factory.hpp:74] Creating layer inception_4e/double_3x3_2_bn
I0612 16:37:58.663086  3329 layer_factory.cpp:181] Layer inception_4e/double_3x3_2_bn is using CUDNN engine.
I0612 16:37:58.663094  3329 net.cpp:99] Creating Layer inception_4e/double_3x3_2_bn
I0612 16:37:58.663099  3329 net.cpp:480] inception_4e/double_3x3_2_bn <- inception_4e/double_3x3_2
I0612 16:37:58.663102  3329 net.cpp:130] This layer is inheriting previous layer's sync mode: 1
I0612 16:37:58.663107  3329 net.cpp:436] inception_4e/double_3x3_2_bn -> inception_4e/double_3x3_2_bn
I0612 16:37:58.663115  3329 net.cpp:163] Setting up inception_4e/double_3x3_2_bn
I0612 16:37:58.664301  3329 cudnn_bn_layer.cpp:30] using cuDNN BN engine
I0612 16:37:58.664316  3329 net.cpp:170] Top shape: 2 256 2 7 7 (50176)
I0612 16:37:58.664326  3329 layer_factory.hpp:74] Creating layer inception_4e/relu_double_3x3_2
I0612 16:37:58.664333  3329 net.cpp:99] Creating Layer inception_4e/relu_double_3x3_2
I0612 16:37:58.664337  3329 net.cpp:480] inception_4e/relu_double_3x3_2 <- inception_4e/double_3x3_2_bn
I0612 16:37:58.664341  3329 net.cpp:130] This layer is inheriting previous layer's sync mode: 1
I0612 16:37:58.664345  3329 net.cpp:425] inception_4e/relu_double_3x3_2 -> inception_4e/double_3x3_2_bn (in-place)
I0612 16:37:58.664352  3329 net.cpp:163] Setting up inception_4e/relu_double_3x3_2
I0612 16:37:58.664554  3329 net.cpp:170] Top shape: 2 256 2 7 7 (50176)
I0612 16:37:58.664563  3329 layer_factory.hpp:74] Creating layer inception_4e/pool_2d
I0612 16:37:58.664571  3329 net.cpp:99] Creating Layer inception_4e/pool_2d
I0612 16:37:58.664574  3329 net.cpp:480] inception_4e/pool_2d <- inception_4d/output_inception_4d/output_0_split_2
I0612 16:37:58.664578  3329 net.cpp:130] This layer is inheriting previous layer's sync mode: 1
I0612 16:37:58.664583  3329 net.cpp:436] inception_4e/pool_2d -> inception_4e/pool
I0612 16:37:58.664589  3329 net.cpp:163] Setting up inception_4e/pool_2d
I0612 16:37:58.665453  3329 net.cpp:170] Top shape: 2 608 2 7 7 (119168)
I0612 16:37:58.665462  3329 layer_factory.hpp:74] Creating layer inception_4e/output
I0612 16:37:58.665470  3329 net.cpp:99] Creating Layer inception_4e/output
I0612 16:37:58.665474  3329 net.cpp:480] inception_4e/output <- inception_4e/3x3_bn
I0612 16:37:58.665478  3329 net.cpp:480] inception_4e/output <- inception_4e/double_3x3_2_bn
I0612 16:37:58.665482  3329 net.cpp:480] inception_4e/output <- inception_4e/pool
I0612 16:37:58.665485  3329 net.cpp:130] This layer is inheriting previous layer's sync mode: 1
I0612 16:37:58.665489  3329 net.cpp:436] inception_4e/output -> inception_4e/output_1
I0612 16:37:58.665494  3329 net.cpp:163] Setting up inception_4e/output
I0612 16:37:58.665500  3329 net.cpp:170] Top shape: 2 1056 2 7 7 (206976)
I0612 16:37:58.665504  3329 layer_factory.hpp:74] Creating layer pool_4e
I0612 16:37:58.665510  3329 net.cpp:99] Creating Layer pool_4e
I0612 16:37:58.665514  3329 net.cpp:480] pool_4e <- inception_4e/output_1
I0612 16:37:58.665527  3329 net.cpp:130] This layer is inheriting previous layer's sync mode: 1
I0612 16:37:58.665532  3329 net.cpp:436] pool_4e -> inception_4e/output
I0612 16:37:58.665536  3329 net.cpp:163] Setting up pool_4e
I0612 16:37:58.665748  3329 net.cpp:170] Top shape: 2 1056 1 7 7 (103488)
I0612 16:37:58.665756  3329 layer_factory.hpp:74] Creating layer inception_4e/output_pool_4e_0_split
I0612 16:37:58.665761  3329 net.cpp:99] Creating Layer inception_4e/output_pool_4e_0_split
I0612 16:37:58.665766  3329 net.cpp:480] inception_4e/output_pool_4e_0_split <- inception_4e/output
I0612 16:37:58.665769  3329 net.cpp:130] This layer is inheriting previous layer's sync mode: 1
I0612 16:37:58.665774  3329 net.cpp:436] inception_4e/output_pool_4e_0_split -> inception_4e/output_pool_4e_0_split_0
I0612 16:37:58.665781  3329 net.cpp:436] inception_4e/output_pool_4e_0_split -> inception_4e/output_pool_4e_0_split_1
I0612 16:37:58.665786  3329 net.cpp:436] inception_4e/output_pool_4e_0_split -> inception_4e/output_pool_4e_0_split_2
I0612 16:37:58.665789  3329 net.cpp:436] inception_4e/output_pool_4e_0_split -> inception_4e/output_pool_4e_0_split_3
I0612 16:37:58.665793  3329 net.cpp:163] Setting up inception_4e/output_pool_4e_0_split
I0612 16:37:58.665801  3329 net.cpp:170] Top shape: 2 1056 1 7 7 (103488)
I0612 16:37:58.665804  3329 net.cpp:170] Top shape: 2 1056 1 7 7 (103488)
I0612 16:37:58.665807  3329 net.cpp:170] Top shape: 2 1056 1 7 7 (103488)
I0612 16:37:58.665810  3329 net.cpp:170] Top shape: 2 1056 1 7 7 (103488)
I0612 16:37:58.665813  3329 layer_factory.hpp:74] Creating layer inception_5a/1x1_2d
I0612 16:37:58.665822  3329 net.cpp:99] Creating Layer inception_5a/1x1_2d
I0612 16:37:58.665824  3329 net.cpp:480] inception_5a/1x1_2d <- inception_4e/output_pool_4e_0_split_0
I0612 16:37:58.665828  3329 net.cpp:130] This layer is inheriting previous layer's sync mode: 1
I0612 16:37:58.665833  3329 net.cpp:436] inception_5a/1x1_2d -> inception_5a/1x1
I0612 16:37:58.665838  3329 net.cpp:163] Setting up inception_5a/1x1_2d
I0612 16:37:58.703268  3329 net.cpp:170] Top shape: 2 352 1 7 7 (34496)
I0612 16:37:58.703281  3329 layer_factory.hpp:74] Creating layer inception_5a/1x1_bn
I0612 16:37:58.703286  3329 layer_factory.cpp:181] Layer inception_5a/1x1_bn is using CUDNN engine.
I0612 16:37:58.703294  3329 net.cpp:99] Creating Layer inception_5a/1x1_bn
I0612 16:37:58.703299  3329 net.cpp:480] inception_5a/1x1_bn <- inception_5a/1x1
I0612 16:37:58.703302  3329 net.cpp:130] This layer is inheriting previous layer's sync mode: 1
I0612 16:37:58.703307  3329 net.cpp:436] inception_5a/1x1_bn -> inception_5a/1x1_bn
I0612 16:37:58.703315  3329 net.cpp:163] Setting up inception_5a/1x1_bn
I0612 16:37:58.704215  3329 cudnn_bn_layer.cpp:30] using cuDNN BN engine
I0612 16:37:58.704229  3329 net.cpp:170] Top shape: 2 352 1 7 7 (34496)
I0612 16:37:58.704237  3329 layer_factory.hpp:74] Creating layer inception_5a/relu_1x1
I0612 16:37:58.704246  3329 net.cpp:99] Creating Layer inception_5a/relu_1x1
I0612 16:37:58.704251  3329 net.cpp:480] inception_5a/relu_1x1 <- inception_5a/1x1_bn
I0612 16:37:58.704254  3329 net.cpp:130] This layer is inheriting previous layer's sync mode: 1
I0612 16:37:58.704258  3329 net.cpp:425] inception_5a/relu_1x1 -> inception_5a/1x1_bn (in-place)
I0612 16:37:58.704262  3329 net.cpp:163] Setting up inception_5a/relu_1x1
I0612 16:37:58.704463  3329 net.cpp:170] Top shape: 2 352 1 7 7 (34496)
I0612 16:37:58.704470  3329 layer_factory.hpp:74] Creating layer inception_5a/3x3_reduce_2d
I0612 16:37:58.704480  3329 net.cpp:99] Creating Layer inception_5a/3x3_reduce_2d
I0612 16:37:58.704484  3329 net.cpp:480] inception_5a/3x3_reduce_2d <- inception_4e/output_pool_4e_0_split_1
I0612 16:37:58.704488  3329 net.cpp:130] This layer is inheriting previous layer's sync mode: 1
I0612 16:37:58.704493  3329 net.cpp:436] inception_5a/3x3_reduce_2d -> inception_5a/3x3_reduce
I0612 16:37:58.704500  3329 net.cpp:163] Setting up inception_5a/3x3_reduce_2d
I0612 16:37:58.904531  3329 net.cpp:170] Top shape: 2 192 1 7 7 (18816)
I0612 16:37:58.904556  3329 layer_factory.hpp:74] Creating layer inception_5a/3x3_reduce_bn
I0612 16:37:58.904561  3329 layer_factory.cpp:181] Layer inception_5a/3x3_reduce_bn is using CUDNN engine.
I0612 16:37:58.904568  3329 net.cpp:99] Creating Layer inception_5a/3x3_reduce_bn
I0612 16:37:58.904572  3329 net.cpp:480] inception_5a/3x3_reduce_bn <- inception_5a/3x3_reduce
I0612 16:37:58.904577  3329 net.cpp:130] This layer is inheriting previous layer's sync mode: 1
I0612 16:37:58.904582  3329 net.cpp:436] inception_5a/3x3_reduce_bn -> inception_5a/3x3_reduce_bn
I0612 16:37:58.904588  3329 net.cpp:163] Setting up inception_5a/3x3_reduce_bn
I0612 16:37:58.905470  3329 cudnn_bn_layer.cpp:30] using cuDNN BN engine
I0612 16:37:58.905486  3329 net.cpp:170] Top shape: 2 192 1 7 7 (18816)
I0612 16:37:58.905495  3329 layer_factory.hpp:74] Creating layer inception_5a/relu_3x3_reduce
I0612 16:37:58.905500  3329 net.cpp:99] Creating Layer inception_5a/relu_3x3_reduce
I0612 16:37:58.905505  3329 net.cpp:480] inception_5a/relu_3x3_reduce <- inception_5a/3x3_reduce_bn
I0612 16:37:58.905509  3329 net.cpp:130] This layer is inheriting previous layer's sync mode: 1
I0612 16:37:58.905514  3329 net.cpp:425] inception_5a/relu_3x3_reduce -> inception_5a/3x3_reduce_bn (in-place)
I0612 16:37:58.905519  3329 net.cpp:163] Setting up inception_5a/relu_3x3_reduce
I0612 16:37:58.905725  3329 net.cpp:170] Top shape: 2 192 1 7 7 (18816)
I0612 16:37:58.905732  3329 layer_factory.hpp:74] Creating layer inception_5a/3x3_2d
I0612 16:37:58.905741  3329 net.cpp:99] Creating Layer inception_5a/3x3_2d
I0612 16:37:58.905745  3329 net.cpp:480] inception_5a/3x3_2d <- inception_5a/3x3_reduce_bn
I0612 16:37:58.905748  3329 net.cpp:130] This layer is inheriting previous layer's sync mode: 1
I0612 16:37:58.905755  3329 net.cpp:436] inception_5a/3x3_2d -> inception_5a/3x3
I0612 16:37:58.905761  3329 net.cpp:163] Setting up inception_5a/3x3_2d
I0612 16:37:58.980813  3329 net.cpp:170] Top shape: 2 320 1 7 7 (31360)
I0612 16:37:58.980828  3329 layer_factory.hpp:74] Creating layer inception_5a/3x3_bn
I0612 16:37:58.980832  3329 layer_factory.cpp:181] Layer inception_5a/3x3_bn is using CUDNN engine.
I0612 16:37:58.980839  3329 net.cpp:99] Creating Layer inception_5a/3x3_bn
I0612 16:37:58.980842  3329 net.cpp:480] inception_5a/3x3_bn <- inception_5a/3x3
I0612 16:37:58.980847  3329 net.cpp:130] This layer is inheriting previous layer's sync mode: 1
I0612 16:37:58.980851  3329 net.cpp:436] inception_5a/3x3_bn -> inception_5a/3x3_bn
I0612 16:37:58.980859  3329 net.cpp:163] Setting up inception_5a/3x3_bn
I0612 16:37:58.981086  3329 cudnn_bn_layer.cpp:30] using cuDNN BN engine
I0612 16:37:58.981097  3329 net.cpp:170] Top shape: 2 320 1 7 7 (31360)
I0612 16:37:58.981106  3329 layer_factory.hpp:74] Creating layer inception_5a/relu_3x3
I0612 16:37:58.981111  3329 net.cpp:99] Creating Layer inception_5a/relu_3x3
I0612 16:37:58.981114  3329 net.cpp:480] inception_5a/relu_3x3 <- inception_5a/3x3_bn
I0612 16:37:58.981118  3329 net.cpp:130] This layer is inheriting previous layer's sync mode: 1
I0612 16:37:58.981123  3329 net.cpp:425] inception_5a/relu_3x3 -> inception_5a/3x3_bn (in-place)
I0612 16:37:58.981128  3329 net.cpp:163] Setting up inception_5a/relu_3x3
I0612 16:37:58.982004  3329 net.cpp:170] Top shape: 2 320 1 7 7 (31360)
I0612 16:37:58.982015  3329 layer_factory.hpp:74] Creating layer inception_5a/double_3x3_reduce_2d
I0612 16:37:58.982025  3329 net.cpp:99] Creating Layer inception_5a/double_3x3_reduce_2d
I0612 16:37:58.982029  3329 net.cpp:480] inception_5a/double_3x3_reduce_2d <- inception_4e/output_pool_4e_0_split_2
I0612 16:37:58.982033  3329 net.cpp:130] This layer is inheriting previous layer's sync mode: 1
I0612 16:37:58.982039  3329 net.cpp:436] inception_5a/double_3x3_reduce_2d -> inception_5a/double_3x3_reduce
I0612 16:37:58.982046  3329 net.cpp:163] Setting up inception_5a/double_3x3_reduce_2d
I0612 16:37:59.152590  3329 net.cpp:170] Top shape: 2 160 1 7 7 (15680)
I0612 16:37:59.152603  3329 layer_factory.hpp:74] Creating layer inception_5a/double_3x3_reduce_bn
I0612 16:37:59.152618  3329 layer_factory.cpp:181] Layer inception_5a/double_3x3_reduce_bn is using CUDNN engine.
I0612 16:37:59.152624  3329 net.cpp:99] Creating Layer inception_5a/double_3x3_reduce_bn
I0612 16:37:59.152629  3329 net.cpp:480] inception_5a/double_3x3_reduce_bn <- inception_5a/double_3x3_reduce
I0612 16:37:59.152633  3329 net.cpp:130] This layer is inheriting previous layer's sync mode: 1
I0612 16:37:59.152638  3329 net.cpp:436] inception_5a/double_3x3_reduce_bn -> inception_5a/double_3x3_reduce_bn
I0612 16:37:59.152645  3329 net.cpp:163] Setting up inception_5a/double_3x3_reduce_bn
I0612 16:37:59.152873  3329 cudnn_bn_layer.cpp:30] using cuDNN BN engine
I0612 16:37:59.152885  3329 net.cpp:170] Top shape: 2 160 1 7 7 (15680)
I0612 16:37:59.152894  3329 layer_factory.hpp:74] Creating layer inception_5a/relu_double_3x3_reduce
I0612 16:37:59.152899  3329 net.cpp:99] Creating Layer inception_5a/relu_double_3x3_reduce
I0612 16:37:59.152902  3329 net.cpp:480] inception_5a/relu_double_3x3_reduce <- inception_5a/double_3x3_reduce_bn
I0612 16:37:59.152906  3329 net.cpp:130] This layer is inheriting previous layer's sync mode: 1
I0612 16:37:59.152911  3329 net.cpp:425] inception_5a/relu_double_3x3_reduce -> inception_5a/double_3x3_reduce_bn (in-place)
I0612 16:37:59.152916  3329 net.cpp:163] Setting up inception_5a/relu_double_3x3_reduce
I0612 16:37:59.153780  3329 net.cpp:170] Top shape: 2 160 1 7 7 (15680)
I0612 16:37:59.153789  3329 layer_factory.hpp:74] Creating layer inception_5a/double_3x3_1_2d
I0612 16:37:59.153798  3329 net.cpp:99] Creating Layer inception_5a/double_3x3_1_2d
I0612 16:37:59.153803  3329 net.cpp:480] inception_5a/double_3x3_1_2d <- inception_5a/double_3x3_reduce_bn
I0612 16:37:59.153807  3329 net.cpp:130] This layer is inheriting previous layer's sync mode: 1
I0612 16:37:59.153813  3329 net.cpp:436] inception_5a/double_3x3_1_2d -> inception_5a/double_3x3_1
I0612 16:37:59.153820  3329 net.cpp:163] Setting up inception_5a/double_3x3_1_2d
I0612 16:37:59.203178  3329 net.cpp:170] Top shape: 2 224 1 7 7 (21952)
I0612 16:37:59.203192  3329 layer_factory.hpp:74] Creating layer inception_5a/double_3x3_1_bn
I0612 16:37:59.203197  3329 layer_factory.cpp:181] Layer inception_5a/double_3x3_1_bn is using CUDNN engine.
I0612 16:37:59.203203  3329 net.cpp:99] Creating Layer inception_5a/double_3x3_1_bn
I0612 16:37:59.203207  3329 net.cpp:480] inception_5a/double_3x3_1_bn <- inception_5a/double_3x3_1
I0612 16:37:59.203212  3329 net.cpp:130] This layer is inheriting previous layer's sync mode: 1
I0612 16:37:59.203217  3329 net.cpp:436] inception_5a/double_3x3_1_bn -> inception_5a/double_3x3_1_bn
I0612 16:37:59.203223  3329 net.cpp:163] Setting up inception_5a/double_3x3_1_bn
I0612 16:37:59.203477  3329 cudnn_bn_layer.cpp:30] using cuDNN BN engine
I0612 16:37:59.203490  3329 net.cpp:170] Top shape: 2 224 1 7 7 (21952)
I0612 16:37:59.203498  3329 layer_factory.hpp:74] Creating layer inception_5a/relu_double_3x3_1
I0612 16:37:59.203505  3329 net.cpp:99] Creating Layer inception_5a/relu_double_3x3_1
I0612 16:37:59.203510  3329 net.cpp:480] inception_5a/relu_double_3x3_1 <- inception_5a/double_3x3_1_bn
I0612 16:37:59.203514  3329 net.cpp:130] This layer is inheriting previous layer's sync mode: 1
I0612 16:37:59.203517  3329 net.cpp:425] inception_5a/relu_double_3x3_1 -> inception_5a/double_3x3_1_bn (in-place)
I0612 16:37:59.203522  3329 net.cpp:163] Setting up inception_5a/relu_double_3x3_1
I0612 16:37:59.204396  3329 net.cpp:170] Top shape: 2 224 1 7 7 (21952)
I0612 16:37:59.204406  3329 layer_factory.hpp:74] Creating layer inception_5a/double_3x3_2_2d
I0612 16:37:59.204413  3329 net.cpp:99] Creating Layer inception_5a/double_3x3_2_2d
I0612 16:37:59.204417  3329 net.cpp:480] inception_5a/double_3x3_2_2d <- inception_5a/double_3x3_1_bn
I0612 16:37:59.204423  3329 net.cpp:130] This layer is inheriting previous layer's sync mode: 1
I0612 16:37:59.204427  3329 net.cpp:436] inception_5a/double_3x3_2_2d -> inception_5a/double_3x3_2
I0612 16:37:59.204434  3329 net.cpp:163] Setting up inception_5a/double_3x3_2_2d
I0612 16:37:59.268268  3329 net.cpp:170] Top shape: 2 224 1 7 7 (21952)
I0612 16:37:59.268282  3329 layer_factory.hpp:74] Creating layer inception_5a/double_3x3_2_bn
I0612 16:37:59.268287  3329 layer_factory.cpp:181] Layer inception_5a/double_3x3_2_bn is using CUDNN engine.
I0612 16:37:59.268293  3329 net.cpp:99] Creating Layer inception_5a/double_3x3_2_bn
I0612 16:37:59.268297  3329 net.cpp:480] inception_5a/double_3x3_2_bn <- inception_5a/double_3x3_2
I0612 16:37:59.268302  3329 net.cpp:130] This layer is inheriting previous layer's sync mode: 1
I0612 16:37:59.268307  3329 net.cpp:436] inception_5a/double_3x3_2_bn -> inception_5a/double_3x3_2_bn
I0612 16:37:59.268313  3329 net.cpp:163] Setting up inception_5a/double_3x3_2_bn
I0612 16:37:59.268539  3329 cudnn_bn_layer.cpp:30] using cuDNN BN engine
I0612 16:37:59.268553  3329 net.cpp:170] Top shape: 2 224 1 7 7 (21952)
I0612 16:37:59.268560  3329 layer_factory.hpp:74] Creating layer inception_5a/relu_double_3x3_2
I0612 16:37:59.268566  3329 net.cpp:99] Creating Layer inception_5a/relu_double_3x3_2
I0612 16:37:59.268569  3329 net.cpp:480] inception_5a/relu_double_3x3_2 <- inception_5a/double_3x3_2_bn
I0612 16:37:59.268573  3329 net.cpp:130] This layer is inheriting previous layer's sync mode: 1
I0612 16:37:59.268577  3329 net.cpp:425] inception_5a/relu_double_3x3_2 -> inception_5a/double_3x3_2_bn (in-place)
I0612 16:37:59.268582  3329 net.cpp:163] Setting up inception_5a/relu_double_3x3_2
I0612 16:37:59.269487  3329 net.cpp:170] Top shape: 2 224 1 7 7 (21952)
I0612 16:37:59.269496  3329 layer_factory.hpp:74] Creating layer inception_5a/pool_2d
I0612 16:37:59.269505  3329 net.cpp:99] Creating Layer inception_5a/pool_2d
I0612 16:37:59.269510  3329 net.cpp:480] inception_5a/pool_2d <- inception_4e/output_pool_4e_0_split_3
I0612 16:37:59.269515  3329 net.cpp:130] This layer is inheriting previous layer's sync mode: 1
I0612 16:37:59.269520  3329 net.cpp:436] inception_5a/pool_2d -> inception_5a/pool
I0612 16:37:59.269526  3329 net.cpp:163] Setting up inception_5a/pool_2d
I0612 16:37:59.269729  3329 net.cpp:170] Top shape: 2 1056 1 7 7 (103488)
I0612 16:37:59.269737  3329 layer_factory.hpp:74] Creating layer inception_5a/pool_proj_2d
I0612 16:37:59.269744  3329 net.cpp:99] Creating Layer inception_5a/pool_proj_2d
I0612 16:37:59.269748  3329 net.cpp:480] inception_5a/pool_proj_2d <- inception_5a/pool
I0612 16:37:59.269752  3329 net.cpp:130] This layer is inheriting previous layer's sync mode: 1
I0612 16:37:59.269757  3329 net.cpp:436] inception_5a/pool_proj_2d -> inception_5a/pool_proj
I0612 16:37:59.269764  3329 net.cpp:163] Setting up inception_5a/pool_proj_2d
I0612 16:37:59.409425  3329 net.cpp:170] Top shape: 2 128 1 7 7 (12544)
I0612 16:37:59.409440  3329 layer_factory.hpp:74] Creating layer inception_5a/pool_proj_bn
I0612 16:37:59.409445  3329 layer_factory.cpp:181] Layer inception_5a/pool_proj_bn is using CUDNN engine.
I0612 16:37:59.409451  3329 net.cpp:99] Creating Layer inception_5a/pool_proj_bn
I0612 16:37:59.409456  3329 net.cpp:480] inception_5a/pool_proj_bn <- inception_5a/pool_proj
I0612 16:37:59.409459  3329 net.cpp:130] This layer is inheriting previous layer's sync mode: 1
I0612 16:37:59.409464  3329 net.cpp:436] inception_5a/pool_proj_bn -> inception_5a/pool_proj_bn
I0612 16:37:59.409471  3329 net.cpp:163] Setting up inception_5a/pool_proj_bn
I0612 16:37:59.409648  3329 cudnn_bn_layer.cpp:30] using cuDNN BN engine
I0612 16:37:59.409659  3329 net.cpp:170] Top shape: 2 128 1 7 7 (12544)
I0612 16:37:59.409667  3329 layer_factory.hpp:74] Creating layer inception_5a/relu_pool_proj
I0612 16:37:59.409672  3329 net.cpp:99] Creating Layer inception_5a/relu_pool_proj
I0612 16:37:59.409675  3329 net.cpp:480] inception_5a/relu_pool_proj <- inception_5a/pool_proj_bn
I0612 16:37:59.409682  3329 net.cpp:130] This layer is inheriting previous layer's sync mode: 1
I0612 16:37:59.409685  3329 net.cpp:425] inception_5a/relu_pool_proj -> inception_5a/pool_proj_bn (in-place)
I0612 16:37:59.409690  3329 net.cpp:163] Setting up inception_5a/relu_pool_proj
I0612 16:37:59.410526  3329 net.cpp:170] Top shape: 2 128 1 7 7 (12544)
I0612 16:37:59.410545  3329 layer_factory.hpp:74] Creating layer inception_5a/output
I0612 16:37:59.410552  3329 net.cpp:99] Creating Layer inception_5a/output
I0612 16:37:59.410557  3329 net.cpp:480] inception_5a/output <- inception_5a/1x1_bn
I0612 16:37:59.410562  3329 net.cpp:480] inception_5a/output <- inception_5a/3x3_bn
I0612 16:37:59.410565  3329 net.cpp:480] inception_5a/output <- inception_5a/double_3x3_2_bn
I0612 16:37:59.410569  3329 net.cpp:480] inception_5a/output <- inception_5a/pool_proj_bn
I0612 16:37:59.410573  3329 net.cpp:130] This layer is inheriting previous layer's sync mode: 1
I0612 16:37:59.410578  3329 net.cpp:436] inception_5a/output -> inception_5a/output
I0612 16:37:59.410584  3329 net.cpp:163] Setting up inception_5a/output
I0612 16:37:59.410590  3329 net.cpp:170] Top shape: 2 1024 1 7 7 (100352)
I0612 16:37:59.410593  3329 layer_factory.hpp:74] Creating layer inception_5a/output_inception_5a/output_0_split
I0612 16:37:59.410598  3329 net.cpp:99] Creating Layer inception_5a/output_inception_5a/output_0_split
I0612 16:37:59.410601  3329 net.cpp:480] inception_5a/output_inception_5a/output_0_split <- inception_5a/output
I0612 16:37:59.410605  3329 net.cpp:130] This layer is inheriting previous layer's sync mode: 1
I0612 16:37:59.410610  3329 net.cpp:436] inception_5a/output_inception_5a/output_0_split -> inception_5a/output_inception_5a/output_0_split_0
I0612 16:37:59.410615  3329 net.cpp:436] inception_5a/output_inception_5a/output_0_split -> inception_5a/output_inception_5a/output_0_split_1
I0612 16:37:59.410620  3329 net.cpp:436] inception_5a/output_inception_5a/output_0_split -> inception_5a/output_inception_5a/output_0_split_2
I0612 16:37:59.410625  3329 net.cpp:436] inception_5a/output_inception_5a/output_0_split -> inception_5a/output_inception_5a/output_0_split_3
I0612 16:37:59.410629  3329 net.cpp:163] Setting up inception_5a/output_inception_5a/output_0_split
I0612 16:37:59.410634  3329 net.cpp:170] Top shape: 2 1024 1 7 7 (100352)
I0612 16:37:59.410639  3329 net.cpp:170] Top shape: 2 1024 1 7 7 (100352)
I0612 16:37:59.410641  3329 net.cpp:170] Top shape: 2 1024 1 7 7 (100352)
I0612 16:37:59.410645  3329 net.cpp:170] Top shape: 2 1024 1 7 7 (100352)
I0612 16:37:59.410648  3329 layer_factory.hpp:74] Creating layer inception_5b/1x1_2d
I0612 16:37:59.410656  3329 net.cpp:99] Creating Layer inception_5b/1x1_2d
I0612 16:37:59.410660  3329 net.cpp:480] inception_5b/1x1_2d <- inception_5a/output_inception_5a/output_0_split_0
I0612 16:37:59.410663  3329 net.cpp:130] This layer is inheriting previous layer's sync mode: 1
I0612 16:37:59.410667  3329 net.cpp:436] inception_5b/1x1_2d -> inception_5b/1x1
I0612 16:37:59.410672  3329 net.cpp:163] Setting up inception_5b/1x1_2d
I0612 16:37:59.448246  3329 net.cpp:170] Top shape: 2 352 1 7 7 (34496)
I0612 16:37:59.448261  3329 layer_factory.hpp:74] Creating layer inception_5b/1x1_bn
I0612 16:37:59.448266  3329 layer_factory.cpp:181] Layer inception_5b/1x1_bn is using CUDNN engine.
I0612 16:37:59.448272  3329 net.cpp:99] Creating Layer inception_5b/1x1_bn
I0612 16:37:59.448276  3329 net.cpp:480] inception_5b/1x1_bn <- inception_5b/1x1
I0612 16:37:59.448281  3329 net.cpp:130] This layer is inheriting previous layer's sync mode: 1
I0612 16:37:59.448285  3329 net.cpp:436] inception_5b/1x1_bn -> inception_5b/1x1_bn
I0612 16:37:59.448292  3329 net.cpp:163] Setting up inception_5b/1x1_bn
I0612 16:37:59.448467  3329 cudnn_bn_layer.cpp:30] using cuDNN BN engine
I0612 16:37:59.448477  3329 net.cpp:170] Top shape: 2 352 1 7 7 (34496)
I0612 16:37:59.448487  3329 layer_factory.hpp:74] Creating layer inception_5b/relu_1x1
I0612 16:37:59.448493  3329 net.cpp:99] Creating Layer inception_5b/relu_1x1
I0612 16:37:59.448496  3329 net.cpp:480] inception_5b/relu_1x1 <- inception_5b/1x1_bn
I0612 16:37:59.448500  3329 net.cpp:130] This layer is inheriting previous layer's sync mode: 1
I0612 16:37:59.448504  3329 net.cpp:425] inception_5b/relu_1x1 -> inception_5b/1x1_bn (in-place)
I0612 16:37:59.448509  3329 net.cpp:163] Setting up inception_5b/relu_1x1
I0612 16:37:59.449342  3329 net.cpp:170] Top shape: 2 352 1 7 7 (34496)
I0612 16:37:59.449352  3329 layer_factory.hpp:74] Creating layer inception_5b/3x3_reduce_2d
I0612 16:37:59.449360  3329 net.cpp:99] Creating Layer inception_5b/3x3_reduce_2d
I0612 16:37:59.449365  3329 net.cpp:480] inception_5b/3x3_reduce_2d <- inception_5a/output_inception_5a/output_0_split_1
I0612 16:37:59.449369  3329 net.cpp:130] This layer is inheriting previous layer's sync mode: 1
I0612 16:37:59.449375  3329 net.cpp:436] inception_5b/3x3_reduce_2d -> inception_5b/3x3_reduce
I0612 16:37:59.449381  3329 net.cpp:163] Setting up inception_5b/3x3_reduce_2d
I0612 16:37:59.644994  3329 net.cpp:170] Top shape: 2 192 1 7 7 (18816)
I0612 16:37:59.645012  3329 layer_factory.hpp:74] Creating layer inception_5b/3x3_reduce_bn
I0612 16:37:59.645020  3329 layer_factory.cpp:181] Layer inception_5b/3x3_reduce_bn is using CUDNN engine.
I0612 16:37:59.645027  3329 net.cpp:99] Creating Layer inception_5b/3x3_reduce_bn
I0612 16:37:59.645035  3329 net.cpp:480] inception_5b/3x3_reduce_bn <- inception_5b/3x3_reduce
I0612 16:37:59.645041  3329 net.cpp:130] This layer is inheriting previous layer's sync mode: 1
I0612 16:37:59.645046  3329 net.cpp:436] inception_5b/3x3_reduce_bn -> inception_5b/3x3_reduce_bn
I0612 16:37:59.645052  3329 net.cpp:163] Setting up inception_5b/3x3_reduce_bn
I0612 16:37:59.645251  3329 cudnn_bn_layer.cpp:30] using cuDNN BN engine
I0612 16:37:59.645264  3329 net.cpp:170] Top shape: 2 192 1 7 7 (18816)
I0612 16:37:59.645273  3329 layer_factory.hpp:74] Creating layer inception_5b/relu_3x3_reduce
I0612 16:37:59.645282  3329 net.cpp:99] Creating Layer inception_5b/relu_3x3_reduce
I0612 16:37:59.645285  3329 net.cpp:480] inception_5b/relu_3x3_reduce <- inception_5b/3x3_reduce_bn
I0612 16:37:59.645289  3329 net.cpp:130] This layer is inheriting previous layer's sync mode: 1
I0612 16:37:59.645293  3329 net.cpp:425] inception_5b/relu_3x3_reduce -> inception_5b/3x3_reduce_bn (in-place)
I0612 16:37:59.645298  3329 net.cpp:163] Setting up inception_5b/relu_3x3_reduce
I0612 16:37:59.646149  3329 net.cpp:170] Top shape: 2 192 1 7 7 (18816)
I0612 16:37:59.646158  3329 layer_factory.hpp:74] Creating layer inception_5b/3x3_2d
I0612 16:37:59.646172  3329 net.cpp:99] Creating Layer inception_5b/3x3_2d
I0612 16:37:59.646175  3329 net.cpp:480] inception_5b/3x3_2d <- inception_5b/3x3_reduce_bn
I0612 16:37:59.646179  3329 net.cpp:130] This layer is inheriting previous layer's sync mode: 1
I0612 16:37:59.646183  3329 net.cpp:436] inception_5b/3x3_2d -> inception_5b/3x3
I0612 16:37:59.646190  3329 net.cpp:163] Setting up inception_5b/3x3_2d
I0612 16:37:59.720669  3329 net.cpp:170] Top shape: 2 320 1 7 7 (31360)
I0612 16:37:59.720683  3329 layer_factory.hpp:74] Creating layer inception_5b/3x3_bn
I0612 16:37:59.720688  3329 layer_factory.cpp:181] Layer inception_5b/3x3_bn is using CUDNN engine.
I0612 16:37:59.720695  3329 net.cpp:99] Creating Layer inception_5b/3x3_bn
I0612 16:37:59.720700  3329 net.cpp:480] inception_5b/3x3_bn <- inception_5b/3x3
I0612 16:37:59.720703  3329 net.cpp:130] This layer is inheriting previous layer's sync mode: 1
I0612 16:37:59.720708  3329 net.cpp:436] inception_5b/3x3_bn -> inception_5b/3x3_bn
I0612 16:37:59.720715  3329 net.cpp:163] Setting up inception_5b/3x3_bn
I0612 16:37:59.720890  3329 cudnn_bn_layer.cpp:30] using cuDNN BN engine
I0612 16:37:59.720903  3329 net.cpp:170] Top shape: 2 320 1 7 7 (31360)
I0612 16:37:59.720912  3329 layer_factory.hpp:74] Creating layer inception_5b/relu_3x3
I0612 16:37:59.720918  3329 net.cpp:99] Creating Layer inception_5b/relu_3x3
I0612 16:37:59.720922  3329 net.cpp:480] inception_5b/relu_3x3 <- inception_5b/3x3_bn
I0612 16:37:59.720927  3329 net.cpp:130] This layer is inheriting previous layer's sync mode: 1
I0612 16:37:59.720930  3329 net.cpp:425] inception_5b/relu_3x3 -> inception_5b/3x3_bn (in-place)
I0612 16:37:59.720934  3329 net.cpp:163] Setting up inception_5b/relu_3x3
I0612 16:37:59.721771  3329 net.cpp:170] Top shape: 2 320 1 7 7 (31360)
I0612 16:37:59.721782  3329 layer_factory.hpp:74] Creating layer inception_5b/double_3x3_reduce_2d
I0612 16:37:59.721804  3329 net.cpp:99] Creating Layer inception_5b/double_3x3_reduce_2d
I0612 16:37:59.721809  3329 net.cpp:480] inception_5b/double_3x3_reduce_2d <- inception_5a/output_inception_5a/output_0_split_2
I0612 16:37:59.721813  3329 net.cpp:130] This layer is inheriting previous layer's sync mode: 1
I0612 16:37:59.721818  3329 net.cpp:436] inception_5b/double_3x3_reduce_2d -> inception_5b/double_3x3_reduce
I0612 16:37:59.721825  3329 net.cpp:163] Setting up inception_5b/double_3x3_reduce_2d
I0612 16:37:59.914919  3329 net.cpp:170] Top shape: 2 192 1 7 7 (18816)
I0612 16:37:59.914933  3329 layer_factory.hpp:74] Creating layer inception_5b/double_3x3_reduce_bn
I0612 16:37:59.914938  3329 layer_factory.cpp:181] Layer inception_5b/double_3x3_reduce_bn is using CUDNN engine.
I0612 16:37:59.914947  3329 net.cpp:99] Creating Layer inception_5b/double_3x3_reduce_bn
I0612 16:37:59.914950  3329 net.cpp:480] inception_5b/double_3x3_reduce_bn <- inception_5b/double_3x3_reduce
I0612 16:37:59.914955  3329 net.cpp:130] This layer is inheriting previous layer's sync mode: 1
I0612 16:37:59.914960  3329 net.cpp:436] inception_5b/double_3x3_reduce_bn -> inception_5b/double_3x3_reduce_bn
I0612 16:37:59.914968  3329 net.cpp:163] Setting up inception_5b/double_3x3_reduce_bn
I0612 16:37:59.916460  3329 cudnn_bn_layer.cpp:30] using cuDNN BN engine
I0612 16:37:59.916476  3329 net.cpp:170] Top shape: 2 192 1 7 7 (18816)
I0612 16:37:59.916486  3329 layer_factory.hpp:74] Creating layer inception_5b/relu_double_3x3_reduce
I0612 16:37:59.916492  3329 net.cpp:99] Creating Layer inception_5b/relu_double_3x3_reduce
I0612 16:37:59.916496  3329 net.cpp:480] inception_5b/relu_double_3x3_reduce <- inception_5b/double_3x3_reduce_bn
I0612 16:37:59.916501  3329 net.cpp:130] This layer is inheriting previous layer's sync mode: 1
I0612 16:37:59.916507  3329 net.cpp:425] inception_5b/relu_double_3x3_reduce -> inception_5b/double_3x3_reduce_bn (in-place)
I0612 16:37:59.916513  3329 net.cpp:163] Setting up inception_5b/relu_double_3x3_reduce
I0612 16:37:59.916679  3329 net.cpp:170] Top shape: 2 192 1 7 7 (18816)
I0612 16:37:59.916687  3329 layer_factory.hpp:74] Creating layer inception_5b/double_3x3_1_2d
I0612 16:37:59.916697  3329 net.cpp:99] Creating Layer inception_5b/double_3x3_1_2d
I0612 16:37:59.916700  3329 net.cpp:480] inception_5b/double_3x3_1_2d <- inception_5b/double_3x3_reduce_bn
I0612 16:37:59.916704  3329 net.cpp:130] This layer is inheriting previous layer's sync mode: 1
I0612 16:37:59.916709  3329 net.cpp:436] inception_5b/double_3x3_1_2d -> inception_5b/double_3x3_1
I0612 16:37:59.916716  3329 net.cpp:163] Setting up inception_5b/double_3x3_1_2d
I0612 16:37:59.973979  3329 net.cpp:170] Top shape: 2 224 1 7 7 (21952)
I0612 16:37:59.973994  3329 layer_factory.hpp:74] Creating layer inception_5b/double_3x3_1_bn
I0612 16:37:59.974000  3329 layer_factory.cpp:181] Layer inception_5b/double_3x3_1_bn is using CUDNN engine.
I0612 16:37:59.974006  3329 net.cpp:99] Creating Layer inception_5b/double_3x3_1_bn
I0612 16:37:59.974011  3329 net.cpp:480] inception_5b/double_3x3_1_bn <- inception_5b/double_3x3_1
I0612 16:37:59.974016  3329 net.cpp:130] This layer is inheriting previous layer's sync mode: 1
I0612 16:37:59.974020  3329 net.cpp:436] inception_5b/double_3x3_1_bn -> inception_5b/double_3x3_1_bn
I0612 16:37:59.974027  3329 net.cpp:163] Setting up inception_5b/double_3x3_1_bn
I0612 16:37:59.974889  3329 cudnn_bn_layer.cpp:30] using cuDNN BN engine
I0612 16:37:59.974903  3329 net.cpp:170] Top shape: 2 224 1 7 7 (21952)
I0612 16:37:59.974912  3329 layer_factory.hpp:74] Creating layer inception_5b/relu_double_3x3_1
I0612 16:37:59.974920  3329 net.cpp:99] Creating Layer inception_5b/relu_double_3x3_1
I0612 16:37:59.974923  3329 net.cpp:480] inception_5b/relu_double_3x3_1 <- inception_5b/double_3x3_1_bn
I0612 16:37:59.974927  3329 net.cpp:130] This layer is inheriting previous layer's sync mode: 1
I0612 16:37:59.974932  3329 net.cpp:425] inception_5b/relu_double_3x3_1 -> inception_5b/double_3x3_1_bn (in-place)
I0612 16:37:59.974948  3329 net.cpp:163] Setting up inception_5b/relu_double_3x3_1
I0612 16:37:59.975111  3329 net.cpp:170] Top shape: 2 224 1 7 7 (21952)
I0612 16:37:59.975118  3329 layer_factory.hpp:74] Creating layer inception_5b/double_3x3_2_2d
I0612 16:37:59.975127  3329 net.cpp:99] Creating Layer inception_5b/double_3x3_2_2d
I0612 16:37:59.975131  3329 net.cpp:480] inception_5b/double_3x3_2_2d <- inception_5b/double_3x3_1_bn
I0612 16:37:59.975136  3329 net.cpp:130] This layer is inheriting previous layer's sync mode: 1
I0612 16:37:59.975142  3329 net.cpp:436] inception_5b/double_3x3_2_2d -> inception_5b/double_3x3_2
I0612 16:37:59.975148  3329 net.cpp:163] Setting up inception_5b/double_3x3_2_2d
I0612 16:38:00.039120  3329 net.cpp:170] Top shape: 2 224 1 7 7 (21952)
I0612 16:38:00.039135  3329 layer_factory.hpp:74] Creating layer inception_5b/double_3x3_2_bn
I0612 16:38:00.039141  3329 layer_factory.cpp:181] Layer inception_5b/double_3x3_2_bn is using CUDNN engine.
I0612 16:38:00.039147  3329 net.cpp:99] Creating Layer inception_5b/double_3x3_2_bn
I0612 16:38:00.039151  3329 net.cpp:480] inception_5b/double_3x3_2_bn <- inception_5b/double_3x3_2
I0612 16:38:00.039156  3329 net.cpp:130] This layer is inheriting previous layer's sync mode: 1
I0612 16:38:00.039161  3329 net.cpp:436] inception_5b/double_3x3_2_bn -> inception_5b/double_3x3_2_bn
I0612 16:38:00.039167  3329 net.cpp:163] Setting up inception_5b/double_3x3_2_bn
I0612 16:38:00.040060  3329 cudnn_bn_layer.cpp:30] using cuDNN BN engine
I0612 16:38:00.040076  3329 net.cpp:170] Top shape: 2 224 1 7 7 (21952)
I0612 16:38:00.040086  3329 layer_factory.hpp:74] Creating layer inception_5b/relu_double_3x3_2
I0612 16:38:00.040092  3329 net.cpp:99] Creating Layer inception_5b/relu_double_3x3_2
I0612 16:38:00.040097  3329 net.cpp:480] inception_5b/relu_double_3x3_2 <- inception_5b/double_3x3_2_bn
I0612 16:38:00.040102  3329 net.cpp:130] This layer is inheriting previous layer's sync mode: 1
I0612 16:38:00.040105  3329 net.cpp:425] inception_5b/relu_double_3x3_2 -> inception_5b/double_3x3_2_bn (in-place)
I0612 16:38:00.040112  3329 net.cpp:163] Setting up inception_5b/relu_double_3x3_2
I0612 16:38:00.040269  3329 net.cpp:170] Top shape: 2 224 1 7 7 (21952)
I0612 16:38:00.040277  3329 layer_factory.hpp:74] Creating layer inception_5b/pool_2d
I0612 16:38:00.040287  3329 net.cpp:99] Creating Layer inception_5b/pool_2d
I0612 16:38:00.040290  3329 net.cpp:480] inception_5b/pool_2d <- inception_5a/output_inception_5a/output_0_split_3
I0612 16:38:00.040294  3329 net.cpp:130] This layer is inheriting previous layer's sync mode: 1
I0612 16:38:00.040298  3329 net.cpp:436] inception_5b/pool_2d -> inception_5b/pool
I0612 16:38:00.040304  3329 net.cpp:163] Setting up inception_5b/pool_2d
I0612 16:38:00.041143  3329 net.cpp:170] Top shape: 2 1024 1 7 7 (100352)
I0612 16:38:00.041154  3329 layer_factory.hpp:74] Creating layer inception_5b/pool_proj_2d
I0612 16:38:00.041164  3329 net.cpp:99] Creating Layer inception_5b/pool_proj_2d
I0612 16:38:00.041169  3329 net.cpp:480] inception_5b/pool_proj_2d <- inception_5b/pool
I0612 16:38:00.041173  3329 net.cpp:130] This layer is inheriting previous layer's sync mode: 1
I0612 16:38:00.041179  3329 net.cpp:436] inception_5b/pool_proj_2d -> inception_5b/pool_proj
I0612 16:38:00.041187  3329 net.cpp:163] Setting up inception_5b/pool_proj_2d
I0612 16:38:00.176228  3329 net.cpp:170] Top shape: 2 128 1 7 7 (12544)
I0612 16:38:00.176242  3329 layer_factory.hpp:74] Creating layer inception_5b/pool_proj_bn
I0612 16:38:00.176249  3329 layer_factory.cpp:181] Layer inception_5b/pool_proj_bn is using CUDNN engine.
I0612 16:38:00.176255  3329 net.cpp:99] Creating Layer inception_5b/pool_proj_bn
I0612 16:38:00.176259  3329 net.cpp:480] inception_5b/pool_proj_bn <- inception_5b/pool_proj
I0612 16:38:00.176265  3329 net.cpp:130] This layer is inheriting previous layer's sync mode: 1
I0612 16:38:00.176270  3329 net.cpp:436] inception_5b/pool_proj_bn -> inception_5b/pool_proj_bn
I0612 16:38:00.176276  3329 net.cpp:163] Setting up inception_5b/pool_proj_bn
I0612 16:38:00.176463  3329 cudnn_bn_layer.cpp:30] using cuDNN BN engine
I0612 16:38:00.176476  3329 net.cpp:170] Top shape: 2 128 1 7 7 (12544)
I0612 16:38:00.176486  3329 layer_factory.hpp:74] Creating layer inception_5b/relu_pool_proj
I0612 16:38:00.176491  3329 net.cpp:99] Creating Layer inception_5b/relu_pool_proj
I0612 16:38:00.176496  3329 net.cpp:480] inception_5b/relu_pool_proj <- inception_5b/pool_proj_bn
I0612 16:38:00.176499  3329 net.cpp:130] This layer is inheriting previous layer's sync mode: 1
I0612 16:38:00.176503  3329 net.cpp:425] inception_5b/relu_pool_proj -> inception_5b/pool_proj_bn (in-place)
I0612 16:38:00.176508  3329 net.cpp:163] Setting up inception_5b/relu_pool_proj
I0612 16:38:00.177382  3329 net.cpp:170] Top shape: 2 128 1 7 7 (12544)
I0612 16:38:00.177393  3329 layer_factory.hpp:74] Creating layer inception_5b/output
I0612 16:38:00.177400  3329 net.cpp:99] Creating Layer inception_5b/output
I0612 16:38:00.177404  3329 net.cpp:480] inception_5b/output <- inception_5b/1x1_bn
I0612 16:38:00.177409  3329 net.cpp:480] inception_5b/output <- inception_5b/3x3_bn
I0612 16:38:00.177413  3329 net.cpp:480] inception_5b/output <- inception_5b/double_3x3_2_bn
I0612 16:38:00.177417  3329 net.cpp:480] inception_5b/output <- inception_5b/pool_proj_bn
I0612 16:38:00.177420  3329 net.cpp:130] This layer is inheriting previous layer's sync mode: 1
I0612 16:38:00.177425  3329 net.cpp:436] inception_5b/output -> inception_5b/output
I0612 16:38:00.177430  3329 net.cpp:163] Setting up inception_5b/output
I0612 16:38:00.177438  3329 net.cpp:170] Top shape: 2 1024 1 7 7 (100352)
I0612 16:38:00.177441  3329 layer_factory.hpp:74] Creating layer global_pool_2d
I0612 16:38:00.177448  3329 net.cpp:99] Creating Layer global_pool_2d
I0612 16:38:00.177451  3329 net.cpp:480] global_pool_2d <- inception_5b/output
I0612 16:38:00.177454  3329 net.cpp:130] This layer is inheriting previous layer's sync mode: 1
I0612 16:38:00.177461  3329 net.cpp:436] global_pool_2d -> global_pool
I0612 16:38:00.177465  3329 net.cpp:163] Setting up global_pool_2d
I0612 16:38:00.177628  3329 net.cpp:170] Top shape: 2 1024 1 1 1 (2048)
I0612 16:38:00.177635  3329 layer_factory.hpp:74] Creating layer global_pool_reshape
I0612 16:38:00.177644  3329 net.cpp:99] Creating Layer global_pool_reshape
I0612 16:38:00.177646  3329 net.cpp:480] global_pool_reshape <- global_pool
I0612 16:38:00.177651  3329 net.cpp:130] This layer is inheriting previous layer's sync mode: 1
I0612 16:38:00.177655  3329 net.cpp:436] global_pool_reshape -> global_pool_reshape
I0612 16:38:00.177661  3329 net.cpp:163] Setting up global_pool_reshape
I0612 16:38:00.177669  3329 net.cpp:170] Top shape: 2 1024 (2048)
I0612 16:38:00.177671  3329 layer_factory.hpp:74] Creating layer drop
I0612 16:38:00.177677  3329 net.cpp:99] Creating Layer drop
I0612 16:38:00.177680  3329 net.cpp:480] drop <- global_pool_reshape
I0612 16:38:00.177683  3329 net.cpp:130] This layer is inheriting previous layer's sync mode: 1
I0612 16:38:00.177688  3329 net.cpp:436] drop -> global_pool_reshape1
I0612 16:38:00.177692  3329 net.cpp:163] Setting up drop
I0612 16:38:00.177698  3329 net.cpp:170] Top shape: 2 1024 (2048)
I0612 16:38:00.177702  3329 layer_factory.hpp:74] Creating layer fc
I0612 16:38:00.177709  3329 net.cpp:99] Creating Layer fc
I0612 16:38:00.177712  3329 net.cpp:480] fc <- global_pool_reshape1
I0612 16:38:00.177716  3329 net.cpp:130] This layer is inheriting previous layer's sync mode: 1
I0612 16:38:00.177721  3329 net.cpp:436] fc -> fc
I0612 16:38:00.177726  3329 net.cpp:163] Setting up fc
I0612 16:38:00.187935  3329 net.cpp:170] Top shape: 2 400 (800)
I0612 16:38:00.187944  3329 layer_factory.hpp:74] Creating layer reshape_fc
I0612 16:38:00.187952  3329 net.cpp:99] Creating Layer reshape_fc
I0612 16:38:00.187955  3329 net.cpp:480] reshape_fc <- fc
I0612 16:38:00.187959  3329 net.cpp:130] This layer is inheriting previous layer's sync mode: 1
I0612 16:38:00.187965  3329 net.cpp:436] reshape_fc -> reshape_fc
I0612 16:38:00.187973  3329 net.cpp:163] Setting up reshape_fc
I0612 16:38:00.187988  3329 net.cpp:170] Top shape: 1 1 2 400 (800)
I0612 16:38:00.187991  3329 layer_factory.hpp:74] Creating layer pool_fusion
I0612 16:38:00.187996  3329 net.cpp:99] Creating Layer pool_fusion
I0612 16:38:00.187999  3329 net.cpp:480] pool_fusion <- reshape_fc
I0612 16:38:00.188004  3329 net.cpp:130] This layer is inheriting previous layer's sync mode: 1
I0612 16:38:00.188006  3329 net.cpp:436] pool_fusion -> pool_fc
I0612 16:38:00.188011  3329 net.cpp:163] Setting up pool_fusion
I0612 16:38:00.188874  3329 net.cpp:170] Top shape: 1 1 1 400 (400)
I0612 16:38:00.188885  3329 layer_factory.hpp:74] Creating layer pool_fc_pool_fusion_0_split
I0612 16:38:00.188891  3329 net.cpp:99] Creating Layer pool_fc_pool_fusion_0_split
I0612 16:38:00.188895  3329 net.cpp:480] pool_fc_pool_fusion_0_split <- pool_fc
I0612 16:38:00.188899  3329 net.cpp:130] This layer is inheriting previous layer's sync mode: 1
I0612 16:38:00.188905  3329 net.cpp:436] pool_fc_pool_fusion_0_split -> pool_fc_pool_fusion_0_split_0
I0612 16:38:00.188910  3329 net.cpp:436] pool_fc_pool_fusion_0_split -> pool_fc_pool_fusion_0_split_1
I0612 16:38:00.188915  3329 net.cpp:436] pool_fc_pool_fusion_0_split -> pool_fc_pool_fusion_0_split_2
I0612 16:38:00.188920  3329 net.cpp:163] Setting up pool_fc_pool_fusion_0_split
I0612 16:38:00.188925  3329 net.cpp:170] Top shape: 1 1 1 400 (400)
I0612 16:38:00.188930  3329 net.cpp:170] Top shape: 1 1 1 400 (400)
I0612 16:38:00.188932  3329 net.cpp:170] Top shape: 1 1 1 400 (400)
I0612 16:38:00.188935  3329 layer_factory.hpp:74] Creating layer loss
I0612 16:38:00.188941  3329 net.cpp:99] Creating Layer loss
I0612 16:38:00.188944  3329 net.cpp:480] loss <- pool_fc_pool_fusion_0_split_0
I0612 16:38:00.188948  3329 net.cpp:480] loss <- label_data_1_split_0
I0612 16:38:00.188951  3329 net.cpp:130] This layer is inheriting previous layer's sync mode: 1
I0612 16:38:00.188956  3329 net.cpp:436] loss -> loss
…
