…
  phase: TRAIN
}
layer {
  name: "data"
  type: "VideoData"
  top: "data"
  top: "label"
  include {
    phase: TRAIN
  }
  transform_param {
    mirror: true
    crop_size: 224
    mean_value: 128
    multi_scale: true
    scale_ratios: 1
    scale_ratios: 0.875
    scale_ratios: 0.75
    max_distort: 1
  }
  video_data_param {
    source: "/home/bwzhang/kinetics_train_list_of.txt"
    batch_size: 22
    shuffle: true
    new_height: 256
    new_width: 340
    new_length: 8
    num_segments: 2
    modality: FLOW
    name_pattern: "%c_%05d.jpg"
    length_first: true
  }
}
layer {
  type: "Reshape"
  bottom: "data"
  top: "data_reshape"
  reshape_param {
    shape {
      dim: -1
      dim: 2
      dim: 8
      dim: 224
      dim: 224
    }
  }
}
layer {
  name: "conv1/7x7_s2_2d"
  type: "Convolution"
  bottom: "data_reshape"
  top: "conv1/7x7_s2"
  param {
    lr_mult: 1
    decay_mult: 1
  }
  param {
    lr_mult: 2
    decay_mult: 0
  }
  convolution_param {
    num_output: 64
    pad: 0
    pad: 3
    pad: 3
    kernel_size: 1
    kernel_size: 7
    kernel_size: 7
    stride: 1
    stride: 2
    stride: 2
    weight_filler {
      type: "xavier"
    }
    bias_filler {
      type: "constant"
      value: 0.2
    }
  }
}
layer {
  name: "conv1/7x7_s2_bn"
  type: "BN"
  bottom: "conv1/7x7_s2"
  top: "conv1/7x7_s2_bn"
  param {
    lr_mult: 1
    decay_mult: 0
  }
  param {
    lr_mult: 1
    decay_mult: 0
  }
  bn_param {
    slope_filler {
      type: "constant"
      value: 1
    }
    bias_filler {
      type: "constant"
      value: 0
    }
    frozen: false
    engine: CUDNN
  }
}
layer {
  name: "conv1/relu_7x7"
  type: "ReLU"
  bottom: "conv1/7x7_s2_bn"
  top: "conv1/7x7_s2_bn"
}
layer {
  name: "pool1/3x3_s2_2d"
  type: "Pooling"
  bottom: "conv1/7x7_s2_bn"
  top: "pool1/3x3_s2"
  pooling_param {
    pool: MAX
    kernel_size: 1
    kernel_size: 3
    kernel_size: 3
    stride: 1
    stride: 2
    stride: 2
  }
}
layer {
  name: "conv2/3x3_reduce_2d"
  type: "Convolution"
  bottom: "pool1/3x3_s2"
  top: "conv2/3x3_reduce"
  param {
    lr_mult: 1
    decay_mult: 1
  }
  param {
    lr_mult: 2
    decay_mult: 0
  }
  convolution_param {
    num_output: 64
    kernel_size: 1
    kernel_size: 1
    kernel_size: 1
    weight_filler {
      type: "xavier"
    }
    bias_filler {
      type: "constant"
      value: 0.2
    }
  }
}
layer {
  name: "conv2/3x3_reduce_bn"
  type: "BN"
  bottom: "conv2/3x3_reduce"
  top: "conv2/3x3_reduce_bn"
  param {
    lr_mult: 1
    decay_mult: 0
  }
  param {
    lr_mult: 1
    decay_mult: 0
  }
  bn_param {
    slope_filler {
      type: "constant"
      value: 1
    }
    bias_filler {
      type: "constant"
      value: 0
    }
    frozen: false
  }
}
layer {
  name: "conv2/relu_3x3_reduce"
  type: "ReLU"
  bottom: "conv2/3x3_reduce_bn"
  top: "conv2/3x3_reduce_bn"
}
layer {
  name: "conv2/3x3_2d"
  type: "Convolution"
  bottom: "conv2/3x3_reduce_bn"
  top: "conv2/3x3"
  param {
    lr_mult: 1
    decay_mult: 1
  }
  param {
    lr_mult: 2
    decay_mult: 0
  }
  convolution_param {
    num_output: 192
    pad: 0
    pad: 1
    pad: 1
    kernel_size: 1
    kernel_size: 3
    kernel_size: 3
    weight_filler {
      type: "xavier"
    }
    bias_filler {
      type: "constant"
      value: 0.2
    }
  }
}
layer {
  name: "conv2/3x3_bn"
  type: "BN"
  bottom: "conv2/3x3"
  top: "conv2/3x3_bn"
  param {
    lr_mult: 1
    decay_mult: 0
  }
  param {
    lr_mult: 1
    decay_mult: 0
  }
  bn_param {
    slope_filler {
      type: "constant"
      value: 1
    }
    bias_filler {
      type: "constant"
      value: 0
    }
    frozen: false
  }
}
layer {
  name: "conv2/relu_3x3"
  type: "ReLU"
  bottom: "conv2/3x3_bn"
  top: "conv2/3x3_bn"
}
layer {
  name: "pool2/3x3_s2_2d"
  type: "Pooling"
  bottom: "conv2/3x3_bn"
  top: "pool2/3x3_s2"
  pooling_param {
    pool: MAX
    kernel_size: 2
    kernel_size: 3
    kernel_size: 3
    stride: 2
    stride: 2
    stride: 2
  }
}
layer {
  name: "inception_3a/1x1_2d"
  type: "Convolution"
  bottom: "pool2/3x3_s2"
  top: "inception_3a/1x1"
  param {
    lr_mult: 1
    decay_mult: 1
  }
  param {
    lr_mult: 2
    decay_mult: 0
  }
  convolution_param {
    num_output: 64
    kernel_size: 1
    kernel_size: 1
    kernel_size: 1
    weight_filler {
      type: "xavier"
    }
    bias_filler {
      type: "constant"
      value: 0.2
    }
  }
}
layer {
  name: "inception_3a/1x1_bn"
  type: "BN"
  bottom: "inception_3a/1x1"
  top: "inception_3a/1x1_bn"
  param {
    lr_mult: 1
    decay_mult: 0
  }
  param {
    lr_mult: 1
    decay_mult: 0
  }
  bn_param {
    slope_filler {
      type: "constant"
      value: 1
    }
    bias_filler {
      type: "constant"
      value: 0
    }
    frozen: false
  }
}
layer {
  name: "inception_3a/relu_1x1"
  type: "ReLU"
  bottom: "inception_3a/1x1_bn"
  top: "inception_3a/1x1_bn"
}
layer {
  name: "inception_3a/3x3_reduce_2d"
  type: "Convolution"
  bottom: "pool2/3x3_s2"
  top: "inception_3a/3x3_reduce"
  param {
    lr_mult: 1
    decay_mult: 1
  }
  param {
    lr_mult: 2
    decay_mult: 0
  }
  convolution_param {
    num_output: 64
    kernel_size: 1
    kernel_size: 1
    kernel_size: 1
    weight_filler {
      type: "xavier"
    }
    bias_filler {
      type: "constant"
      value: 0.2
    }
  }
}
layer {
  name: "inception_3a/3x3_reduce_bn"
  type: "BN"
  bottom: "inception_3a/3x3_reduce"
  top: "inception_3a/3x3_reduce_bn"
  param {
    lr_mult: 1
    decay_mult: 0
  }
  param {
    lr_mult: 1
    decay_mult: 0
  }
  bn_param {
    slope_filler {
      type: "constant"
      value: 1
    }
    bias_filler {
      type: "constant"
      value: 0
    }
    frozen: false
  }
}
layer {
  name: "inception_3a/relu_3x3_reduce"
  type: "ReLU"
  bottom: "inception_3a/3x3_reduce_bn"
  top: "inception_3a/3x3_reduce_bn"
}
layer {
  name: "inception_3a/3x3_2d"
  type: "Convolution"
  bottom: "inception_3a/3x3_reduce_bn"
  top: "inception_3a/3x3"
  param {
    lr_mult: 1
    decay_mult: 1
  }
  param {
    lr_mult: 2
    decay_mult: 0
  }
  convolution_param {
    num_output: 64
    pad: 0
    pad: 1
    pad: 1
    kernel_size: 1
    kernel_size: 3
    kernel_size: 3
    weight_filler {
      type: "xavier"
    }
    bias_filler {
      type: "constant"
      value: 0.2
    }
  }
}
layer {
  name: "inception_3a/3x3_bn"
  type: "BN"
  bottom: "inception_3a/3x3"
  top: "inception_3a/3x3_bn"
  param {
    lr_mult: 1
    decay_mult: 0
  }
  param {
    lr_mult: 1
    decay_mult: 0
  }
  bn_param {
    slope_filler {
      type: "constant"
      value: 1
    }
    bias_filler {
      type: "constant"
      value: 0
    }
    frozen: false
  }
}
layer {
  name: "inception_3a/relu_3x3"
  type: "ReLU"
  bottom: "inception_3a/3x3_bn"
  top: "inception_3a/3x3_bn"
}
layer {
  name: "inception_3a/double_3x3_reduce_2d"
  type: "Convolution"
  bottom: "pool2/3x3_s2"
  top: "inception_3a/double_3x3_reduce"
  param {
    lr_mult: 1
    decay_mult: 1
  }
  param {
    lr_mult: 2
    decay_mult: 0
  }
  convolution_param {
    num_output: 64
    kernel_size: 1
    kernel_size: 1
    kernel_size: 1
    weight_filler {
      type: "xavier"
    }
    bias_filler {
      type: "constant"
      value: 0.2
    }
  }
}
layer {
  name: "inception_3a/double_3x3_reduce_bn"
  type: "BN"
  bottom: "inception_3a/double_3x3_reduce"
  top: "inception_3a/double_3x3_reduce_bn"
  param {
    lr_mult: 1
    decay_mult: 0
  }
  param {
    lr_mult: 1
    decay_mult: 0
  }
  bn_param {
    slope_filler {
      type: "constant"
      value: 1
    }
    bias_filler {
      type: "constant"
      value: 0
    }
    frozen: false
  }
}
layer {
  name: "inception_3a/relu_double_3x3_reduce"
  type: "ReLU"
  bottom: "inception_3a/double_3x3_reduce_bn"
  top: "inception_3a/double_3x3_reduce_bn"
}
layer {
  name: "inception_3a/double_3x3_1_2d"
  type: "Convolution"
  bottom: "inception_3a/double_3x3_reduce_bn"
  top: "inception_3a/double_3x3_1"
  param {
    lr_mult: 1
    decay_mult: 1
  }
  param {
    lr_mult: 2
    decay_mult: 0
  }
  convolution_param {
    num_output: 96
    pad: 0
    pad: 1
    pad: 1
    kernel_size: 1
    kernel_size: 3
    kernel_size: 3
    weight_filler {
      type: "xavier"
    }
    bias_filler {
      type: "constant"
      value: 0.2
    }
  }
}
layer {
  name: "inception_3a/double_3x3_1_bn"
  type: "BN"
  bottom: "inception_3a/double_3x3_1"
  top: "inception_3a/double_3x3_1_bn"
  param {
    lr_mult: 1
    decay_mult: 0
  }
  param {
    lr_mult: 1
    decay_mult: 0
  }
  bn_param {
    slope_filler {
      type: "constant"
      value: 1
    }
    bias_filler {
      type: "constant"
      value: 0
    }
    frozen: false
  }
}
layer {
  name: "inception_3a/relu_double_3x3_1"
  type: "ReLU"
  bottom: "inception_3a/double_3x3_1_bn"
  top: "inception_3a/double_3x3_1_bn"
}
layer {
  name: "inception_3a/double_3x3_2_2d"
  type: "Convolution"
  bottom: "inception_3a/double_3x3_1_bn"
  top: "inception_3a/double_3x3_2"
  param {
    lr_mult: 1
    decay_mult: 1
  }
  param {
    lr_mult: 2
    decay_mult: 0
  }
  convolution_param {
    num_output: 96
    pad: 0
    pad: 1
    pad: 1
    kernel_size: 1
    kernel_size: 3
    kernel_size: 3
    weight_filler {
      type: "xavier"
    }
    bias_filler {
      type: "constant"
      value: 0.2
    }
  }
}
layer {
  name: "inception_3a/double_3x3_2_bn"
  type: "BN"
  bottom: "inception_3a/double_3x3_2"
  top: "inception_3a/double_3x3_2_bn"
  param {
    lr_mult: 1
    decay_mult: 0
  }
  param {
    lr_mult: 1
    decay_mult: 0
  }
  bn_param {
    slope_filler {
      type: "constant"
      value: 1
    }
    bias_filler {
      type: "constant"
      value: 0
    }
    frozen: false
  }
}
layer {
  name: "inception_3a/relu_double_3x3_2"
  type: "ReLU"
  bottom: "inception_3a/double_3x3_2_bn"
  top: "inception_3a/double_3x3_2_bn"
}
layer {
  name: "inception_3a/pool_2d"
  type: "Pooling"
  bottom: "pool2/3x3_s2"
  top: "inception_3a/pool"
  pooling_param {
    pool: AVE
    kernel_size: 1
    kernel_size: 3
    kernel_size: 3
    stride: 1
    stride: 1
    stride: 1
    pad: 0
    pad: 1
    pad: 1
  }
}
layer {
  name: "inception_3a/pool_proj_2d"
  type: "Convolution"
  bottom: "inception_3a/pool"
  top: "inception_3a/pool_proj"
  param {
    lr_mult: 1
    decay_mult: 1
  }
  param {
    lr_mult: 2
    decay_mult: 0
  }
  convolution_param {
    num_output: 32
    kernel_size: 1
    kernel_size: 1
    kernel_size: 1
    weight_filler {
      type: "xavier"
    }
    bias_filler {
      type: "constant"
      value: 0.2
    }
  }
}
layer {
  name: "inception_3a/pool_proj_bn"
  type: "BN"
  bottom: "inception_3a/pool_proj"
  top: "inception_3a/pool_proj_bn"
  param {
    lr_mult: 1
    decay_mult: 0
  }
  param {
    lr_mult: 1
    decay_mult: 0
  }
  bn_param {
    slope_filler {
      type: "constant"
      value: 1
    }
    bias_filler {
      type: "constant"
      value: 0
    }
    frozen: false
  }
}
layer {
  name: "inception_3a/relu_pool_proj"
  type: "ReLU"
  bottom: "inception_3a/pool_proj_bn"
  top: "inception_3a/pool_proj_bn"
}
layer {
  name: "inception_3a/output"
  type: "Concat"
  bottom: "inception_3a/1x1_bn"
  bottom: "inception_3a/3x3_bn"
  bottom: "inception_3a/double_3x3_2_bn"
  bottom: "inception_3a/pool_proj_bn"
  top: "inception_3a/output"
}
layer {
  name: "inception_3b/1x1_2d"
  type: "Convolution"
  bottom: "inception_3a/output"
  top: "inception_3b/1x1"
  param {
    lr_mult: 1
    decay_mult: 1
  }
  param {
    lr_mult: 2
    decay_mult: 0
  }
  convolution_param {
    num_output: 64
    kernel_size: 1
    kernel_size: 1
    kernel_size: 1
    weight_filler {
      type: "xavier"
    }
    bias_filler {
      type: "constant"
      value: 0.2
    }
  }
}
layer {
  name: "inception_3b/1x1_bn"
  type: "BN"
  bottom: "inception_3b/1x1"
  top: "inception_3b/1x1_bn"
  param {
    lr_mult: 1
    decay_mult: 0
  }
  param {
    lr_mult: 1
    decay_mult: 0
  }
  bn_param {
    slope_filler {
      type: "constant"
      value: 1
    }
    bias_filler {
      type: "constant"
      value: 0
    }
    frozen: false
  }
}
layer {
  name: "inception_3b/relu_1x1"
  type: "ReLU"
  bottom: "inception_3b/1x1_bn"
  top: "inception_3b/1x1_bn"
}
layer {
  name: "inception_3b/3x3_reduce_2d"
  type: "Convolution"
  bottom: "inception_3a/output"
  top: "inception_3b/3x3_reduce"
  param {
    lr_mult: 1
    decay_mult: 1
  }
  param {
    lr_mult: 2
    decay_mult: 0
  }
  convolution_param {
    num_output: 64
    kernel_size: 1
    kernel_size: 1
    kernel_size: 1
    weight_filler {
      type: "xavier"
    }
    bias_filler {
      type: "constant"
      value: 0.2
    }
  }
}
layer {
  name: "inception_3b/3x3_reduce_bn"
  type: "BN"
  bottom: "inception_3b/3x3_reduce"
  top: "inception_3b/3x3_reduce_bn"
  param {
    lr_mult: 1
    decay_mult: 0
  }
  param {
    lr_mult: 1
    decay_mult: 0
  }
  bn_param {
    slope_filler {
      type: "constant"
      value: 1
    }
    bias_filler {
      type: "constant"
      value: 0
    }
    frozen: false
  }
}
layer {
  name: "inception_3b/relu_3x3_reduce"
  type: "ReLU"
  bottom: "inception_3b/3x3_reduce_bn"
  top: "inception_3b/3x3_reduce_bn"
}
layer {
  name: "inception_3b/3x3_2d"
  type: "Convolution"
  bottom: "inception_3b/3x3_reduce_bn"
  top: "inception_3b/3x3"
  param {
    lr_mult: 1
    decay_mult: 1
  }
  param {
    lr_mult: 2
    decay_mult: 0
  }
  convolution_param {
    num_output: 96
    pad: 0
    pad: 1
    pad: 1
    kernel_size: 1
    kernel_size: 3
    kernel_size: 3
    weight_filler {
      type: "xavier"
    }
    bias_filler {
      type: "constant"
      value: 0.2
    }
  }
}
layer {
  name: "inception_3b/3x3_bn"
  type: "BN"
  bottom: "inception_3b/3x3"
  top: "inception_3b/3x3_bn"
  param {
    lr_mult: 1
    decay_mult: 0
  }
  param {
    lr_mult: 1
    decay_mult: 0
  }
  bn_param {
    slope_filler {
      type: "constant"
      value: 1
    }
    bias_filler {
      type: "constant"
      value: 0
    }
    frozen: false
  }
}
layer {
  name: "inception_3b/relu_3x3"
  type: "ReLU"
  bottom: "inception_3b/3x3_bn"
  top: "inception_3b/3x3_bn"
}
layer {
  name: "inception_3b/double_3x3_reduce_2d"
  type: "Convolution"
  bottom: "inception_3a/output"
  top: "inception_3b/double_3x3_reduce"
  param {
    lr_mult: 1
    decay_mult: 1
  }
  param {
    lr_mult: 2
    decay_mult: 0
  }
  convolution_param {
    num_output: 64
    kernel_size: 1
    kernel_size: 1
    kernel_size: 1
    weight_filler {
      type: "xavier"
    }
    bias_filler {
      type: "constant"
      value: 0.2
    }
  }
}
layer {
  name: "inception_3b/double_3x3_reduce_bn"
  type: "BN"
  bottom: "inception_3b/double_3x3_reduce"
  top: "inception_3b/double_3x3_reduce_bn"
  param {
    lr_mult: 1
    decay_mult: 0
  }
  param {
    lr_mult: 1
    decay_mult: 0
  }
  bn_param {
    slope_filler {
      type: "constant"
      value: 1
    }
    bias_filler {
      type: "constant"
      value: 0
    }
    frozen: false
  }
}
layer {
  name: "inception_3b/relu_double_3x3_reduce"
  type: "ReLU"
  bottom: "inception_3b/double_3x3_reduce_bn"
  top: "inception_3b/double_3x3_reduce_bn"
}
layer {
  name: "inception_3b/double_3x3_1_2d"
  type: "Convolution"
  bottom: "inception_3b/double_3x3_reduce_bn"
  top: "inception_3b/double_3x3_1"
  param {
    lr_mult: 1
    decay_mult: 1
  }
  param {
    lr_mult: 2
    decay_mult: 0
  }
  convolution_param {
    num_output: 96
    pad: 0
    pad: 1
    pad: 1
    kernel_size: 1
    kernel_size: 3
    kernel_size: 3
    weight_filler {
      type: "xavier"
    }
    bias_filler {
      type: "constant"
      value: 0.2
    }
  }
}
layer {
  name: "inception_3b/double_3x3_1_bn"
  type: "BN"
  bottom: "inception_3b/double_3x3_1"
  top: "inception_3b/double_3x3_1_bn"
  param {
    lr_mult: 1
    decay_mult: 0
  }
  param {
    lr_mult: 1
    decay_mult: 0
  }
  bn_param {
    slope_filler {
      type: "constant"
      value: 1
    }
    bias_filler {
      type: "constant"
      value: 0
    }
    frozen: false
  }
}
layer {
  name: "inception_3b/relu_double_3x3_1"
  type: "ReLU"
  bottom: "inception_3b/double_3x3_1_bn"
  top: "inception_3b/double_3x3_1_bn"
}
layer {
  name: "inception_3b/double_3x3_2_2d"
  type: "Convolution"
  bottom: "inception_3b/double_3x3_1_bn"
  top: "inception_3b/double_3x3_2"
  param {
    lr_mult: 1
    decay_mult: 1
  }
  param {
    lr_mult: 2
    decay_mult: 0
  }
  convolution_param {
    num_output: 96
    pad: 0
    pad: 1
    pad: 1
    kernel_size: 1
    kernel_size: 3
    kernel_size: 3
    weight_filler {
      type: "xavier"
    }
    bias_filler {
      type: "constant"
      value: 0.2
    }
  }
}
layer {
  name: "inception_3b/double_3x3_2_bn"
  type: "BN"
  bottom: "inception_3b/double_3x3_2"
  top: "inception_3b/double_3x3_2_bn"
  param {
    lr_mult: 1
    decay_mult: 0
  }
  param {
    lr_mult: 1
    decay_mult: 0
  }
  bn_param {
    slope_filler {
      type: "constant"
      value: 1
    }
    bias_filler {
      type: "constant"
      value: 0
    }
    frozen: false
  }
}
layer {
  name: "inception_3b/relu_double_3x3_2"
  type: "ReLU"
  bottom: "inception_3b/double_3x3_2_bn"
  top: "inception_3b/double_3x3_2_bn"
}
layer {
  name: "inception_3b/pool_2d"
  type: "Pooling"
  bottom: "inception_3a/output"
  top: "inception_3b/pool"
  pooling_param {
    pool: AVE
    kernel_size: 1
    kernel_size: 3
    kernel_size: 3
    stride: 1
    stride: 1
    stride: 1
    pad: 0
    pad: 1
    pad: 1
  }
}
layer {
  name: "inception_3b/pool_proj_2d"
  type: "Convolution"
  bottom: "inception_3b/pool"
  top: "inception_3b/pool_proj"
  param {
    lr_mult: 1
    decay_mult: 1
  }
  param {
    lr_mult: 2
    decay_mult: 0
  }
  convolution_param {
    num_output: 64
    kernel_size: 1
    kernel_size: 1
    kernel_size: 1
    weight_filler {
      type: "xavier"
    }
    bias_filler {
      type: "constant"
      value: 0.2
    }
  }
}
layer {
  name: "inception_3b/pool_proj_bn"
  type: "BN"
  bottom: "inception_3b/pool_proj"
  top: "inception_3b/pool_proj_bn"
  param {
    lr_mult: 1
    decay_mult: 0
  }
  param {
    lr_mult: 1
    decay_mult: 0
  }
  bn_param {
    slope_filler {
      type: "constant"
      value: 1
    }
    bias_filler {
      type: "constant"
      value: 0
    }
    frozen: false
  }
}
layer {
  name: "inception_3b/relu_pool_proj"
  type: "ReLU"
  bottom: "inception_3b/pool_proj_bn"
  top: "inception_3b/pool_proj_bn"
}
layer {
  name: "inception_3b/output"
  type: "Concat"
  bottom: "inception_3b/1x1_bn"
  bottom: "inception_3b/3x3_bn"
  bottom: "inception_3b/double_3x3_2_bn"
  bottom: "inception_3b/pool_proj_bn"
  top: "inception_3b/output"
}
layer {
  name: "inception_3c/3x3_reduce_2d"
  type: "Convolution"
  bottom: "inception_3b/output"
  top: "inception_3c/3x3_reduce"
  param {
    lr_mult: 1
    decay_mult: 1
  }
  param {
    lr_mult: 2
    decay_mult: 0
  }
  convolution_param {
    num_output: 128
    kernel_size: 1
    kernel_size: 1
    kernel_size: 1
    weight_filler {
      type: "xavier"
    }
    bias_filler {
      type: "constant"
      value: 0.2
    }
  }
}
layer {
  name: "inception_3c/3x3_reduce_bn"
  type: "BN"
  bottom: "inception_3c/3x3_reduce"
  top: "inception_3c/3x3_reduce_bn"
  param {
    lr_mult: 1
    decay_mult: 0
  }
  param {
    lr_mult: 1
    decay_mult: 0
  }
  bn_param {
    slope_filler {
      type: "constant"
      value: 1
    }
    bias_filler {
      type: "constant"
      value: 0
    }
    frozen: false
  }
}
layer {
  name: "inception_3c/relu_3x3_reduce"
  type: "ReLU"
  bottom: "inception_3c/3x3_reduce_bn"
  top: "inception_3c/3x3_reduce_bn"
}
layer {
  name: "inception_3c/3x3_2d"
  type: "Convolution"
  bottom: "inception_3c/3x3_reduce_bn"
  top: "inception_3c/3x3"
  param {
    lr_mult: 1
    decay_mult: 1
  }
  param {
    lr_mult: 2
    decay_mult: 0
  }
  convolution_param {
    num_output: 160
    pad: 0
    pad: 1
    pad: 1
    kernel_size: 1
    kernel_size: 3
    kernel_size: 3
    stride: 1
    stride: 2
    stride: 2
    weight_filler {
      type: "xavier"
    }
    bias_filler {
      type: "constant"
      value: 0.2
    }
  }
}
layer {
  name: "inception_3c/3x3_bn"
  type: "BN"
  bottom: "inception_3c/3x3"
  top: "inception_3c/3x3_bn"
  param {
    lr_mult: 1
    decay_mult: 0
  }
  param {
    lr_mult: 1
    decay_mult: 0
  }
  bn_param {
    slope_filler {
      type: "constant"
      value: 1
    }
    bias_filler {
      type: "constant"
      value: 0
    }
    frozen: false
  }
}
layer {
  name: "inception_3c/relu_3x3"
  type: "ReLU"
  bottom: "inception_3c/3x3_bn"
  top: "inception_3c/3x3_bn"
}
layer {
  name: "inception_3c/double_3x3_reduce_2d"
  type: "Convolution"
  bottom: "inception_3b/output"
  top: "inception_3c/double_3x3_reduce"
  param {
    lr_mult: 1
    decay_mult: 1
  }
  param {
    lr_mult: 2
    decay_mult: 0
  }
  convolution_param {
    num_output: 64
    kernel_size: 1
    kernel_size: 1
    kernel_size: 1
    weight_filler {
      type: "xavier"
    }
    bias_filler {
      type: "constant"
      value: 0.2
    }
  }
}
layer {
  name: "inception_3c/double_3x3_reduce_bn"
  type: "BN"
  bottom: "inception_3c/double_3x3_reduce"
  top: "inception_3c/double_3x3_reduce_bn"
  param {
    lr_mult: 1
    decay_mult: 0
  }
  param {
    lr_mult: 1
    decay_mult: 0
  }
  bn_param {
    slope_filler {
      type: "constant"
      value: 1
    }
    bias_filler {
      type: "constant"
      value: 0
    }
    frozen: false
  }
}
layer {
  name: "inception_3c/relu_double_3x3_reduce"
  type: "ReLU"
  bottom: "inception_3c/double_3x3_reduce_bn"
  top: "inception_3c/double_3x3_reduce_bn"
}
layer {
  name: "inception_3c/double_3x3_1_2d"
  type: "Convolution"
  bottom: "inception_3c/double_3x3_reduce_bn"
  top: "inception_3c/double_3x3_1"
  param {
    lr_mult: 1
    decay_mult: 1
  }
  param {
    lr_mult: 2
    decay_mult: 0
  }
  convolution_param {
    num_output: 96
    pad: 0
    pad: 1
    pad: 1
    kernel_size: 1
    kernel_size: 3
    kernel_size: 3
    weight_filler {
      type: "xavier"
    }
    bias_filler {
      type: "constant"
      value: 0.2
    }
  }
}
layer {
  name: "inception_3c/double_3x3_1_bn"
  type: "BN"
  bottom: "inception_3c/double_3x3_1"
  top: "inception_3c/double_3x3_1_bn"
  param {
    lr_mult: 1
    decay_mult: 0
  }
  param {
    lr_mult: 1
    decay_mult: 0
  }
  bn_param {
    slope_filler {
      type: "constant"
      value: 1
    }
    bias_filler {
      type: "constant"
      value: 0
    }
    frozen: false
  }
}
layer {
  name: "inception_3c/relu_double_3x3_1"
  type: "ReLU"
  bottom: "inception_3c/double_3x3_1_bn"
  top: "inception_3c/double_3x3_1_bn"
}
layer {
  name: "inception_3c/double_3x3_2_2d"
  type: "Convolution"
  bottom: "inception_3c/double_3x3_1_bn"
  top: "inception_3c/double_3x3_2"
  param {
    lr_mult: 1
    decay_mult: 1
  }
  param {
    lr_mult: 2
    decay_mult: 0
  }
  convolution_param {
    num_output: 96
    pad: 0
    pad: 1
    pad: 1
    kernel_size: 1
    kernel_size: 3
    kernel_size: 3
    stride: 1
    stride: 2
    stride: 2
    weight_filler {
      type: "xavier"
    }
    bias_filler {
      type: "constant"
      value: 0.2
    }
  }
}
layer {
  name: "inception_3c/double_3x3_2_bn"
  type: "BN"
  bottom: "inception_3c/double_3x3_2"
  top: "inception_3c/double_3x3_2_bn"
  param {
    lr_mult: 1
    decay_mult: 0
  }
  param {
    lr_mult: 1
    decay_mult: 0
  }
  bn_param {
    slope_filler {
      type: "constant"
      value: 1
    }
    bias_filler {
      type: "constant"
      value: 0
    }
    frozen: false
  }
}
layer {
  name: "inception_3c/relu_double_3x3_2"
  type: "ReLU"
  bottom: "inception_3c/double_3x3_2_bn"
  top: "inception_3c/double_3x3_2_bn"
}
layer {
  name: "inception_3c/pool_2d"
  type: "Pooling"
  bottom: "inception_3b/output"
  top: "inception_3c/pool"
  pooling_param {
    pool: MAX
    kernel_size: 1
    kernel_size: 3
    kernel_size: 3
    stride: 1
    stride: 2
    stride: 2
  }
}
layer {
  name: "inception_3c/output"
  type: "Concat"
  bottom: "inception_3c/3x3_bn"
  bottom: "inception_3c/double_3x3_2_bn"
  bottom: "inception_3c/pool"
  top: "inception_3c/output_1"
}
layer {
  name: "pool_3c"
  type: "Pooling"
  bottom: "inception_3c/output_1"
  top: "inception_3c/output"
  pooling_param {
    pool: MAX
    kernel_size: 2
    kernel_size: 1
    kernel_size: 1
    stride: 2
    stride: 1
    stride: 1
  }
}
layer {
  name: "inception_4a/1x1_2d"
  type: "Convolution"
  bottom: "inception_3c/output"
  top: "inception_4a/1x1"
  param {
    lr_mult: 1
    decay_mult: 1
  }
  param {
    lr_mult: 2
    decay_mult: 0
  }
  convolution_param {
    num_output: 224
    kernel_size: 1
    kernel_size: 1
    kernel_size: 1
    weight_filler {
      type: "xavier"
    }
    bias_filler {
      type: "constant"
      value: 0.2
    }
  }
}
layer {
  name: "inception_4a/1x1_bn"
  type: "BN"
  bottom: "inception_4a/1x1"
  top: "inception_4a/1x1_bn"
  param {
    lr_mult: 1
    decay_mult: 0
  }
  param {
    lr_mult: 1
    decay_mult: 0
  }
  bn_param {
    slope_filler {
      type: "constant"
      value: 1
    }
    bias_filler {
      type: "constant"
      value: 0
    }
    frozen: false
  }
}
layer {
  name: "inception_4a/relu_1x1"
  type: "ReLU"
  bottom: "inception_4a/1x1_bn"
  top: "inception_4a/1x1_bn"
}
layer {
  name: "inception_4a/3x3_reduce_2d"
  type: "Convolution"
  bottom: "inception_3c/output"
  top: "inception_4a/3x3_reduce"
  param {
    lr_mult: 1
    decay_mult: 1
  }
  param {
    lr_mult: 2
    decay_mult: 0
  }
  convolution_param {
    num_output: 64
    kernel_size: 1
    kernel_size: 1
    kernel_size: 1
    weight_filler {
      type: "xavier"
    }
    bias_filler {
      type: "constant"
      value: 0.2
    }
  }
}
layer {
  name: "inception_4a/3x3_reduce_bn"
  type: "BN"
  bottom: "inception_4a/3x3_reduce"
  top: "inception_4a/3x3_reduce_bn"
  param {
    lr_mult: 1
    decay_mult: 0
  }
  param {
    lr_mult: 1
    decay_mult: 0
  }
  bn_param {
    slope_filler {
      type: "constant"
      value: 1
    }
    bias_filler {
      type: "constant"
      value: 0
    }
    frozen: false
  }
}
layer {
  name: "inception_4a/relu_3x3_reduce"
  type: "ReLU"
  bottom: "inception_4a/3x3_reduce_bn"
  top: "inception_4a/3x3_reduce_bn"
}
layer {
  name: "inception_4a/3x3_2d"
  type: "Convolution"
  bottom: "inception_4a/3x3_reduce_bn"
  top: "inception_4a/3x3"
  param {
    lr_mult: 1
    decay_mult: 1
  }
  param {
    lr_mult: 2
    decay_mult: 0
  }
  convolution_param {
    num_output: 96
    pad: 0
    pad: 1
    pad: 1
    kernel_size: 1
    kernel_size: 3
    kernel_size: 3
    weight_filler {
      type: "xavier"
    }
    bias_filler {
      type: "constant"
      value: 0.2
    }
  }
}
layer {
  name: "inception_4a/3x3_bn"
  type: "BN"
  bottom: "inception_4a/3x3"
  top: "inception_4a/3x3_bn"
  param {
    lr_mult: 1
    decay_mult: 0
  }
  param {
    lr_mult: 1
    decay_mult: 0
  }
  bn_param {
    slope_filler {
      type: "constant"
      value: 1
    }
    bias_filler {
      type: "constant"
      value: 0
    }
    frozen: false
  }
}
layer {
  name: "inception_4a/relu_3x3"
  type: "ReLU"
  bottom: "inception_4a/3x3_bn"
  top: "inception_4a/3x3_bn"
}
layer {
  name: "inception_4a/double_3x3_reduce_2d"
  type: "Convolution"
  bottom: "inception_3c/output"
  top: "inception_4a/double_3x3_reduce"
  param {
    lr_mult: 1
    decay_mult: 1
  }
  param {
    lr_mult: 2
    decay_mult: 0
  }
  convolution_param {
    num_output: 96
    kernel_size: 1
    kernel_size: 1
    kernel_size: 1
    weight_filler {
      type: "xavier"
    }
    bias_filler {
      type: "constant"
      value: 0.2
    }
  }
}
layer {
  name: "inception_4a/double_3x3_reduce_bn"
  type: "BN"
  bottom: "inception_4a/double_3x3_reduce"
  top: "inception_4a/double_3x3_reduce_bn"
  param {
    lr_mult: 1
    decay_mult: 0
  }
  param {
    lr_mult: 1
    decay_mult: 0
  }
  bn_param {
    slope_filler {
      type: "constant"
      value: 1
    }
    bias_filler {
      type: "constant"
      value: 0
    }
    frozen: false
  }
}
layer {
  name: "inception_4a/relu_double_3x3_reduce"
  type: "ReLU"
  bottom: "inception_4a/double_3x3_reduce_bn"
  top: "inception_4a/double_3x3_reduce_bn"
}
layer {
  name: "inception_4a/double_3x3_1_2d"
  type: "Convolution"
  bottom: "inception_4a/double_3x3_reduce_bn"
  top: "inception_4a/double_3x3_1"
  param {
    lr_mult: 1
    decay_mult: 1
  }
  param {
    lr_mult: 2
    decay_mult: 0
  }
  convolution_param {
    num_output: 128
    pad: 0
    pad: 1
    pad: 1
    kernel_size: 1
    kernel_size: 3
    kernel_size: 3
    weight_filler {
      type: "xavier"
    }
    bias_filler {
      type: "constant"
      value: 0.2
    }
  }
}
layer {
  name: "inception_4a/double_3x3_1_bn"
  type: "BN"
  bottom: "inception_4a/double_3x3_1"
  top: "inception_4a/double_3x3_1_bn"
  param {
    lr_mult: 1
    decay_mult: 0
  }
  param {
    lr_mult: 1
    decay_mult: 0
  }
  bn_param {
    slope_filler {
      type: "constant"
      value: 1
    }
    bias_filler {
      type: "constant"
      value: 0
    }
    frozen: false
  }
}
layer {
  name: "inception_4a/relu_double_3x3_1"
  type: "ReLU"
  bottom: "inception_4a/double_3x3_1_bn"
  top: "inception_4a/double_3x3_1_bn"
}
layer {
  name: "inception_4a/double_3x3_2_2d"
  type: "Convolution"
  bottom: "inception_4a/double_3x3_1_bn"
  top: "inception_4a/double_3x3_2"
  param {
    lr_mult: 1
    decay_mult: 1
  }
  param {
    lr_mult: 2
    decay_mult: 0
  }
  convolution_param {
    num_output: 128
    pad: 0
    pad: 1
    pad: 1
    kernel_size: 1
    kernel_size: 3
    kernel_size: 3
    weight_filler {
      type: "xavier"
    }
    bias_filler {
      type: "constant"
      value: 0.2
    }
  }
}
layer {
  name: "inception_4a/double_3x3_2_bn"
  type: "BN"
  
I0614 14:57:18.629256  2768 layer_factory.hpp:74] Creating layer data
I0614 14:57:18.629462  2768 net.cpp:99] Creating Layer data
I0614 14:57:18.629483  2768 net.cpp:436] data -> data
I0614 14:57:18.629503  2768 net.cpp:436] data -> label
I0614 14:57:18.629509  2768 net.cpp:163] Setting up data
I0614 14:57:18.631690  2768 video_data_layer.cpp:36] Opening file: /home/bwzhang/kinetics_train_list_of.txt
I0614 14:57:18.775005  2768 video_data_layer.cpp:52] A total of 240436 videos.
I0614 14:57:18.813107  2768 video_data_layer.cpp:110] output data size: 22,32,224,224
I0614 14:57:18.846621  2768 net.cpp:170] Top shape: 22 32 224 224 (35323904)
I0614 14:57:18.846642  2768 net.cpp:170] Top shape: 22 1 1 1 (22)
I0614 14:57:18.846665  2768 layer_factory.hpp:74] Creating layer 
I0614 14:57:18.846710  2768 net.cpp:99] Creating Layer 
I0614 14:57:18.846715  2768 net.cpp:480]  <- data
I0614 14:57:18.846740  2768 net.cpp:130] This layer is inheriting previous layer's sync mode: 1
I0614 14:57:18.846747  2768 net.cpp:436]  -> data_reshape
I0614 14:57:18.846757  2768 net.cpp:163] Setting up 
I0614 14:57:18.846766  2768 net.cpp:170] Top shape: 44 2 8 224 224 (35323904)
I0614 14:57:18.846771  2768 layer_factory.hpp:74] Creating layer conv1/7x7_s2_2d
I0614 14:57:18.846792  2768 net.cpp:99] Creating Layer conv1/7x7_s2_2d
I0614 14:57:18.846796  2768 net.cpp:480] conv1/7x7_s2_2d <- data_reshape
I0614 14:57:18.846799  2768 net.cpp:130] This layer is inheriting previous layer's sync mode: 1
I0614 14:57:18.846804  2768 net.cpp:436] conv1/7x7_s2_2d -> conv1/7x7_s2
I0614 14:57:18.846812  2768 net.cpp:163] Setting up conv1/7x7_s2_2d
I0614 14:57:19.823357  2768 net.cpp:170] Top shape: 44 64 8 112 112 (282591232)
I0614 14:57:19.823410  2768 layer_factory.hpp:74] Creating layer conv1/7x7_s2_bn
I0614 14:57:19.823417  2768 layer_factory.cpp:181] Layer conv1/7x7_s2_bn is using CUDNN engine.
I0614 14:57:19.823428  2768 net.cpp:99] Creating Layer conv1/7x7_s2_bn
I0614 14:57:19.823433  2768 net.cpp:480] conv1/7x7_s2_bn <- conv1/7x7_s2
I0614 14:57:19.823441  2768 net.cpp:130] This layer is inheriting previous layer's sync mode: 1
I0614 14:57:19.823446  2768 net.cpp:436] conv1/7x7_s2_bn -> conv1/7x7_s2_bn
I0614 14:57:19.823457  2768 net.cpp:163] Setting up conv1/7x7_s2_bn
I0614 14:57:19.824352  2768 cudnn_bn_layer.cpp:30] using cuDNN BN engine
I0614 14:57:19.824384  2768 net.cpp:170] Top shape: 44 64 8 112 112 (282591232)
I0614 14:57:19.824396  2768 layer_factory.hpp:74] Creating layer conv1/relu_7x7
I0614 14:57:19.824410  2768 net.cpp:99] Creating Layer conv1/relu_7x7
I0614 14:57:19.824414  2768 net.cpp:480] conv1/relu_7x7 <- conv1/7x7_s2_bn
I0614 14:57:19.824429  2768 net.cpp:130] This layer is inheriting previous layer's sync mode: 1
I0614 14:57:19.824435  2768 net.cpp:425] conv1/relu_7x7 -> conv1/7x7_s2_bn (in-place)
I0614 14:57:19.824440  2768 net.cpp:163] Setting up conv1/relu_7x7
I0614 14:57:19.824960  2768 net.cpp:170] Top shape: 44 64 8 112 112 (282591232)
I0614 14:57:19.824976  2768 layer_factory.hpp:74] Creating layer pool1/3x3_s2_2d
I0614 14:57:19.825001  2768 net.cpp:99] Creating Layer pool1/3x3_s2_2d
I0614 14:57:19.825006  2768 net.cpp:480] pool1/3x3_s2_2d <- conv1/7x7_s2_bn
I0614 14:57:19.825009  2768 net.cpp:130] This layer is inheriting previous layer's sync mode: 1
I0614 14:57:19.825014  2768 net.cpp:436] pool1/3x3_s2_2d -> pool1/3x3_s2
I0614 14:57:19.825019  2768 net.cpp:163] Setting up pool1/3x3_s2_2d
I0614 14:57:19.826560  2768 net.cpp:170] Top shape: 44 64 8 56 56 (70647808)
I0614 14:57:19.826581  2768 layer_factory.hpp:74] Creating layer conv2/3x3_reduce_2d
I0614 14:57:19.826596  2768 net.cpp:99] Creating Layer conv2/3x3_reduce_2d
I0614 14:57:19.826599  2768 net.cpp:480] conv2/3x3_reduce_2d <- pool1/3x3_s2
I0614 14:57:19.826606  2768 net.cpp:130] This layer is inheriting previous layer's sync mode: 1
I0614 14:57:19.826611  2768 net.cpp:436] conv2/3x3_reduce_2d -> conv2/3x3_reduce
I0614 14:57:19.826619  2768 net.cpp:163] Setting up conv2/3x3_reduce_2d
I0614 14:57:20.006417  2768 net.cpp:170] Top shape: 44 64 8 56 56 (70647808)
I0614 14:57:20.006484  2768 layer_factory.hpp:74] Creating layer conv2/3x3_reduce_bn
I0614 14:57:20.006503  2768 layer_factory.cpp:181] Layer conv2/3x3_reduce_bn is using CUDNN engine.
I0614 14:57:20.006520  2768 net.cpp:99] Creating Layer conv2/3x3_reduce_bn
I0614 14:57:20.006525  2768 net.cpp:480] conv2/3x3_reduce_bn <- conv2/3x3_reduce
I0614 14:57:20.006543  2768 net.cpp:130] This layer is inheriting previous layer's sync mode: 1
I0614 14:57:20.006549  2768 net.cpp:436] conv2/3x3_reduce_bn -> conv2/3x3_reduce_bn
I0614 14:57:20.006561  2768 net.cpp:163] Setting up conv2/3x3_reduce_bn
I0614 14:57:20.006839  2768 cudnn_bn_layer.cpp:30] using cuDNN BN engine
I0614 14:57:20.006863  2768 net.cpp:170] Top shape: 44 64 8 56 56 (70647808)
I0614 14:57:20.006880  2768 layer_factory.hpp:74] Creating layer conv2/relu_3x3_reduce
I0614 14:57:20.006888  2768 net.cpp:99] Creating Layer conv2/relu_3x3_reduce
I0614 14:57:20.006892  2768 net.cpp:480] conv2/relu_3x3_reduce <- conv2/3x3_reduce_bn
I0614 14:57:20.006896  2768 net.cpp:130] This layer is inheriting previous layer's sync mode: 1
I0614 14:57:20.006901  2768 net.cpp:425] conv2/relu_3x3_reduce -> conv2/3x3_reduce_bn (in-place)
I0614 14:57:20.006906  2768 net.cpp:163] Setting up conv2/relu_3x3_reduce
I0614 14:57:20.007659  2768 net.cpp:170] Top shape: 44 64 8 56 56 (70647808)
I0614 14:57:20.007673  2768 layer_factory.hpp:74] Creating layer conv2/3x3_2d
I0614 14:57:20.007694  2768 net.cpp:99] Creating Layer conv2/3x3_2d
I0614 14:57:20.007699  2768 net.cpp:480] conv2/3x3_2d <- conv2/3x3_reduce_bn
I0614 14:57:20.007709  2768 net.cpp:130] This layer is inheriting previous layer's sync mode: 1
I0614 14:57:20.007747  2768 net.cpp:436] conv2/3x3_2d -> conv2/3x3
I0614 14:57:20.007757  2768 net.cpp:163] Setting up conv2/3x3_2d
I0614 14:57:20.993865  2768 net.cpp:170] Top shape: 44 192 8 56 56 (211943424)
I0614 14:57:20.993904  2768 layer_factory.hpp:74] Creating layer conv2/3x3_bn
I0614 14:57:20.993911  2768 layer_factory.cpp:181] Layer conv2/3x3_bn is using CUDNN engine.
I0614 14:57:20.993926  2768 net.cpp:99] Creating Layer conv2/3x3_bn
I0614 14:57:20.993932  2768 net.cpp:480] conv2/3x3_bn <- conv2/3x3
I0614 14:57:20.993945  2768 net.cpp:130] This layer is inheriting previous layer's sync mode: 1
I0614 14:57:20.993950  2768 net.cpp:436] conv2/3x3_bn -> conv2/3x3_bn
I0614 14:57:20.993979  2768 net.cpp:163] Setting up conv2/3x3_bn
I0614 14:57:20.994223  2768 cudnn_bn_layer.cpp:30] using cuDNN BN engine
I0614 14:57:20.994240  2768 net.cpp:170] Top shape: 44 192 8 56 56 (211943424)
I0614 14:57:20.994256  2768 layer_factory.hpp:74] Creating layer conv2/relu_3x3
I0614 14:57:20.994278  2768 net.cpp:99] Creating Layer conv2/relu_3x3
I0614 14:57:20.994282  2768 net.cpp:480] conv2/relu_3x3 <- conv2/3x3_bn
I0614 14:57:20.994287  2768 net.cpp:130] This layer is inheriting previous layer's sync mode: 1
I0614 14:57:20.994292  2768 net.cpp:425] conv2/relu_3x3 -> conv2/3x3_bn (in-place)
I0614 14:57:20.994297  2768 net.cpp:163] Setting up conv2/relu_3x3
I0614 14:57:20.995105  2768 net.cpp:170] Top shape: 44 192 8 56 56 (211943424)
I0614 14:57:20.995121  2768 layer_factory.hpp:74] Creating layer pool2/3x3_s2_2d
I0614 14:57:20.995156  2768 net.cpp:99] Creating Layer pool2/3x3_s2_2d
I0614 14:57:20.995158  2768 net.cpp:480] pool2/3x3_s2_2d <- conv2/3x3_bn
I0614 14:57:20.995163  2768 net.cpp:130] This layer is inheriting previous layer's sync mode: 1
I0614 14:57:20.995170  2768 net.cpp:436] pool2/3x3_s2_2d -> pool2/3x3_s2
I0614 14:57:20.995177  2768 net.cpp:163] Setting up pool2/3x3_s2_2d
I0614 14:57:20.995384  2768 net.cpp:170] Top shape: 44 192 4 28 28 (26492928)
I0614 14:57:20.995398  2768 layer_factory.hpp:74] Creating layer pool2/3x3_s2_pool2/3x3_s2_2d_0_split
I0614 14:57:20.995424  2768 net.cpp:99] Creating Layer pool2/3x3_s2_pool2/3x3_s2_2d_0_split
I0614 14:57:20.995443  2768 net.cpp:480] pool2/3x3_s2_pool2/3x3_s2_2d_0_split <- pool2/3x3_s2
I0614 14:57:20.995461  2768 net.cpp:130] This layer is inheriting previous layer's sync mode: 1
I0614 14:57:20.995468  2768 net.cpp:436] pool2/3x3_s2_pool2/3x3_s2_2d_0_split -> pool2/3x3_s2_pool2/3x3_s2_2d_0_split_0
I0614 14:57:20.995476  2768 net.cpp:436] pool2/3x3_s2_pool2/3x3_s2_2d_0_split -> pool2/3x3_s2_pool2/3x3_s2_2d_0_split_1
I0614 14:57:20.995481  2768 net.cpp:436] pool2/3x3_s2_pool2/3x3_s2_2d_0_split -> pool2/3x3_s2_pool2/3x3_s2_2d_0_split_2
I0614 14:57:20.995486  2768 net.cpp:436] pool2/3x3_s2_pool2/3x3_s2_2d_0_split -> pool2/3x3_s2_pool2/3x3_s2_2d_0_split_3
I0614 14:57:20.995491  2768 net.cpp:163] Setting up pool2/3x3_s2_pool2/3x3_s2_2d_0_split
I0614 14:57:20.995499  2768 net.cpp:170] Top shape: 44 192 4 28 28 (26492928)
I0614 14:57:20.995503  2768 net.cpp:170] Top shape: 44 192 4 28 28 (26492928)
I0614 14:57:20.995507  2768 net.cpp:170] Top shape: 44 192 4 28 28 (26492928)
I0614 14:57:20.995510  2768 net.cpp:170] Top shape: 44 192 4 28 28 (26492928)
I0614 14:57:20.995514  2768 layer_factory.hpp:74] Creating layer inception_3a/1x1_2d
I0614 14:57:20.995527  2768 net.cpp:99] Creating Layer inception_3a/1x1_2d
I0614 14:57:20.995530  2768 net.cpp:480] inception_3a/1x1_2d <- pool2/3x3_s2_pool2/3x3_s2_2d_0_split_0
I0614 14:57:20.995534  2768 net.cpp:130] This layer is inheriting previous layer's sync mode: 1
I0614 14:57:20.995542  2768 net.cpp:436] inception_3a/1x1_2d -> inception_3a/1x1
I0614 14:57:20.995548  2768 net.cpp:163] Setting up inception_3a/1x1_2d
I0614 14:57:21.088207  2768 net.cpp:170] Top shape: 44 64 4 28 28 (8830976)
I0614 14:57:21.088228  2768 layer_factory.hpp:74] Creating layer inception_3a/1x1_bn
I0614 14:57:21.088234  2768 layer_factory.cpp:181] Layer inception_3a/1x1_bn is using CUDNN engine.
I0614 14:57:21.088243  2768 net.cpp:99] Creating Layer inception_3a/1x1_bn
I0614 14:57:21.088294  2768 net.cpp:480] inception_3a/1x1_bn <- inception_3a/1x1
I0614 14:57:21.088302  2768 net.cpp:130] This layer is inheriting previous layer's sync mode: 1
I0614 14:57:21.088306  2768 net.cpp:436] inception_3a/1x1_bn -> inception_3a/1x1_bn
I0614 14:57:21.088316  2768 net.cpp:163] Setting up inception_3a/1x1_bn
I0614 14:57:21.088510  2768 cudnn_bn_layer.cpp:30] using cuDNN BN engine
I0614 14:57:21.088534  2768 net.cpp:170] Top shape: 44 64 4 28 28 (8830976)
I0614 14:57:21.088554  2768 layer_factory.hpp:74] Creating layer inception_3a/relu_1x1
I0614 14:57:21.088575  2768 net.cpp:99] Creating Layer inception_3a/relu_1x1
I0614 14:57:21.088582  2768 net.cpp:480] inception_3a/relu_1x1 <- inception_3a/1x1_bn
I0614 14:57:21.088587  2768 net.cpp:130] This layer is inheriting previous layer's sync mode: 1
I0614 14:57:21.088593  2768 net.cpp:425] inception_3a/relu_1x1 -> inception_3a/1x1_bn (in-place)
I0614 14:57:21.088598  2768 net.cpp:163] Setting up inception_3a/relu_1x1
I0614 14:57:21.089418  2768 net.cpp:170] Top shape: 44 64 4 28 28 (8830976)
I0614 14:57:21.089433  2768 layer_factory.hpp:74] Creating layer inception_3a/3x3_reduce_2d
I0614 14:57:21.089457  2768 net.cpp:99] Creating Layer inception_3a/3x3_reduce_2d
I0614 14:57:21.089460  2768 net.cpp:480] inception_3a/3x3_reduce_2d <- pool2/3x3_s2_pool2/3x3_s2_2d_0_split_1
I0614 14:57:21.089476  2768 net.cpp:130] This layer is inheriting previous layer's sync mode: 1
I0614 14:57:21.089483  2768 net.cpp:436] inception_3a/3x3_reduce_2d -> inception_3a/3x3_reduce
I0614 14:57:21.089501  2768 net.cpp:163] Setting up inception_3a/3x3_reduce_2d
I0614 14:57:21.194067  2768 net.cpp:170] Top shape: 44 64 4 28 28 (8830976)
I0614 14:57:21.194105  2768 layer_factory.hpp:74] Creating layer inception_3a/3x3_reduce_bn
I0614 14:57:21.194113  2768 layer_factory.cpp:181] Layer inception_3a/3x3_reduce_bn is using CUDNN engine.
I0614 14:57:21.194121  2768 net.cpp:99] Creating Layer inception_3a/3x3_reduce_bn
I0614 14:57:21.194126  2768 net.cpp:480] inception_3a/3x3_reduce_bn <- inception_3a/3x3_reduce
I0614 14:57:21.194133  2768 net.cpp:130] This layer is inheriting previous layer's sync mode: 1
I0614 14:57:21.194138  2768 net.cpp:436] inception_3a/3x3_reduce_bn -> inception_3a/3x3_reduce_bn
I0614 14:57:21.194146  2768 net.cpp:163] Setting up inception_3a/3x3_reduce_bn
I0614 14:57:21.194401  2768 cudnn_bn_layer.cpp:30] using cuDNN BN engine
I0614 14:57:21.194417  2768 net.cpp:170] Top shape: 44 64 4 28 28 (8830976)
I0614 14:57:21.194427  2768 layer_factory.hpp:74] Creating layer inception_3a/relu_3x3_reduce
I0614 14:57:21.194456  2768 net.cpp:99] Creating Layer inception_3a/relu_3x3_reduce
I0614 14:57:21.194460  2768 net.cpp:480] inception_3a/relu_3x3_reduce <- inception_3a/3x3_reduce_bn
I0614 14:57:21.194464  2768 net.cpp:130] This layer is inheriting previous layer's sync mode: 1
I0614 14:57:21.194469  2768 net.cpp:425] inception_3a/relu_3x3_reduce -> inception_3a/3x3_reduce_bn (in-place)
I0614 14:57:21.194474  2768 net.cpp:163] Setting up inception_3a/relu_3x3_reduce
I0614 14:57:21.195289  2768 net.cpp:170] Top shape: 44 64 4 28 28 (8830976)
I0614 14:57:21.195303  2768 layer_factory.hpp:74] Creating layer inception_3a/3x3_2d
I0614 14:57:21.195314  2768 net.cpp:99] Creating Layer inception_3a/3x3_2d
I0614 14:57:21.195318  2768 net.cpp:480] inception_3a/3x3_2d <- inception_3a/3x3_reduce_bn
I0614 14:57:21.195323  2768 net.cpp:130] This layer is inheriting previous layer's sync mode: 1
I0614 14:57:21.195329  2768 net.cpp:436] inception_3a/3x3_2d -> inception_3a/3x3
I0614 14:57:21.195336  2768 net.cpp:163] Setting up inception_3a/3x3_2d
I0614 14:57:21.292213  2768 net.cpp:170] Top shape: 44 64 4 28 28 (8830976)
I0614 14:57:21.292253  2768 layer_factory.hpp:74] Creating layer inception_3a/3x3_bn
I0614 14:57:21.292258  2768 layer_factory.cpp:181] Layer inception_3a/3x3_bn is using CUDNN engine.
I0614 14:57:21.292266  2768 net.cpp:99] Creating Layer inception_3a/3x3_bn
I0614 14:57:21.292270  2768 net.cpp:480] inception_3a/3x3_bn <- inception_3a/3x3
I0614 14:57:21.292309  2768 net.cpp:130] This layer is inheriting previous layer's sync mode: 1
I0614 14:57:21.292315  2768 net.cpp:436] inception_3a/3x3_bn -> inception_3a/3x3_bn
I0614 14:57:21.292322  2768 net.cpp:163] Setting up inception_3a/3x3_bn
I0614 14:57:21.292520  2768 cudnn_bn_layer.cpp:30] using cuDNN BN engine
I0614 14:57:21.292536  2768 net.cpp:170] Top shape: 44 64 4 28 28 (8830976)
I0614 14:57:21.292551  2768 layer_factory.hpp:74] Creating layer inception_3a/relu_3x3
I0614 14:57:21.292570  2768 net.cpp:99] Creating Layer inception_3a/relu_3x3
I0614 14:57:21.292575  2768 net.cpp:480] inception_3a/relu_3x3 <- inception_3a/3x3_bn
I0614 14:57:21.292579  2768 net.cpp:130] This layer is inheriting previous layer's sync mode: 1
I0614 14:57:21.292584  2768 net.cpp:425] inception_3a/relu_3x3 -> inception_3a/3x3_bn (in-place)
I0614 14:57:21.292589  2768 net.cpp:163] Setting up inception_3a/relu_3x3
I0614 14:57:21.295331  2768 net.cpp:170] Top shape: 44 64 4 28 28 (8830976)
I0614 14:57:21.295344  2768 layer_factory.hpp:74] Creating layer inception_3a/double_3x3_reduce_2d
I0614 14:57:21.295367  2768 net.cpp:99] Creating Layer inception_3a/double_3x3_reduce_2d
I0614 14:57:21.295370  2768 net.cpp:480] inception_3a/double_3x3_reduce_2d <- pool2/3x3_s2_pool2/3x3_s2_2d_0_split_2
I0614 14:57:21.295377  2768 net.cpp:130] This layer is inheriting previous layer's sync mode: 1
I0614 14:57:21.295382  2768 net.cpp:436] inception_3a/double_3x3_reduce_2d -> inception_3a/double_3x3_reduce
I0614 14:57:21.295388  2768 net.cpp:163] Setting up inception_3a/double_3x3_reduce_2d
I0614 14:57:21.398221  2768 net.cpp:170] Top shape: 44 64 4 28 28 (8830976)
I0614 14:57:21.398257  2768 layer_factory.hpp:74] Creating layer inception_3a/double_3x3_reduce_bn
I0614 14:57:21.398262  2768 layer_factory.cpp:181] Layer inception_3a/double_3x3_reduce_bn is using CUDNN engine.
I0614 14:57:21.398268  2768 net.cpp:99] Creating Layer inception_3a/double_3x3_reduce_bn
I0614 14:57:21.398272  2768 net.cpp:480] inception_3a/double_3x3_reduce_bn <- inception_3a/double_3x3_reduce
I0614 14:57:21.398277  2768 net.cpp:130] This layer is inheriting previous layer's sync mode: 1
I0614 14:57:21.398282  2768 net.cpp:436] inception_3a/double_3x3_reduce_bn -> inception_3a/double_3x3_reduce_bn
I0614 14:57:21.398288  2768 net.cpp:163] Setting up inception_3a/double_3x3_reduce_bn
I0614 14:57:21.398547  2768 cudnn_bn_layer.cpp:30] using cuDNN BN engine
I0614 14:57:21.398568  2768 net.cpp:170] Top shape: 44 64 4 28 28 (8830976)
I0614 14:57:21.398582  2768 layer_factory.hpp:74] Creating layer inception_3a/relu_double_3x3_reduce
I0614 14:57:21.398598  2768 net.cpp:99] Creating Layer inception_3a/relu_double_3x3_reduce
I0614 14:57:21.398603  2768 net.cpp:480] inception_3a/relu_double_3x3_reduce <- inception_3a/double_3x3_reduce_bn
I0614 14:57:21.398612  2768 net.cpp:130] This layer is inheriting previous layer's sync mode: 1
I0614 14:57:21.398617  2768 net.cpp:425] inception_3a/relu_double_3x3_reduce -> inception_3a/double_3x3_reduce_bn (in-place)
I0614 14:57:21.398622  2768 net.cpp:163] Setting up inception_3a/relu_double_3x3_reduce
I0614 14:57:21.399408  2768 net.cpp:170] Top shape: 44 64 4 28 28 (8830976)
I0614 14:57:21.399421  2768 layer_factory.hpp:74] Creating layer inception_3a/double_3x3_1_2d
I0614 14:57:21.399430  2768 net.cpp:99] Creating Layer inception_3a/double_3x3_1_2d
I0614 14:57:21.399433  2768 net.cpp:480] inception_3a/double_3x3_1_2d <- inception_3a/double_3x3_reduce_bn
I0614 14:57:21.399437  2768 net.cpp:130] This layer is inheriting previous layer's sync mode: 1
I0614 14:57:21.399443  2768 net.cpp:436] inception_3a/double_3x3_1_2d -> inception_3a/double_3x3_1
I0614 14:57:21.399449  2768 net.cpp:163] Setting up inception_3a/double_3x3_1_2d
I0614 14:57:21.497731  2768 net.cpp:170] Top shape: 44 96 4 28 28 (13246464)
I0614 14:57:21.497761  2768 layer_factory.hpp:74] Creating layer inception_3a/double_3x3_1_bn
I0614 14:57:21.497766  2768 layer_factory.cpp:181] Layer inception_3a/double_3x3_1_bn is using CUDNN engine.
I0614 14:57:21.497794  2768 net.cpp:99] Creating Layer inception_3a/double_3x3_1_bn
I0614 14:57:21.497813  2768 net.cpp:480] inception_3a/double_3x3_1_bn <- inception_3a/double_3x3_1
I0614 14:57:21.497819  2768 net.cpp:130] This layer is inheriting previous layer's sync mode: 1
I0614 14:57:21.497824  2768 net.cpp:436] inception_3a/double_3x3_1_bn -> inception_3a/double_3x3_1_bn
I0614 14:57:21.497831  2768 net.cpp:163] Setting up inception_3a/double_3x3_1_bn
I0614 14:57:21.498802  2768 cudnn_bn_layer.cpp:30] using cuDNN BN engine
I0614 14:57:21.498824  2768 net.cpp:170] Top shape: 44 96 4 28 28 (13246464)
I0614 14:57:21.498836  2768 layer_factory.hpp:74] Creating layer inception_3a/relu_double_3x3_1
I0614 14:57:21.498843  2768 net.cpp:99] Creating Layer inception_3a/relu_double_3x3_1
I0614 14:57:21.498848  2768 net.cpp:480] inception_3a/relu_double_3x3_1 <- inception_3a/double_3x3_1_bn
I0614 14:57:21.498853  2768 net.cpp:130] This layer is inheriting previous layer's sync mode: 1
I0614 14:57:21.498857  2768 net.cpp:425] inception_3a/relu_double_3x3_1 -> inception_3a/double_3x3_1_bn (in-place)
I0614 14:57:21.498862  2768 net.cpp:163] Setting up inception_3a/relu_double_3x3_1
I0614 14:57:21.499017  2768 net.cpp:170] Top shape: 44 96 4 28 28 (13246464)
I0614 14:57:21.499028  2768 layer_factory.hpp:74] Creating layer inception_3a/double_3x3_2_2d
I0614 14:57:21.499039  2768 net.cpp:99] Creating Layer inception_3a/double_3x3_2_2d
I0614 14:57:21.499042  2768 net.cpp:480] inception_3a/double_3x3_2_2d <- inception_3a/double_3x3_1_bn
I0614 14:57:21.499047  2768 net.cpp:130] This layer is inheriting previous layer's sync mode: 1
I0614 14:57:21.499053  2768 net.cpp:436] inception_3a/double_3x3_2_2d -> inception_3a/double_3x3_2
I0614 14:57:21.499058  2768 net.cpp:163] Setting up inception_3a/double_3x3_2_2d
I0614 14:57:21.634645  2768 net.cpp:170] Top shape: 44 96 4 28 28 (13246464)
I0614 14:57:21.634683  2768 layer_factory.hpp:74] Creating layer inception_3a/double_3x3_2_bn
I0614 14:57:21.634902  2768 layer_factory.cpp:181] Layer inception_3a/double_3x3_2_bn is using CUDNN engine.
I0614 14:57:21.634924  2768 net.cpp:99] Creating Layer inception_3a/double_3x3_2_bn
I0614 14:57:21.634929  2768 net.cpp:480] inception_3a/double_3x3_2_bn <- inception_3a/double_3x3_2
I0614 14:57:21.634935  2768 net.cpp:130] This layer is inheriting previous layer's sync mode: 1
I0614 14:57:21.634941  2768 net.cpp:436] inception_3a/double_3x3_2_bn -> inception_3a/double_3x3_2_bn
I0614 14:57:21.634948  2768 net.cpp:163] Setting up inception_3a/double_3x3_2_bn
I0614 14:57:21.638484  2768 cudnn_bn_layer.cpp:30] using cuDNN BN engine
I0614 14:57:21.638512  2768 net.cpp:170] Top shape: 44 96 4 28 28 (13246464)
I0614 14:57:21.638525  2768 layer_factory.hpp:74] Creating layer inception_3a/relu_double_3x3_2
I0614 14:57:21.638532  2768 net.cpp:99] Creating Layer inception_3a/relu_double_3x3_2
I0614 14:57:21.638536  2768 net.cpp:480] inception_3a/relu_double_3x3_2 <- inception_3a/double_3x3_2_bn
I0614 14:57:21.638541  2768 net.cpp:130] This layer is inheriting previous layer's sync mode: 1
I0614 14:57:21.638545  2768 net.cpp:425] inception_3a/relu_double_3x3_2 -> inception_3a/double_3x3_2_bn (in-place)
I0614 14:57:21.638551  2768 net.cpp:163] Setting up inception_3a/relu_double_3x3_2
I0614 14:57:21.638705  2768 net.cpp:170] Top shape: 44 96 4 28 28 (13246464)
I0614 14:57:21.638715  2768 layer_factory.hpp:74] Creating layer inception_3a/pool_2d
I0614 14:57:21.638736  2768 net.cpp:99] Creating Layer inception_3a/pool_2d
I0614 14:57:21.638746  2768 net.cpp:480] inception_3a/pool_2d <- pool2/3x3_s2_pool2/3x3_s2_2d_0_split_3
I0614 14:57:21.638751  2768 net.cpp:130] This layer is inheriting previous layer's sync mode: 1
I0614 14:57:21.638756  2768 net.cpp:436] inception_3a/pool_2d -> inception_3a/pool
I0614 14:57:21.638761  2768 net.cpp:163] Setting up inception_3a/pool_2d
I0614 14:57:21.640177  2768 net.cpp:170] Top shape: 44 192 4 28 28 (26492928)
I0614 14:57:21.640190  2768 layer_factory.hpp:74] Creating layer inception_3a/pool_proj_2d
I0614 14:57:21.640202  2768 net.cpp:99] Creating Layer inception_3a/pool_proj_2d
I0614 14:57:21.640223  2768 net.cpp:480] inception_3a/pool_proj_2d <- inception_3a/pool
I0614 14:57:21.640228  2768 net.cpp:130] This layer is inheriting previous layer's sync mode: 1
I0614 14:57:21.640234  2768 net.cpp:436] inception_3a/pool_proj_2d -> inception_3a/pool_proj
I0614 14:57:21.640241  2768 net.cpp:163] Setting up inception_3a/pool_proj_2d
I0614 14:57:21.713529  2768 net.cpp:170] Top shape: 44 32 4 28 28 (4415488)
I0614 14:57:21.713563  2768 layer_factory.hpp:74] Creating layer inception_3a/pool_proj_bn
I0614 14:57:21.713582  2768 layer_factory.cpp:181] Layer inception_3a/pool_proj_bn is using CUDNN engine.
I0614 14:57:21.713589  2768 net.cpp:99] Creating Layer inception_3a/pool_proj_bn
I0614 14:57:21.713593  2768 net.cpp:480] inception_3a/pool_proj_bn <- inception_3a/pool_proj
I0614 14:57:21.713601  2768 net.cpp:130] This layer is inheriting previous layer's sync mode: 1
I0614 14:57:21.713606  2768 net.cpp:436] inception_3a/pool_proj_bn -> inception_3a/pool_proj_bn
I0614 14:57:21.713619  2768 net.cpp:163] Setting up inception_3a/pool_proj_bn
I0614 14:57:21.713853  2768 cudnn_bn_layer.cpp:30] using cuDNN BN engine
I0614 14:57:21.713870  2768 net.cpp:170] Top shape: 44 32 4 28 28 (4415488)
I0614 14:57:21.713879  2768 layer_factory.hpp:74] Creating layer inception_3a/relu_pool_proj
I0614 14:57:21.713886  2768 net.cpp:99] Creating Layer inception_3a/relu_pool_proj
I0614 14:57:21.713889  2768 net.cpp:480] inception_3a/relu_pool_proj <- inception_3a/pool_proj_bn
I0614 14:57:21.713893  2768 net.cpp:130] This layer is inheriting previous layer's sync mode: 1
I0614 14:57:21.713896  2768 net.cpp:425] inception_3a/relu_pool_proj -> inception_3a/pool_proj_bn (in-place)
I0614 14:57:21.713901  2768 net.cpp:163] Setting up inception_3a/relu_pool_proj
I0614 14:57:21.714792  2768 net.cpp:170] Top shape: 44 32 4 28 28 (4415488)
I0614 14:57:21.714805  2768 layer_factory.hpp:74] Creating layer inception_3a/output
I0614 14:57:21.715035  2768 net.cpp:99] Creating Layer inception_3a/output
I0614 14:57:21.715050  2768 net.cpp:480] inception_3a/output <- inception_3a/1x1_bn
I0614 14:57:21.715056  2768 net.cpp:480] inception_3a/output <- inception_3a/3x3_bn
I0614 14:57:21.715061  2768 net.cpp:480] inception_3a/output <- inception_3a/double_3x3_2_bn
I0614 14:57:21.715065  2768 net.cpp:480] inception_3a/output <- inception_3a/pool_proj_bn
I0614 14:57:21.715067  2768 net.cpp:130] This layer is inheriting previous layer's sync mode: 1
I0614 14:57:21.715071  2768 net.cpp:436] inception_3a/output -> inception_3a/output
I0614 14:57:21.715080  2768 net.cpp:163] Setting up inception_3a/output
I0614 14:57:21.715087  2768 net.cpp:170] Top shape: 44 256 4 28 28 (35323904)
I0614 14:57:21.715090  2768 layer_factory.hpp:74] Creating layer inception_3a/output_inception_3a/output_0_split
I0614 14:57:21.715098  2768 net.cpp:99] Creating Layer inception_3a/output_inception_3a/output_0_split
I0614 14:57:21.715101  2768 net.cpp:480] inception_3a/output_inception_3a/output_0_split <- inception_3a/output
I0614 14:57:21.715106  2768 net.cpp:130] This layer is inheriting previous layer's sync mode: 1
I0614 14:57:21.715109  2768 net.cpp:436] inception_3a/output_inception_3a/output_0_split -> inception_3a/output_inception_3a/output_0_split_0
I0614 14:57:21.715114  2768 net.cpp:436] inception_3a/output_inception_3a/output_0_split -> inception_3a/output_inception_3a/output_0_split_1
I0614 14:57:21.715126  2768 net.cpp:436] inception_3a/output_inception_3a/output_0_split -> inception_3a/output_inception_3a/output_0_split_2
I0614 14:57:21.715131  2768 net.cpp:436] inception_3a/output_inception_3a/output_0_split -> inception_3a/output_inception_3a/output_0_split_3
I0614 14:57:21.715136  2768 net.cpp:163] Setting up inception_3a/output_inception_3a/output_0_split
I0614 14:57:21.715142  2768 net.cpp:170] Top shape: 44 256 4 28 28 (35323904)
I0614 14:57:21.715147  2768 net.cpp:170] Top shape: 44 256 4 28 28 (35323904)
I0614 14:57:21.715150  2768 net.cpp:170] Top shape: 44 256 4 28 28 (35323904)
I0614 14:57:21.715153  2768 net.cpp:170] Top shape: 44 256 4 28 28 (35323904)
I0614 14:57:21.715169  2768 layer_factory.hpp:74] Creating layer inception_3b/1x1_2d
I0614 14:57:21.715178  2768 net.cpp:99] Creating Layer inception_3b/1x1_2d
I0614 14:57:21.715180  2768 net.cpp:480] inception_3b/1x1_2d <- inception_3a/output_inception_3a/output_0_split_0
I0614 14:57:21.715184  2768 net.cpp:130] This layer is inheriting previous layer's sync mode: 1
I0614 14:57:21.715190  2768 net.cpp:436] inception_3b/1x1_2d -> inception_3b/1x1
I0614 14:57:21.715195  2768 net.cpp:163] Setting up inception_3b/1x1_2d
I0614 14:57:21.840463  2768 net.cpp:170] Top shape: 44 64 4 28 28 (8830976)
I0614 14:57:21.840482  2768 layer_factory.hpp:74] Creating layer inception_3b/1x1_bn
I0614 14:57:21.840487  2768 layer_factory.cpp:181] Layer inception_3b/1x1_bn is using CUDNN engine.
I0614 14:57:21.840494  2768 net.cpp:99] Creating Layer inception_3b/1x1_bn
I0614 14:57:21.840498  2768 net.cpp:480] inception_3b/1x1_bn <- inception_3b/1x1
I0614 14:57:21.840503  2768 net.cpp:130] This layer is inheriting previous layer's sync mode: 1
I0614 14:57:21.840507  2768 net.cpp:436] inception_3b/1x1_bn -> inception_3b/1x1_bn
I0614 14:57:21.840523  2768 net.cpp:163] Setting up inception_3b/1x1_bn
I0614 14:57:21.840721  2768 cudnn_bn_layer.cpp:30] using cuDNN BN engine
I0614 14:57:21.840734  2768 net.cpp:170] Top shape: 44 64 4 28 28 (8830976)
I0614 14:57:21.840754  2768 layer_factory.hpp:74] Creating layer inception_3b/relu_1x1
I0614 14:57:21.840788  2768 net.cpp:99] Creating Layer inception_3b/relu_1x1
I0614 14:57:21.840792  2768 net.cpp:480] inception_3b/relu_1x1 <- inception_3b/1x1_bn
I0614 14:57:21.840797  2768 net.cpp:130] This layer is inheriting previous layer's sync mode: 1
I0614 14:57:21.840801  2768 net.cpp:425] inception_3b/relu_1x1 -> inception_3b/1x1_bn (in-place)
I0614 14:57:21.840806  2768 net.cpp:163] Setting up inception_3b/relu_1x1
I0614 14:57:21.841581  2768 net.cpp:170] Top shape: 44 64 4 28 28 (8830976)
I0614 14:57:21.841593  2768 layer_factory.hpp:74] Creating layer inception_3b/3x3_reduce_2d
I0614 14:57:21.841609  2768 net.cpp:99] Creating Layer inception_3b/3x3_reduce_2d
I0614 14:57:21.841612  2768 net.cpp:480] inception_3b/3x3_reduce_2d <- inception_3a/output_inception_3a/output_0_split_1
I0614 14:57:21.841616  2768 net.cpp:130] This layer is inheriting previous layer's sync mode: 1
I0614 14:57:21.841622  2768 net.cpp:436] inception_3b/3x3_reduce_2d -> inception_3b/3x3_reduce
I0614 14:57:21.841629  2768 net.cpp:163] Setting up inception_3b/3x3_reduce_2d
I0614 14:57:21.957684  2768 net.cpp:170] Top shape: 44 64 4 28 28 (8830976)
I0614 14:57:21.957711  2768 layer_factory.hpp:74] Creating layer inception_3b/3x3_reduce_bn
I0614 14:57:21.957716  2768 layer_factory.cpp:181] Layer inception_3b/3x3_reduce_bn is using CUDNN engine.
I0614 14:57:21.957722  2768 net.cpp:99] Creating Layer inception_3b/3x3_reduce_bn
I0614 14:57:21.957726  2768 net.cpp:480] inception_3b/3x3_reduce_bn <- inception_3b/3x3_reduce
I0614 14:57:21.957736  2768 net.cpp:130] This layer is inheriting previous layer's sync mode: 1
I0614 14:57:21.957742  2768 net.cpp:436] inception_3b/3x3_reduce_bn -> inception_3b/3x3_reduce_bn
I0614 14:57:21.957759  2768 net.cpp:163] Setting up inception_3b/3x3_reduce_bn
I0614 14:57:21.959101  2768 cudnn_bn_layer.cpp:30] using cuDNN BN engine
I0614 14:57:21.959131  2768 net.cpp:170] Top shape: 44 64 4 28 28 (8830976)
I0614 14:57:21.959146  2768 layer_factory.hpp:74] Creating layer inception_3b/relu_3x3_reduce
I0614 14:57:21.959161  2768 net.cpp:99] Creating Layer inception_3b/relu_3x3_reduce
I0614 14:57:21.959164  2768 net.cpp:480] inception_3b/relu_3x3_reduce <- inception_3b/3x3_reduce_bn
I0614 14:57:21.959169  2768 net.cpp:130] This layer is inheriting previous layer's sync mode: 1
I0614 14:57:21.959184  2768 net.cpp:425] inception_3b/relu_3x3_reduce -> inception_3b/3x3_reduce_bn (in-place)
I0614 14:57:21.959189  2768 net.cpp:163] Setting up inception_3b/relu_3x3_reduce
I0614 14:57:21.959363  2768 net.cpp:170] Top shape: 44 64 4 28 28 (8830976)
I0614 14:57:21.959372  2768 layer_factory.hpp:74] Creating layer inception_3b/3x3_2d
I0614 14:57:21.959408  2768 net.cpp:99] Creating Layer inception_3b/3x3_2d
I0614 14:57:21.959411  2768 net.cpp:480] inception_3b/3x3_2d <- inception_3b/3x3_reduce_bn
I0614 14:57:21.959415  2768 net.cpp:130] This layer is inheriting previous layer's sync mode: 1
I0614 14:57:21.959420  2768 net.cpp:436] inception_3b/3x3_2d -> inception_3b/3x3
I0614 14:57:21.959436  2768 net.cpp:163] Setting up inception_3b/3x3_2d
I0614 14:57:22.063642  2768 net.cpp:170] Top shape: 44 96 4 28 28 (13246464)
I0614 14:57:22.063657  2768 layer_factory.hpp:74] Creating layer inception_3b/3x3_bn
I0614 14:57:22.063661  2768 layer_factory.cpp:181] Layer inception_3b/3x3_bn is using CUDNN engine.
I0614 14:57:22.063675  2768 net.cpp:99] Creating Layer inception_3b/3x3_bn
I0614 14:57:22.063679  2768 net.cpp:480] inception_3b/3x3_bn <- inception_3b/3x3
I0614 14:57:22.063683  2768 net.cpp:130] This layer is inheriting previous layer's sync mode: 1
I0614 14:57:22.063688  2768 net.cpp:436] inception_3b/3x3_bn -> inception_3b/3x3_bn
I0614 14:57:22.063694  2768 net.cpp:163] Setting up inception_3b/3x3_bn
I0614 14:57:22.065206  2768 cudnn_bn_layer.cpp:30] using cuDNN BN engine
I0614 14:57:22.065237  2768 net.cpp:170] Top shape: 44 96 4 28 28 (13246464)
I0614 14:57:22.065248  2768 layer_factory.hpp:74] Creating layer inception_3b/relu_3x3
I0614 14:57:22.065254  2768 net.cpp:99] Creating Layer inception_3b/relu_3x3
I0614 14:57:22.065259  2768 net.cpp:480] inception_3b/relu_3x3 <- inception_3b/3x3_bn
I0614 14:57:22.065265  2768 net.cpp:130] This layer is inheriting previous layer's sync mode: 1
I0614 14:57:22.065269  2768 net.cpp:425] inception_3b/relu_3x3 -> inception_3b/3x3_bn (in-place)
I0614 14:57:22.065275  2768 net.cpp:163] Setting up inception_3b/relu_3x3
I0614 14:57:22.065433  2768 net.cpp:170] Top shape: 44 96 4 28 28 (13246464)
I0614 14:57:22.065454  2768 layer_factory.hpp:74] Creating layer inception_3b/double_3x3_reduce_2d
I0614 14:57:22.065464  2768 net.cpp:99] Creating Layer inception_3b/double_3x3_reduce_2d
I0614 14:57:22.065467  2768 net.cpp:480] inception_3b/double_3x3_reduce_2d <- inception_3a/output_inception_3a/output_0_split_2
I0614 14:57:22.065471  2768 net.cpp:130] This layer is inheriting previous layer's sync mode: 1
I0614 14:57:22.065477  2768 net.cpp:436] inception_3b/double_3x3_reduce_2d -> inception_3b/double_3x3_reduce
I0614 14:57:22.065495  2768 net.cpp:163] Setting up inception_3b/double_3x3_reduce_2d
I0614 14:57:22.182451  2768 net.cpp:170] Top shape: 44 64 4 28 28 (8830976)
I0614 14:57:22.182478  2768 layer_factory.hpp:74] Creating layer inception_3b/double_3x3_reduce_bn
I0614 14:57:22.182484  2768 layer_factory.cpp:181] Layer inception_3b/double_3x3_reduce_bn is using CUDNN engine.
I0614 14:57:22.182490  2768 net.cpp:99] Creating Layer inception_3b/double_3x3_reduce_bn
I0614 14:57:22.182494  2768 net.cpp:480] inception_3b/double_3x3_reduce_bn <- inception_3b/double_3x3_reduce
I0614 14:57:22.182507  2768 net.cpp:130] This layer is inheriting previous layer's sync mode: 1
I0614 14:57:22.182512  2768 net.cpp:436] inception_3b/double_3x3_reduce_bn -> inception_3b/double_3x3_reduce_bn
I0614 14:57:22.182518  2768 net.cpp:163] Setting up inception_3b/double_3x3_reduce_bn
I0614 14:57:22.183614  2768 cudnn_bn_layer.cpp:30] using cuDNN BN engine
I0614 14:57:22.183651  2768 net.cpp:170] Top shape: 44 64 4 28 28 (8830976)
I0614 14:57:22.183660  2768 layer_factory.hpp:74] Creating layer inception_3b/relu_double_3x3_reduce
I0614 14:57:22.183670  2768 net.cpp:99] Creating Layer inception_3b/relu_double_3x3_reduce
I0614 14:57:22.183673  2768 net.cpp:480] inception_3b/relu_double_3x3_reduce <- inception_3b/double_3x3_reduce_bn
I0614 14:57:22.183689  2768 net.cpp:130] This layer is inheriting previous layer's sync mode: 1
I0614 14:57:22.183693  2768 net.cpp:425] inception_3b/relu_double_3x3_reduce -> inception_3b/double_3x3_reduce_bn (in-place)
I0614 14:57:22.183698  2768 net.cpp:163] Setting up inception_3b/relu_double_3x3_reduce
I0614 14:57:22.183852  2768 net.cpp:170] Top shape: 44 64 4 28 28 (8830976)
I0614 14:57:22.183877  2768 layer_factory.hpp:74] Creating layer inception_3b/double_3x3_1_2d
I0614 14:57:22.183888  2768 net.cpp:99] Creating Layer inception_3b/double_3x3_1_2d
I0614 14:57:22.183892  2768 net.cpp:480] inception_3b/double_3x3_1_2d <- inception_3b/double_3x3_reduce_bn
I0614 14:57:22.183895  2768 net.cpp:130] This layer is inheriting previous layer's sync mode: 1
I0614 14:57:22.183899  2768 net.cpp:436] inception_3b/double_3x3_1_2d -> inception_3b/double_3x3_1
I0614 14:57:22.183907  2768 net.cpp:163] Setting up inception_3b/double_3x3_1_2d
I0614 14:57:22.279566  2768 net.cpp:170] Top shape: 44 96 4 28 28 (13246464)
I0614 14:57:22.279594  2768 layer_factory.hpp:74] Creating layer inception_3b/double_3x3_1_bn
I0614 14:57:22.279606  2768 layer_factory.cpp:181] Layer inception_3b/double_3x3_1_bn is using CUDNN engine.
I0614 14:57:22.279615  2768 net.cpp:99] Creating Layer inception_3b/double_3x3_1_bn
I0614 14:57:22.279619  2768 net.cpp:480] inception_3b/double_3x3_1_bn <- inception_3b/double_3x3_1
I0614 14:57:22.279623  2768 net.cpp:130] This layer is inheriting previous layer's sync mode: 1
I0614 14:57:22.279639  2768 net.cpp:436] inception_3b/double_3x3_1_bn -> inception_3b/double_3x3_1_bn
I0614 14:57:22.279646  2768 net.cpp:163] Setting up inception_3b/double_3x3_1_bn
I0614 14:57:22.282030  2768 cudnn_bn_layer.cpp:30] using cuDNN BN engine
I0614 14:57:22.282079  2768 net.cpp:170] Top shape: 44 96 4 28 28 (13246464)
I0614 14:57:22.282104  2768 layer_factory.hpp:74] Creating layer inception_3b/relu_double_3x3_1
I0614 14:57:22.282119  2768 net.cpp:99] Creating Layer inception_3b/relu_double_3x3_1
I0614 14:57:22.282141  2768 net.cpp:480] inception_3b/relu_double_3x3_1 <- inception_3b/double_3x3_1_bn
I0614 14:57:22.282146  2768 net.cpp:130] This layer is inheriting previous layer's sync mode: 1
I0614 14:57:22.282151  2768 net.cpp:425] inception_3b/relu_double_3x3_1 -> inception_3b/double_3x3_1_bn (in-place)
I0614 14:57:22.282156  2768 net.cpp:163] Setting up inception_3b/relu_double_3x3_1
I0614 14:57:22.282321  2768 net.cpp:170] Top shape: 44 96 4 28 28 (13246464)
I0614 14:57:22.282330  2768 layer_factory.hpp:74] Creating layer inception_3b/double_3x3_2_2d
I0614 14:57:22.282340  2768 net.cpp:99] Creating Layer inception_3b/double_3x3_2_2d
I0614 14:57:22.282342  2768 net.cpp:480] inception_3b/double_3x3_2_2d <- inception_3b/double_3x3_1_bn
I0614 14:57:22.282346  2768 net.cpp:130] This layer is inheriting previous layer's sync mode: 1
I0614 14:57:22.282351  2768 net.cpp:436] inception_3b/double_3x3_2_2d -> inception_3b/double_3x3_2
I0614 14:57:22.282357  2768 net.cpp:163] Setting up inception_3b/double_3x3_2_2d
I0614 14:57:22.419888  2768 net.cpp:170] Top shape: 44 96 4 28 28 (13246464)
I0614 14:57:22.419904  2768 layer_factory.hpp:74] Creating layer inception_3b/double_3x3_2_bn
I0614 14:57:22.419987  2768 layer_factory.cpp:181] Layer inception_3b/double_3x3_2_bn is using CUDNN engine.
I0614 14:57:22.420003  2768 net.cpp:99] Creating Layer inception_3b/double_3x3_2_bn
I0614 14:57:22.420009  2768 net.cpp:480] inception_3b/double_3x3_2_bn <- inception_3b/double_3x3_2
I0614 14:57:22.420014  2768 net.cpp:130] This layer is inheriting previous layer's sync mode: 1
I0614 14:57:22.420020  2768 net.cpp:436] inception_3b/double_3x3_2_bn -> inception_3b/double_3x3_2_bn
I0614 14:57:22.420027  2768 net.cpp:163] Setting up inception_3b/double_3x3_2_bn
I0614 14:57:22.420254  2768 cudnn_bn_layer.cpp:30] using cuDNN BN engine
I0614 14:57:22.420269  2768 net.cpp:170] Top shape: 44 96 4 28 28 (13246464)
I0614 14:57:22.420279  2768 layer_factory.hpp:74] Creating layer inception_3b/relu_double_3x3_2
I0614 14:57:22.420292  2768 net.cpp:99] Creating Layer inception_3b/relu_double_3x3_2
I0614 14:57:22.420296  2768 net.cpp:480] inception_3b/relu_double_3x3_2 <- inception_3b/double_3x3_2_bn
I0614 14:57:22.420301  2768 net.cpp:130] This layer is inheriting previous layer's sync mode: 1
I0614 14:57:22.420305  2768 net.cpp:425] inception_3b/relu_double_3x3_2 -> inception_3b/double_3x3_2_bn (in-place)
I0614 14:57:22.420310  2768 net.cpp:163] Setting up inception_3b/relu_double_3x3_2
I0614 14:57:22.421425  2768 net.cpp:170] Top shape: 44 96 4 28 28 (13246464)
I0614 14:57:22.421440  2768 layer_factory.hpp:74] Creating layer inception_3b/pool_2d
I0614 14:57:22.421461  2768 net.cpp:99] Creating Layer inception_3b/pool_2d
I0614 14:57:22.421466  2768 net.cpp:480] inception_3b/pool_2d <- inception_3a/output_inception_3a/output_0_split_3
I0614 14:57:22.421471  2768 net.cpp:130] This layer is inheriting previous layer's sync mode: 1
I0614 14:57:22.421475  2768 net.cpp:436] inception_3b/pool_2d -> inception_3b/pool
I0614 14:57:22.421481  2768 net.cpp:163] Setting up inception_3b/pool_2d
I0614 14:57:22.421641  2768 net.cpp:170] Top shape: 44 256 4 28 28 (35323904)
I0614 14:57:22.421653  2768 layer_factory.hpp:74] Creating layer inception_3b/pool_proj_2d
I0614 14:57:22.421663  2768 net.cpp:99] Creating Layer inception_3b/pool_proj_2d
I0614 14:57:22.421665  2768 net.cpp:480] inception_3b/pool_proj_2d <- inception_3b/pool
I0614 14:57:22.421670  2768 net.cpp:130] This layer is inheriting previous layer's sync mode: 1
I0614 14:57:22.421675  2768 net.cpp:436] inception_3b/pool_proj_2d -> inception_3b/pool_proj
I0614 14:57:22.421681  2768 net.cpp:163] Setting up inception_3b/pool_proj_2d
I0614 14:57:22.538767  2768 net.cpp:170] Top shape: 44 64 4 28 28 (8830976)
I0614 14:57:22.538791  2768 layer_factory.hpp:74] Creating layer inception_3b/pool_proj_bn
I0614 14:57:22.538796  2768 layer_factory.cpp:181] Layer inception_3b/pool_proj_bn is using CUDNN engine.
I0614 14:57:22.538805  2768 net.cpp:99] Creating Layer inception_3b/pool_proj_bn
I0614 14:57:22.538810  2768 net.cpp:480] inception_3b/pool_proj_bn <- inception_3b/pool_proj
I0614 14:57:22.538813  2768 net.cpp:130] This layer is inheriting previous layer's sync mode: 1
I0614 14:57:22.538817  2768 net.cpp:436] inception_3b/pool_proj_bn -> inception_3b/pool_proj_bn
I0614 14:57:22.538825  2768 net.cpp:163] Setting up inception_3b/pool_proj_bn
I0614 14:57:22.542408  2768 cudnn_bn_layer.cpp:30] using cuDNN BN engine
I0614 14:57:22.542426  2768 net.cpp:170] Top shape: 44 64 4 28 28 (8830976)
I0614 14:57:22.542441  2768 layer_factory.hpp:74] Creating layer inception_3b/relu_pool_proj
I0614 14:57:22.542451  2768 net.cpp:99] Creating Layer inception_3b/relu_pool_proj
I0614 14:57:22.542454  2768 net.cpp:480] inception_3b/relu_pool_proj <- inception_3b/pool_proj_bn
I0614 14:57:22.542459  2768 net.cpp:130] This layer is inheriting previous layer's sync mode: 1
I0614 14:57:22.542464  2768 net.cpp:425] inception_3b/relu_pool_proj -> inception_3b/pool_proj_bn (in-place)
I0614 14:57:22.542469  2768 net.cpp:163] Setting up inception_3b/relu_pool_proj
I0614 14:57:22.542654  2768 net.cpp:170] Top shape: 44 64 4 28 28 (8830976)
I0614 14:57:22.542664  2768 layer_factory.hpp:74] Creating layer inception_3b/output
I0614 14:57:22.542670  2768 net.cpp:99] Creating Layer inception_3b/output
I0614 14:57:22.542673  2768 net.cpp:480] inception_3b/output <- inception_3b/1x1_bn
I0614 14:57:22.542680  2768 net.cpp:480] inception_3b/output <- inception_3b/3x3_bn
I0614 14:57:22.542686  2768 net.cpp:480] inception_3b/output <- inception_3b/double_3x3_2_bn
I0614 14:57:22.542690  2768 net.cpp:480] inception_3b/output <- inception_3b/pool_proj_bn
I0614 14:57:22.542693  2768 net.cpp:130] This layer is inheriting previous layer's sync mode: 1
I0614 14:57:22.542697  2768 net.cpp:436] inception_3b/output -> inception_3b/output
I0614 14:57:22.542702  2768 net.cpp:163] Setting up inception_3b/output
I0614 14:57:22.542709  2768 net.cpp:170] Top shape: 44 320 4 28 28 (44154880)
I0614 14:57:22.542712  2768 layer_factory.hpp:74] Creating layer inception_3b/output_inception_3b/output_0_split
I0614 14:57:22.542717  2768 net.cpp:99] Creating Layer inception_3b/output_inception_3b/output_0_split
I0614 14:57:22.542721  2768 net.cpp:480] inception_3b/output_inception_3b/output_0_split <- inception_3b/output
I0614 14:57:22.542726  2768 net.cpp:130] This layer is inheriting previous layer's sync mode: 1
I0614 14:57:22.542728  2768 net.cpp:436] inception_3b/output_inception_3b/output_0_split -> inception_3b/output_inception_3b/output_0_split_0
I0614 14:57:22.542747  2768 net.cpp:436] inception_3b/output_inception_3b/output_0_split -> inception_3b/output_inception_3b/output_0_split_1
I0614 14:57:22.542753  2768 net.cpp:436] inception_3b/output_inception_3b/output_0_split -> inception_3b/output_inception_3b/output_0_split_2
I0614 14:57:22.542757  2768 net.cpp:163] Setting up inception_3b/output_inception_3b/output_0_split
I0614 14:57:22.542763  2768 net.cpp:170] Top shape: 44 320 4 28 28 (44154880)
I0614 14:57:22.542768  2768 net.cpp:170] Top shape: 44 320 4 28 28 (44154880)
I0614 14:57:22.542770  2768 net.cpp:170] Top shape: 44 320 4 28 28 (44154880)
I0614 14:57:22.542773  2768 layer_factory.hpp:74] Creating layer inception_3c/3x3_reduce_2d
I0614 14:57:22.542788  2768 net.cpp:99] Creating Layer inception_3c/3x3_reduce_2d
I0614 14:57:22.542793  2768 net.cpp:480] inception_3c/3x3_reduce_2d <- inception_3b/output_inception_3b/output_0_split_0
I0614 14:57:22.542795  2768 net.cpp:130] This layer is inheriting previous layer's sync mode: 1
I0614 14:57:22.542799  2768 net.cpp:436] inception_3c/3x3_reduce_2d -> inception_3c/3x3_reduce
I0614 14:57:22.542805  2768 net.cpp:163] Setting up inception_3c/3x3_reduce_2d
I0614 14:57:22.737920  2768 net.cpp:170] Top shape: 44 128 4 28 28 (17661952)
I0614 14:57:22.737937  2768 layer_factory.hpp:74] Creating layer inception_3c/3x3_reduce_bn
I0614 14:57:22.737941  2768 layer_factory.cpp:181] Layer inception_3c/3x3_reduce_bn is using CUDNN engine.
I0614 14:57:22.737977  2768 net.cpp:99] Creating Layer inception_3c/3x3_reduce_bn
I0614 14:57:22.737983  2768 net.cpp:480] inception_3c/3x3_reduce_bn <- inception_3c/3x3_reduce
I0614 14:57:22.738008  2768 net.cpp:130] This layer is inheriting previous layer's sync mode: 1
I0614 14:57:22.738013  2768 net.cpp:436] inception_3c/3x3_reduce_bn -> inception_3c/3x3_reduce_bn
I0614 14:57:22.738030  2768 net.cpp:163] Setting up inception_3c/3x3_reduce_bn
I0614 14:57:22.738786  2768 cudnn_bn_layer.cpp:30] using cuDNN BN engine
I0614 14:57:22.738802  2768 net.cpp:170] Top shape: 44 128 4 28 28 (17661952)
I0614 14:57:22.738811  2768 layer_factory.hpp:74] Creating layer inception_3c/relu_3x3_reduce
I0614 14:57:22.738826  2768 net.cpp:99] Creating Layer inception_3c/relu_3x3_reduce
I0614 14:57:22.738831  2768 net.cpp:480] inception_3c/relu_3x3_reduce <- inception_3c/3x3_reduce_bn
I0614 14:57:22.738834  2768 net.cpp:130] This layer is inheriting previous layer's sync mode: 1
I0614 14:57:22.738837  2768 net.cpp:425] inception_3c/relu_3x3_reduce -> inception_3c/3x3_reduce_bn (in-place)
I0614 14:57:22.738842  2768 net.cpp:163] Setting up inception_3c/relu_3x3_reduce
I0614 14:57:22.739044  2768 net.cpp:170] Top shape: 44 128 4 28 28 (17661952)
I0614 14:57:22.739053  2768 layer_factory.hpp:74] Creating layer inception_3c/3x3_2d
I0614 14:57:22.739061  2768 net.cpp:99] Creating Layer inception_3c/3x3_2d
I0614 14:57:22.739065  2768 net.cpp:480] inception_3c/3x3_2d <- inception_3c/3x3_reduce_bn
I0614 14:57:22.739068  2768 net.cpp:130] This layer is inheriting previous layer's sync mode: 1
I0614 14:57:22.739074  2768 net.cpp:436] inception_3c/3x3_2d -> inception_3c/3x3
I0614 14:57:22.739080  2768 net.cpp:163] Setting up inception_3c/3x3_2d
I0614 14:57:22.790807  2768 net.cpp:170] Top shape: 44 160 4 14 14 (5519360)
I0614 14:57:22.790828  2768 layer_factory.hpp:74] Creating layer inception_3c/3x3_bn
I0614 14:57:22.790833  2768 layer_factory.cpp:181] Layer inception_3c/3x3_bn is using CUDNN engine.
I0614 14:57:22.790840  2768 net.cpp:99] Creating Layer inception_3c/3x3_bn
I0614 14:57:22.790843  2768 net.cpp:480] inception_3c/3x3_bn <- inception_3c/3x3
I0614 14:57:22.790848  2768 net.cpp:130] This layer is inheriting previous layer's sync mode: 1
I0614 14:57:22.790851  2768 net.cpp:436] inception_3c/3x3_bn -> inception_3c/3x3_bn
I0614 14:57:22.790858  2768 net.cpp:163] Setting up inception_3c/3x3_bn
I0614 14:57:22.792480  2768 cudnn_bn_layer.cpp:30] using cuDNN BN engine
I0614 14:57:22.792510  2768 net.cpp:170] Top shape: 44 160 4 14 14 (5519360)
I0614 14:57:22.792532  2768 layer_factory.hpp:74] Creating layer inception_3c/relu_3x3
I0614 14:57:22.792546  2768 net.cpp:99] Creating Layer inception_3c/relu_3x3
I0614 14:57:22.792549  2768 net.cpp:480] inception_3c/relu_3x3 <- inception_3c/3x3_bn
I0614 14:57:22.792554  2768 net.cpp:130] This layer is inheriting previous layer's sync mode: 1
I0614 14:57:22.792558  2768 net.cpp:425] inception_3c/relu_3x3 -> inception_3c/3x3_bn (in-place)
I0614 14:57:22.792563  2768 net.cpp:163] Setting up inception_3c/relu_3x3
I0614 14:57:22.792742  2768 net.cpp:170] Top shape: 44 160 4 14 14 (5519360)
I0614 14:57:22.792750  2768 layer_factory.hpp:74] Creating layer inception_3c/double_3x3_reduce_2d
I0614 14:57:22.792758  2768 net.cpp:99] Creating Layer inception_3c/double_3x3_reduce_2d
I0614 14:57:22.792762  2768 net.cpp:480] inception_3c/double_3x3_reduce_2d <- inception_3b/output_inception_3b/output_0_split_1
I0614 14:57:22.792767  2768 net.cpp:130] This layer is inheriting previous layer's sync mode: 1
I0614 14:57:22.792771  2768 net.cpp:436] inception_3c/double_3x3_reduce_2d -> inception_3c/double_3x3_reduce
I0614 14:57:22.792778  2768 net.cpp:163] Setting up inception_3c/double_3x3_reduce_2d
I0614 14:57:22.940862  2768 net.cpp:170] Top shape: 44 64 4 28 28 (8830976)
I0614 14:57:22.940891  2768 layer_factory.hpp:74] Creating layer inception_3c/double_3x3_reduce_bn
I0614 14:57:22.940903  2768 layer_factory.cpp:181] Layer inception_3c/double_3x3_reduce_bn is using CUDNN engine.
I0614 14:57:22.940912  2768 net.cpp:99] Creating Layer inception_3c/double_3x3_reduce_bn
I0614 14:57:22.940917  2768 net.cpp:480] inception_3c/double_3x3_reduce_bn <- inception_3c/double_3x3_reduce
I0614 14:57:22.940920  2768 net.cpp:130] This layer is inheriting previous layer's sync mode: 1
I0614 14:57:22.940925  2768 net.cpp:436] inception_3c/double_3x3_reduce_bn -> inception_3c/double_3x3_reduce_bn
I0614 14:57:22.940943  2768 net.cpp:163] Setting up inception_3c/double_3x3_reduce_bn
I0614 14:57:22.941182  2768 cudnn_bn_layer.cpp:30] using cuDNN BN engine
I0614 14:57:22.941197  2768 net.cpp:170] Top shape: 44 64 4 28 28 (8830976)
I0614 14:57:22.941205  2768 layer_factory.hpp:74] Creating layer inception_3c/relu_double_3x3_reduce
I0614 14:57:22.941212  2768 net.cpp:99] Creating Layer inception_3c/relu_double_3x3_reduce
I0614 14:57:22.941216  2768 net.cpp:480] inception_3c/relu_double_3x3_reduce <- inception_3c/double_3x3_reduce_bn
I0614 14:57:22.941220  2768 net.cpp:130] This layer is inheriting previous layer's sync mode: 1
I0614 14:57:22.941223  2768 net.cpp:425] inception_3c/relu_double_3x3_reduce -> inception_3c/double_3x3_reduce_bn (in-place)
I0614 14:57:22.941228  2768 net.cpp:163] Setting up inception_3c/relu_double_3x3_reduce
I0614 14:57:22.941975  2768 net.cpp:170] Top shape: 44 64 4 28 28 (8830976)
I0614 14:57:22.941987  2768 layer_factory.hpp:74] Creating layer inception_3c/double_3x3_1_2d
I0614 14:57:22.942000  2768 net.cpp:99] Creating Layer inception_3c/double_3x3_1_2d
I0614 14:57:22.942004  2768 net.cpp:480] inception_3c/double_3x3_1_2d <- inception_3c/double_3x3_reduce_bn
I0614 14:57:22.942009  2768 net.cpp:130] This layer is inheriting previous layer's sync mode: 1
I0614 14:57:22.942014  2768 net.cpp:436] inception_3c/double_3x3_1_2d -> inception_3c/double_3x3_1
I0614 14:57:22.942020  2768 net.cpp:163] Setting up inception_3c/double_3x3_1_2d
I0614 14:57:23.044939  2768 net.cpp:170] Top shape: 44 96 4 28 28 (13246464)
I0614 14:57:23.044956  2768 layer_factory.hpp:74] Creating layer inception_3c/double_3x3_1_bn
I0614 14:57:23.044960  2768 layer_factory.cpp:181] Layer inception_3c/double_3x3_1_bn is using CUDNN engine.
I0614 14:57:23.044966  2768 net.cpp:99] Creating Layer inception_3c/double_3x3_1_bn
I0614 14:57:23.044970  2768 net.cpp:480] inception_3c/double_3x3_1_bn <- inception_3c/double_3x3_1
I0614 14:57:23.044975  2768 net.cpp:130] This layer is inheriting previous layer's sync mode: 1
I0614 14:57:23.044980  2768 net.cpp:436] inception_3c/double_3x3_1_bn -> inception_3c/double_3x3_1_bn
I0614 14:57:23.044986  2768 net.cpp:163] Setting up inception_3c/double_3x3_1_bn
I0614 14:57:23.045200  2768 cudnn_bn_layer.cpp:30] using cuDNN BN engine
I0614 14:57:23.045214  2768 net.cpp:170] Top shape: 44 96 4 28 28 (13246464)
I0614 14:57:23.045229  2768 layer_factory.hpp:74] Creating layer inception_3c/relu_double_3x3_1
I0614 14:57:23.045234  2768 net.cpp:99] Creating Layer inception_3c/relu_double_3x3_1
I0614 14:57:23.045249  2768 net.cpp:480] inception_3c/relu_double_3x3_1 <- inception_3c/double_3x3_1_bn
I0614 14:57:23.045255  2768 net.cpp:130] This layer is inheriting previous layer's sync mode: 1
I0614 14:57:23.045259  2768 net.cpp:425] inception_3c/relu_double_3x3_1 -> inception_3c/double_3x3_1_bn (in-place)
I0614 14:57:23.045264  2768 net.cpp:163] Setting up inception_3c/relu_double_3x3_1
I0614 14:57:23.046226  2768 net.cpp:170] Top shape: 44 96 4 28 28 (13246464)
I0614 14:57:23.046237  2768 layer_factory.hpp:74] Creating layer inception_3c/double_3x3_2_2d
I0614 14:57:23.046254  2768 net.cpp:99] Creating Layer inception_3c/double_3x3_2_2d
I0614 14:57:23.046259  2768 net.cpp:480] inception_3c/double_3x3_2_2d <- inception_3c/double_3x3_1_bn
I0614 14:57:23.046262  2768 net.cpp:130] This layer is inheriting previous layer's sync mode: 1
I0614 14:57:23.046268  2768 net.cpp:436] inception_3c/double_3x3_2_2d -> inception_3c/double_3x3_2
I0614 14:57:23.046274  2768 net.cpp:163] Setting up inception_3c/double_3x3_2_2d
I0614 14:57:23.078126  2768 net.cpp:170] Top shape: 44 96 4 14 14 (3311616)
I0614 14:57:23.078156  2768 layer_factory.hpp:74] Creating layer inception_3c/double_3x3_2_bn
I0614 14:57:23.078162  2768 layer_factory.cpp:181] Layer inception_3c/double_3x3_2_bn is using CUDNN engine.
I0614 14:57:23.078171  2768 net.cpp:99] Creating Layer inception_3c/double_3x3_2_bn
I0614 14:57:23.078176  2768 net.cpp:480] inception_3c/double_3x3_2_bn <- inception_3c/double_3x3_2
I0614 14:57:23.078187  2768 net.cpp:130] This layer is inheriting previous layer's sync mode: 1
I0614 14:57:23.078192  2768 net.cpp:436] inception_3c/double_3x3_2_bn -> inception_3c/double_3x3_2_bn
I0614 14:57:23.078199  2768 net.cpp:163] Setting up inception_3c/double_3x3_2_bn
I0614 14:57:23.078426  2768 cudnn_bn_layer.cpp:30] using cuDNN BN engine
I0614 14:57:23.078444  2768 net.cpp:170] Top shape: 44 96 4 14 14 (3311616)
I0614 14:57:23.078481  2768 layer_factory.hpp:74] Creating layer inception_3c/relu_double_3x3_2
I0614 14:57:23.078490  2768 net.cpp:99] Creating Layer inception_3c/relu_double_3x3_2
I0614 14:57:23.078493  2768 net.cpp:480] inception_3c/relu_double_3x3_2 <- inception_3c/double_3x3_2_bn
I0614 14:57:23.078497  2768 net.cpp:130] This layer is inheriting previous layer's sync mode: 1
I0614 14:57:23.078501  2768 net.cpp:425] inception_3c/relu_double_3x3_2 -> inception_3c/double_3x3_2_bn (in-place)
I0614 14:57:23.078506  2768 net.cpp:163] Setting up inception_3c/relu_double_3x3_2
I0614 14:57:23.080790  2768 net.cpp:170] Top shape: 44 96 4 14 14 (3311616)
I0614 14:57:23.080806  2768 layer_factory.hpp:74] Creating layer inception_3c/pool_2d
I0614 14:57:23.080977  2768 net.cpp:99] Creating Layer inception_3c/pool_2d
I0614 14:57:23.080986  2768 net.cpp:480] inception_3c/pool_2d <- inception_3b/output_inception_3b/output_0_split_2
I0614 14:57:23.080991  2768 net.cpp:130] This layer is inheriting previous layer's sync mode: 1
I0614 14:57:23.080998  2768 net.cpp:436] inception_3c/pool_2d -> inception_3c/pool
I0614 14:57:23.081015  2768 net.cpp:163] Setting up inception_3c/pool_2d
I0614 14:57:23.081230  2768 net.cpp:170] Top shape: 44 320 4 14 14 (11038720)
I0614 14:57:23.081251  2768 layer_factory.hpp:74] Creating layer inception_3c/output
I0614 14:57:23.081257  2768 net.cpp:99] Creating Layer inception_3c/output
I0614 14:57:23.081261  2768 net.cpp:480] inception_3c/output <- inception_3c/3x3_bn
I0614 14:57:23.081266  2768 net.cpp:480] inception_3c/output <- inception_3c/double_3x3_2_bn
I0614 14:57:23.081270  2768 net.cpp:480] inception_3c/output <- inception_3c/pool
I0614 14:57:23.081285  2768 net.cpp:130] This layer is inheriting previous layer's sync mode: 1
I0614 14:57:23.081291  2768 net.cpp:436] inception_3c/output -> inception_3c/output_1
I0614 14:57:23.081315  2768 net.cpp:163] Setting up inception_3c/output
I0614 14:57:23.081321  2768 net.cpp:170] Top shape: 44 576 4 14 14 (19869696)
I0614 14:57:23.081324  2768 layer_factory.hpp:74] Creating layer pool_3c
I0614 14:57:23.081331  2768 net.cpp:99] Creating Layer pool_3c
I0614 14:57:23.081333  2768 net.cpp:480] pool_3c <- inception_3c/output_1
I0614 14:57:23.081337  2768 net.cpp:130] This layer is inheriting previous layer's sync mode: 1
I0614 14:57:23.081341  2768 net.cpp:436] pool_3c -> inception_3c/output
I0614 14:57:23.081346  2768 net.cpp:163] Setting up pool_3c
I0614 14:57:23.087158  2768 net.cpp:170] Top shape: 44 576 2 14 14 (9934848)
I0614 14:57:23.087172  2768 layer_factory.hpp:74] Creating layer inception_3c/output_pool_3c_0_split
I0614 14:57:23.087182  2768 net.cpp:99] Creating Layer inception_3c/output_pool_3c_0_split
I0614 14:57:23.087186  2768 net.cpp:480] inception_3c/output_pool_3c_0_split <- inception_3c/output
I0614 14:57:23.087190  2768 net.cpp:130] This layer is inheriting previous layer's sync mode: 1
I0614 14:57:23.087194  2768 net.cpp:436] inception_3c/output_pool_3c_0_split -> inception_3c/output_pool_3c_0_split_0
I0614 14:57:23.087200  2768 net.cpp:436] inception_3c/output_pool_3c_0_split -> inception_3c/output_pool_3c_0_split_1
I0614 14:57:23.087205  2768 net.cpp:436] inception_3c/output_pool_3c_0_split -> inception_3c/output_pool_3c_0_split_2
I0614 14:57:23.087209  2768 net.cpp:436] inception_3c/output_pool_3c_0_split -> inception_3c/output_pool_3c_0_split_3
I0614 14:57:23.087213  2768 net.cpp:163] Setting up inception_3c/output_pool_3c_0_split
I0614 14:57:23.087220  2768 net.cpp:170] Top shape: 44 576 2 14 14 (9934848)
I0614 14:57:23.087235  2768 net.cpp:170] Top shape: 44 576 2 14 14 (9934848)
I0614 14:57:23.087239  2768 net.cpp:170] Top shape: 44 576 2 14 14 (9934848)
I0614 14:57:23.087241  2768 net.cpp:170] Top shape: 44 576 2 14 14 (9934848)
I0614 14:57:23.087250  2768 layer_factory.hpp:74] Creating layer inception_4a/1x1_2d
I0614 14:57:23.087261  2768 net.cpp:99] Creating Layer inception_4a/1x1_2d
I0614 14:57:23.087265  2768 net.cpp:480] inception_4a/1x1_2d <- inception_3c/output_pool_3c_0_split_0
I0614 14:57:23.087268  2768 net.cpp:130] This layer is inheriting previous layer's sync mode: 1
I0614 14:57:23.087272  2768 net.cpp:436] inception_4a/1x1_2d -> inception_4a/1x1
I0614 14:57:23.087277  2768 net.cpp:163] Setting up inception_4a/1x1_2d
I0614 14:57:23.292479  2768 net.cpp:170] Top shape: 44 224 2 14 14 (3863552)
I0614 14:57:23.292521  2768 layer_factory.hpp:74] Creating layer inception_4a/1x1_bn
I0614 14:57:23.292533  2768 layer_factory.cpp:181] Layer inception_4a/1x1_bn is using CUDNN engine.
I0614 14:57:23.292548  2768 net.cpp:99] Creating Layer inception_4a/1x1_bn
I0614 14:57:23.292559  2768 net.cpp:480] inception_4a/1x1_bn <- inception_4a/1x1
I0614 14:57:23.292577  2768 net.cpp:130] This layer is inheriting previous layer's sync mode: 1
I0614 14:57:23.292582  2768 net.cpp:436] inception_4a/1x1_bn -> inception_4a/1x1_bn
I0614 14:57:23.292588  2768 net.cpp:163] Setting up inception_4a/1x1_bn
I0614 14:57:23.292784  2768 cudnn_bn_layer.cpp:30] using cuDNN BN engine
I0614 14:57:23.292798  2768 net.cpp:170] Top shape: 44 224 2 14 14 (3863552)
I0614 14:57:23.292809  2768 layer_factory.hpp:74] Creating layer inception_4a/relu_1x1
I0614 14:57:23.292814  2768 net.cpp:99] Creating Layer inception_4a/relu_1x1
I0614 14:57:23.292817  2768 net.cpp:480] inception_4a/relu_1x1 <- inception_4a/1x1_bn
I0614 14:57:23.292821  2768 net.cpp:130] This layer is inheriting previous layer's sync mode: 1
I0614 14:57:23.292825  2768 net.cpp:425] inception_4a/relu_1x1 -> inception_4a/1x1_bn (in-place)
I0614 14:57:23.292830  2768 net.cpp:163] Setting up inception_4a/relu_1x1
I0614 14:57:23.293578  2768 net.cpp:170] Top shape: 44 224 2 14 14 (3863552)
I0614 14:57:23.293596  2768 layer_factory.hpp:74] Creating layer inception_4a/3x3_reduce_2d
I0614 14:57:23.293607  2768 net.cpp:99] Creating Layer inception_4a/3x3_reduce_2d
I0614 14:57:23.293612  2768 net.cpp:480] inception_4a/3x3_reduce_2d <- inception_3c/output_pool_3c_0_split_1
I0614 14:57:23.293640  2768 net.cpp:130] This layer is inheriting previous layer's sync mode: 1
I0614 14:57:23.293658  2768 net.cpp:436] inception_4a/3x3_reduce_2d -> inception_4a/3x3_reduce
I0614 14:57:23.293665  2768 net.cpp:163] Setting up inception_4a/3x3_reduce_2d
I0614 14:57:23.379743  2768 net.cpp:170] Top shape: 44 64 2 14 14 (1103872)
I0614 14:57:23.379770  2768 layer_factory.hpp:74] Creating layer inception_4a/3x3_reduce_bn
I0614 14:57:23.379776  2768 layer_factory.cpp:181] Layer inception_4a/3x3_reduce_bn is using CUDNN engine.
I0614 14:57:23.379781  2768 net.cpp:99] Creating Layer inception_4a/3x3_reduce_bn
I0614 14:57:23.379786  2768 net.cpp:480] inception_4a/3x3_reduce_bn <- inception_4a/3x3_reduce
I0614 14:57:23.379789  2768 net.cpp:130] This layer is inheriting previous layer's sync mode: 1
I0614 14:57:23.379794  2768 net.cpp:436] inception_4a/3x3_reduce_bn -> inception_4a/3x3_reduce_bn
I0614 14:57:23.379801  2768 net.cpp:163] Setting up inception_4a/3x3_reduce_bn
I0614 14:57:23.383790  2768 cudnn_bn_layer.cpp:30] using cuDNN BN engine
I0614 14:57:23.383828  2768 net.cpp:170] Top shape: 44 64 2 14 14 (1103872)
I0614 14:57:23.383851  2768 layer_factory.hpp:74] Creating layer inception_4a/relu_3x3_reduce
I0614 14:57:23.383857  2768 net.cpp:99] Creating Layer inception_4a/relu_3x3_reduce
I0614 14:57:23.383862  2768 net.cpp:480] inception_4a/relu_3x3_reduce <- inception_4a/3x3_reduce_bn
I0614 14:57:23.383865  2768 net.cpp:130] This layer is inheriting previous layer's sync mode: 1
I0614 14:57:23.383868  2768 net.cpp:425] inception_4a/relu_3x3_reduce -> inception_4a/3x3_reduce_bn (in-place)
I0614 14:57:23.383874  2768 net.cpp:163] Setting up inception_4a/relu_3x3_reduce
I0614 14:57:23.384037  2768 net.cpp:170] Top shape: 44 64 2 14 14 (1103872)
I0614 14:57:23.384047  2768 layer_factory.hpp:74] Creating layer inception_4a/3x3_2d
I0614 14:57:23.384061  2768 net.cpp:99] Creating Layer inception_4a/3x3_2d
I0614 14:57:23.384065  2768 net.cpp:480] inception_4a/3x3_2d <- inception_4a/3x3_reduce_bn
I0614 14:57:23.384069  2768 net.cpp:130] This layer is inheriting previous layer's sync mode: 1
I0614 14:57:23.384074  2768 net.cpp:436] inception_4a/3x3_2d -> inception_4a/3x3
I0614 14:57:23.384083  2768 net.cpp:163] Setting up inception_4a/3x3_2d
I0614 14:57:23.427261  2768 net.cpp:170] Top shape: 44 96 2 14 14 (1655808)
I0614 14:57:23.427281  2768 layer_factory.hpp:74] Creating layer inception_4a/3x3_bn
I0614 14:57:23.427286  2768 layer_factory.cpp:181] Layer inception_4a/3x3_bn is using CUDNN engine.
I0614 14:57:23.427294  2768 net.cpp:99] Creating Layer inception_4a/3x3_bn
I0614 14:57:23.427299  2768 net.cpp:480] inception_4a/3x3_bn <- inception_4a/3x3
I0614 14:57:23.427302  2768 net.cpp:130] This layer is inheriting previous layer's sync mode: 1
I0614 14:57:23.427307  2768 net.cpp:436] inception_4a/3x3_bn -> inception_4a/3x3_bn
I0614 14:57:23.427314  2768 net.cpp:163] Setting up inception_4a/3x3_bn
I0614 14:57:23.428833  2768 cudnn_bn_layer.cpp:30] using cuDNN BN engine
I0614 14:57:23.428853  2768 net.cpp:170] Top shape: 44 96 2 14 14 (1655808)
I0614 14:57:23.428871  2768 layer_factory.hpp:74] Creating layer inception_4a/relu_3x3
I0614 14:57:23.428880  2768 net.cpp:99] Creating Layer inception_4a/relu_3x3
I0614 14:57:23.428894  2768 net.cpp:480] inception_4a/relu_3x3 <- inception_4a/3x3_bn
I0614 14:57:23.428900  2768 net.cpp:130] This layer is inheriting previous layer's sync mode: 1
I0614 14:57:23.428902  2768 net.cpp:425] inception_4a/relu_3x3 -> inception_4a/3x3_bn (in-place)
I0614 14:57:23.428907  2768 net.cpp:163] Setting up inception_4a/relu_3x3
I0614 14:57:23.429064  2768 net.cpp:170] Top shape: 44 96 2 14 14 (1655808)
I0614 14:57:23.429074  2768 layer_factory.hpp:74] Creating layer inception_4a/double_3x3_reduce_2d
I0614 14:57:23.429085  2768 net.cpp:99] Creating Layer inception_4a/double_3x3_reduce_2d
I0614 14:57:23.429090  2768 net.cpp:480] inception_4a/double_3x3_reduce_2d <- inception_3c/output_pool_3c_0_split_2
I0614 14:57:23.429093  2768 net.cpp:130] This layer is inheriting previous layer's sync mode: 1
I0614 14:57:23.429118  2768 net.cpp:436] inception_4a/double_3x3_reduce_2d -> inception_4a/double_3x3_reduce
I0614 14:57:23.429126  2768 net.cpp:163] Setting up inception_4a/double_3x3_reduce_2d
I0614 14:57:23.566042  2768 net.cpp:170] Top shape: 44 96 2 14 14 (1655808)
I0614 14:57:23.566078  2768 layer_factory.hpp:74] Creating layer inception_4a/double_3x3_reduce_bn
I0614 14:57:23.566084  2768 layer_factory.cpp:181] Layer inception_4a/double_3x3_reduce_bn is using CUDNN engine.
I0614 14:57:23.566092  2768 net.cpp:99] Creating Layer inception_4a/double_3x3_reduce_bn
I0614 14:57:23.566095  2768 net.cpp:480] inception_4a/double_3x3_reduce_bn <- inception_4a/double_3x3_reduce
I0614 14:57:23.566100  2768 net.cpp:130] This layer is inheriting previous layer's sync mode: 1
I0614 14:57:23.566104  2768 net.cpp:436] inception_4a/double_3x3_reduce_bn -> inception_4a/double_3x3_reduce_bn
I0614 14:57:23.566112  2768 net.cpp:163] Setting up inception_4a/double_3x3_reduce_bn
I0614 14:57:23.568887  2768 cudnn_bn_layer.cpp:30] using cuDNN BN engine
I0614 14:57:23.568919  2768 net.cpp:170] Top shape: 44 96 2 14 14 (1655808)
I0614 14:57:23.568929  2768 layer_factory.hpp:74] Creating layer inception_4a/relu_double_3x3_reduce
I0614 14:57:23.568953  2768 net.cpp:99] Creating Layer inception_4a/relu_double_3x3_reduce
I0614 14:57:23.568958  2768 net.cpp:480] inception_4a/relu_double_3x3_reduce <- inception_4a/double_3x3_reduce_bn
I0614 14:57:23.568961  2768 net.cpp:130] This layer is inheriting previous layer's sync mode: 1
I0614 14:57:23.568977  2768 net.cpp:425] inception_4a/relu_double_3x3_reduce -> inception_4a/double_3x3_reduce_bn (in-place)
I0614 14:57:23.568984  2768 net.cpp:163] Setting up inception_4a/relu_double_3x3_reduce
I0614 14:57:23.569154  2768 net.cpp:170] Top shape: 44 96 2 14 14 (1655808)
I0614 14:57:23.569164  2768 layer_factory.hpp:74] Creating layer inception_4a/double_3x3_1_2d
I0614 14:57:23.569175  2768 net.cpp:99] Creating Layer inception_4a/double_3x3_1_2d
I0614 14:57:23.569178  2768 net.cpp:480] inception_4a/double_3x3_1_2d <- inception_4a/double_3x3_reduce_bn
I0614 14:57:23.569181  2768 net.cpp:130] This layer is inheriting previous layer's sync mode: 1
I0614 14:57:23.569187  2768 net.cpp:436] inception_4a/double_3x3_1_2d -> inception_4a/double_3x3_1
I0614 14:57:23.569195  2768 net.cpp:163] Setting up inception_4a/double_3x3_1_2d
I0614 14:57:23.636371  2768 net.cpp:170] Top shape: 44 128 2 14 14 (2207744)
I0614 14:57:23.636399  2768 layer_factory.hpp:74] Creating layer inception_4a/double_3x3_1_bn
I0614 14:57:23.636404  2768 layer_factory.cpp:181] Layer inception_4a/double_3x3_1_bn is using CUDNN engine.
I0614 14:57:23.636410  2768 net.cpp:99] Creating Layer inception_4a/double_3x3_1_bn
I0614 14:57:23.636415  2768 net.cpp:480] inception_4a/double_3x3_1_bn <- inception_4a/double_3x3_1
I0614 14:57:23.636418  2768 net.cpp:130] This layer is inheriting previous layer's sync mode: 1
I0614 14:57:23.636423  2768 net.cpp:436] inception_4a/double_3x3_1_bn -> inception_4a/double_3x3_1_bn
I0614 14:57:23.636441  2768 net.cpp:163] Setting up inception_4a/double_3x3_1_bn
I0614 14:57:23.638675  2768 cudnn_bn_layer.cpp:30] using cuDNN BN engine
I0614 14:57:23.638706  2768 net.cpp:170] Top shape: 44 128 2 14 14 (2207744)
I0614 14:57:23.638721  2768 layer_factory.hpp:74] Creating layer inception_4a/relu_double_3x3_1
I0614 14:57:23.638731  2768 net.cpp:99] Creating Layer inception_4a/relu_double_3x3_1
I0614 14:57:23.638736  2768 net.cpp:480] inception_4a/relu_double_3x3_1 <- inception_4a/double_3x3_1_bn
I0614 14:57:23.638739  2768 net.cpp:130] This layer is inheriting previous layer's sync mode: 1
I0614 14:57:23.638742  2768 net.cpp:425] inception_4a/relu_double_3x3_1 -> inception_4a/double_3x3_1_bn (in-place)
I0614 14:57:23.638761  2768 net.cpp:163] Setting up inception_4a/relu_double_3x3_1
I0614 14:57:23.638928  2768 net.cpp:170] Top shape: 44 128 2 14 14 (2207744)
I0614 14:57:23.638949  2768 layer_factory.hpp:74] Creating layer inception_4a/double_3x3_2_2d
I0614 14:57:23.638984  2768 net.cpp:99] Creating Layer inception_4a/double_3x3_2_2d
I0614 14:57:23.638989  2768 net.cpp:480] inception_4a/double_3x3_2_2d <- inception_4a/double_3x3_1_bn
I0614 14:57:23.638993  2768 net.cpp:130] This layer is inheriting previous layer's sync mode: 1
I0614 14:57:23.638999  2768 net.cpp:436] inception_4a/double_3x3_2_2d -> inception_4a/double_3x3_2
I0614 14:57:23.639006  2768 net.cpp:163] Setting up inception_4a/double_3x3_2_2d
I0614 14:57:23.710444  2768 net.cpp:170] Top shape: 44 128 2 14 14 (2207744)
I0614 14:57:23.710479  2768 layer_factory.hpp:74] Creating layer inception_4a/double_3x3_2_bn
I0614 14:57:23.710487  2768 layer_factory.cpp:181] Layer inception_4a/double_3x3_2_bn is using CUDNN engine.
I0614 14:57:23.710495  2768 net.cpp:99] Creating Layer inception_4a/double_3x3_2_bn
I0614 14:57:23.710507  2768 net.cpp:480] inception_4a/double_3x3_2_bn <- inception_4a/double_3x3_2
I0614 14:57:23.710515  2768 net.cpp:130] This layer is inheriting previous layer's sync mode: 1
I0614 14:57:23.710518  2768 net.cpp:436] inception_4a/double_3x3_2_bn -> inception_4a/double_3x3_2_bn
I0614 14:57:23.710532  2768 net.cpp:163] Setting up inception_4a/double_3x3_2_bn
I0614 14:57:23.710788  2768 cudnn_bn_layer.cpp:30] using cuDNN BN engine
I0614 14:57:23.710804  2768 net.cpp:170] Top shape: 44 128 2 14 14 (2207744)
I0614 14:57:23.710813  2768 layer_factory.hpp:74] Creating layer inception_4a/relu_double_3x3_2
I0614 14:57:23.710820  2768 net.cpp:99] Creating Layer inception_4a/relu_double_3x3_2
I0614 14:57:23.710824  2768 net.cpp:480] inception_4a/relu_double_3x3_2 <- inception_4a/double_3x3_2_bn
I0614 14:57:23.710829  2768 net.cpp:130] This layer is inheriting previous layer's sync mode: 1
I0614 14:57:23.710831  2768 net.cpp:425] inception_4a/relu_double_3x3_2 -> inception_4a/double_3x3_2_bn (in-place)
I0614 14:57:23.710835  2768 net.cpp:163] Setting up inception_4a/relu_double_3x3_2
I0614 14:57:23.715003  2768 net.cpp:170] Top shape: 44 128 2 14 14 (2207744)
I0614 14:57:23.715018  2768 layer_factory.hpp:74] Creating layer inception_4a/pool_2d
I0614 14:57:23.715032  2768 net.cpp:99] Creating Layer inception_4a/pool_2d
I0614 14:57:23.715039  2768 net.cpp:480] inception_4a/pool_2d <- inception_3c/output_pool_3c_0_split_3
I0614 14:57:23.715044  2768 net.cpp:130] This layer is inheriting previous layer's sync mode: 1
I0614 14:57:23.715049  2768 net.cpp:436] inception_4a/pool_2d -> inception_4a/pool
I0614 14:57:23.715056  2768 net.cpp:163] Setting up inception_4a/pool_2d
I0614 14:57:23.715225  2768 net.cpp:170] Top shape: 44 576 2 14 14 (9934848)
I0614 14:57:23.715234  2768 layer_factory.hpp:74] Creating layer inception_4a/pool_proj_2d
I0614 14:57:23.715245  2768 net.cpp:99] Creating Layer inception_4a/pool_proj_2d
I0614 14:57:23.715248  2768 net.cpp:480] inception_4a/pool_proj_2d <- inception_4a/pool
I0614 14:57:23.715252  2768 net.cpp:130] This layer is inheriting previous layer's sync mode: 1
I0614 14:57:23.715257  2768 net.cpp:436] inception_4a/pool_proj_2d -> inception_4a/pool_proj
I0614 14:57:23.715265  2768 net.cpp:163] Setting up inception_4a/pool_proj_2d
I0614 14:57:23.863664  2768 net.cpp:170] Top shape: 44 128 2 14 14 (2207744)
I0614 14:57:23.863698  2768 layer_factory.hpp:74] Creating layer inception_4a/pool_proj_bn
I0614 14:57:23.863710  2768 layer_factory.cpp:181] Layer inception_4a/pool_proj_bn is using CUDNN engine.
I0614 14:57:23.863718  2768 net.cpp:99] Creating Layer inception_4a/pool_proj_bn
I0614 14:57:23.863723  2768 net.cpp:480] inception_4a/pool_proj_bn <- inception_4a/pool_proj
I0614 14:57:23.863728  2768 net.cpp:130] This layer is inheriting previous layer's sync mode: 1
I0614 14:57:23.863732  2768 net.cpp:436] inception_4a/pool_proj_bn -> inception_4a/pool_proj_bn
I0614 14:57:23.863739  2768 net.cpp:163] Setting up inception_4a/pool_proj_bn
I0614 14:57:23.865202  2768 cudnn_bn_layer.cpp:30] using cuDNN BN engine
I0614 14:57:23.865250  2768 net.cpp:170] Top shape: 44 128 2 14 14 (2207744)
I0614 14:57:23.865278  2768 layer_factory.hpp:74] Creating layer inception_4a/relu_pool_proj
I0614 14:57:23.865316  2768 net.cpp:99] Creating Layer inception_4a/relu_pool_proj
I0614 14:57:23.865321  2768 net.cpp:480] inception_4a/relu_pool_proj <- inception_4a/pool_proj_bn
I0614 14:57:23.865327  2768 net.cpp:130] This layer is inheriting previous layer's sync mode: 1
I0614 14:57:23.865332  2768 net.cpp:425] inception_4a/relu_pool_proj -> inception_4a/pool_proj_bn (in-place)
I0614 14:57:23.865350  2768 net.cpp:163] Setting up inception_4a/relu_pool_proj
I0614 14:57:23.865525  2768 net.cpp:170] Top shape: 44 128 2 14 14 (2207744)
I0614 14:57:23.865535  2768 layer_factory.hpp:74] Creating layer inception_4a/output
I0614 14:57:23.865540  2768 net.cpp:99] Creating Layer inception_4a/output
I0614 14:57:23.865545  2768 net.cpp:480] inception_4a/output <- inception_4a/1x1_bn
I0614 14:57:23.865550  2768 net.cpp:480] inception_4a/output <- inception_4a/3x3_bn
I0614 14:57:23.865556  2768 net.cpp:480] inception_4a/output <- inception_4a/double_3x3_2_bn
I0614 14:57:23.865558  2768 net.cpp:480] inception_4a/output <- inception_4a/pool_proj_bn
I0614 14:57:23.865561  2768 net.cpp:130] This layer is inheriting previous layer's sync mode: 1
I0614 14:57:23.865566  2768 net.cpp:436] inception_4a/output -> inception_4a/output
I0614 14:57:23.865572  2768 net.cpp:163] Setting up inception_4a/output
I0614 14:57:23.865579  2768 net.cpp:170] Top shape: 44 576 2 14 14 (9934848)
I0614 14:57:23.865582  2768 layer_factory.hpp:74] Creating layer inception_4a/output_inception_4a/output_0_split
I0614 14:57:23.865587  2768 net.cpp:99] Creating Layer inception_4a/output_inception_4a/output_0_split
I0614 14:57:23.865591  2768 net.cpp:480] inception_4a/output_inception_4a/output_0_split <- inception_4a/output
I0614 14:57:23.865593  2768 net.cpp:130] This layer is inheriting previous layer's sync mode: 1
I0614 14:57:23.865600  2768 net.cpp:436] inception_4a/output_inception_4a/output_0_split -> inception_4a/output_inception_4a/output_0_split_0
I0614 14:57:23.865605  2768 net.cpp:436] inception_4a/output_inception_4a/output_0_split -> inception_4a/output_inception_4a/output_0_split_1
I0614 14:57:23.865612  2768 net.cpp:436] inception_4a/output_inception_4a/output_0_split -> inception_4a/output_inception_4a/output_0_split_2
I0614 14:57:23.865615  2768 net.cpp:436] inception_4a/output_inception_4a/output_0_split -> inception_4a/output_inception_4a/output_0_split_3
I0614 14:57:23.865620  2768 net.cpp:163] Setting up inception_4a/output_inception_4a/output_0_split
I0614 14:57:23.865627  2768 net.cpp:170] Top shape: 44 576 2 14 14 (9934848)
I0614 14:57:23.865629  2768 net.cpp:170] Top shape: 44 576 2 14 14 (9934848)
I0614 14:57:23.865633  2768 net.cpp:170] Top shape: 44 576 2 14 14 (9934848)
I0614 14:57:23.865636  2768 net.cpp:170] Top shape: 44 576 2 14 14 (9934848)
I0614 14:57:23.865639  2768 layer_factory.hpp:74] Creating layer inception_4b/1x1_2d
I0614 14:57:23.865653  2768 net.cpp:99] Creating Layer inception_4b/1x1_2d
I0614 14:57:23.865658  2768 net.cpp:480] inception_4b/1x1_2d <- inception_4a/output_inception_4a/output_0_split_0
I0614 14:57:23.865660  2768 net.cpp:130] This layer is inheriting previous layer's sync mode: 1
I0614 14:57:23.865664  2768 net.cpp:436] inception_4b/1x1_2d -> inception_4b/1x1
I0614 14:57:23.865670  2768 net.cpp:163] Setting up inception_4b/1x1_2d
I0614 14:57:24.044811  2768 net.cpp:170] Top shape: 44 192 2 14 14 (3311616)
I0614 14:57:24.044847  2768 layer_factory.hpp:74] Creating layer inception_4b/1x1_bn
I0614 14:57:24.044852  2768 layer_factory.cpp:181] Layer inception_4b/1x1_bn is using CUDNN engine.
I0614 14:57:24.044859  2768 net.cpp:99] Creating Layer inception_4b/1x1_bn
I0614 14:57:24.044863  2768 net.cpp:480] inception_4b/1x1_bn <- inception_4b/1x1
I0614 14:57:24.044868  2768 net.cpp:130] This layer is inheriting previous layer's sync mode: 1
I0614 14:57:24.044872  2768 net.cpp:436] inception_4b/1x1_bn -> inception_4b/1x1_bn
I0614 14:57:24.044879  2768 net.cpp:163] Setting up inception_4b/1x1_bn
I0614 14:57:24.045706  2768 cudnn_bn_layer.cpp:30] using cuDNN BN engine
I0614 14:57:24.045737  2768 net.cpp:170] Top shape: 44 192 2 14 14 (3311616)
I0614 14:57:24.045783  2768 layer_factory.hpp:74] Creating layer inception_4b/relu_1x1
I0614 14:57:24.045789  2768 net.cpp:99] Creating Layer inception_4b/relu_1x1
I0614 14:57:24.045792  2768 net.cpp:480] inception_4b/relu_1x1 <- inception_4b/1x1_bn
I0614 14:57:24.045796  2768 net.cpp:130] This layer is inheriting previous layer's sync mode: 1
I0614 14:57:24.045800  2768 net.cpp:425] inception_4b/relu_1x1 -> inception_4b/1x1_bn (in-place)
I0614 14:57:24.045805  2768 net.cpp:163] Setting up inception_4b/relu_1x1
I0614 14:57:24.046766  2768 net.cpp:170] Top shape: 44 192 2 14 14 (3311616)
I0614 14:57:24.046777  2768 layer_factory.hpp:74] Creating layer inception_4b/3x3_reduce_2d
I0614 14:57:24.046808  2768 net.cpp:99] Creating Layer inception_4b/3x3_reduce_2d
I0614 14:57:24.046823  2768 net.cpp:480] inception_4b/3x3_reduce_2d <- inception_4a/output_inception_4a/output_0_split_1
I0614 14:57:24.046841  2768 net.cpp:130] This layer is inheriting previous layer's sync mode: 1
I0614 14:57:24.046849  2768 net.cpp:436] inception_4b/3x3_reduce_2d -> inception_4b/3x3_reduce
I0614 14:57:24.046856  2768 net.cpp:163] Setting up inception_4b/3x3_reduce_2d
I0614 14:57:24.162732  2768 net.cpp:170] Top shape: 44 96 2 14 14 (1655808)
I0614 14:57:24.162770  2768 layer_factory.hpp:74] Creating layer inception_4b/3x3_reduce_bn
I0614 14:57:24.162776  2768 layer_factory.cpp:181] Layer inception_4b/3x3_reduce_bn is using CUDNN engine.
I0614 14:57:24.162783  2768 net.cpp:99] Creating Layer inception_4b/3x3_reduce_bn
I0614 14:57:24.162789  2768 net.cpp:480] inception_4b/3x3_reduce_bn <- inception_4b/3x3_reduce
I0614 14:57:24.162793  2768 net.cpp:130] This layer is inheriting previous layer's sync mode: 1
I0614 14:57:24.162798  2768 net.cpp:436] inception_4b/3x3_reduce_bn -> inception_4b/3x3_reduce_bn
I0614 14:57:24.162809  2768 net.cpp:163] Setting up inception_4b/3x3_reduce_bn
I0614 14:57:24.164294  2768 cudnn_bn_layer.cpp:30] using cuDNN BN engine
I0614 14:57:24.164319  2768 net.cpp:170] Top shape: 44 96 2 14 14 (1655808)
I0614 14:57:24.164330  2768 layer_factory.hpp:74] Creating layer inception_4b/relu_3x3_reduce
I0614 14:57:24.164346  2768 net.cpp:99] Creating Layer inception_4b/relu_3x3_reduce
I0614 14:57:24.164350  2768 net.cpp:480] inception_4b/relu_3x3_reduce <- inception_4b/3x3_reduce_bn
I0614 14:57:24.164355  2768 net.cpp:130] This layer is inheriting previous layer's sync mode: 1
I0614 14:57:24.164357  2768 net.cpp:425] inception_4b/relu_3x3_reduce -> inception_4b/3x3_reduce_bn (in-place)
I0614 14:57:24.164376  2768 net.cpp:163] Setting up inception_4b/relu_3x3_reduce
I0614 14:57:24.164533  2768 net.cpp:170] Top shape: 44 96 2 14 14 (1655808)
I0614 14:57:24.164543  2768 layer_factory.hpp:74] Creating layer inception_4b/3x3_2d
I0614 14:57:24.164553  2768 net.cpp:99] Creating Layer inception_4b/3x3_2d
I0614 14:57:24.164557  2768 net.cpp:480] inception_4b/3x3_2d <- inception_4b/3x3_reduce_bn
I0614 14:57:24.164561  2768 net.cpp:130] This layer is inheriting previous layer's sync mode: 1
I0614 14:57:24.164566  2768 net.cpp:436] inception_4b/3x3_2d -> inception_4b/3x3
I0614 14:57:24.164572  2768 net.cpp:163] Setting up inception_4b/3x3_2d
I0614 14:57:24.223383  2768 net.cpp:170] Top shape: 44 128 2 14 14 (2207744)
I0614 14:57:24.223413  2768 layer_factory.hpp:74] Creating layer inception_4b/3x3_bn
I0614 14:57:24.223418  2768 layer_factory.cpp:181] Layer inception_4b/3x3_bn is using CUDNN engine.
I0614 14:57:24.223426  2768 net.cpp:99] Creating Layer inception_4b/3x3_bn
I0614 14:57:24.223433  2768 net.cpp:480] inception_4b/3x3_bn <- inception_4b/3x3
I0614 14:57:24.223436  2768 net.cpp:130] This layer is inheriting previous layer's sync mode: 1
I0614 14:57:24.223441  2768 net.cpp:436] inception_4b/3x3_bn -> inception_4b/3x3_bn
I0614 14:57:24.223448  2768 net.cpp:163] Setting up inception_4b/3x3_bn
I0614 14:57:24.223651  2768 cudnn_bn_layer.cpp:30] using cuDNN BN engine
I0614 14:57:24.223665  2768 net.cpp:170] Top shape: 44 128 2 14 14 (2207744)
I0614 14:57:24.223681  2768 layer_factory.hpp:74] Creating layer inception_4b/relu_3x3
I0614 14:57:24.223706  2768 net.cpp:99] Creating Layer inception_4b/relu_3x3
I0614 14:57:24.223711  2768 net.cpp:480] inception_4b/relu_3x3 <- inception_4b/3x3_bn
I0614 14:57:24.223716  2768 net.cpp:130] This layer is inheriting previous layer's sync mode: 1
I0614 14:57:24.223721  2768 net.cpp:425] inception_4b/relu_3x3 -> inception_4b/3x3_bn (in-place)
I0614 14:57:24.223727  2768 net.cpp:163] Setting up inception_4b/relu_3x3
I0614 14:57:24.225886  2768 net.cpp:170] Top shape: 44 128 2 14 14 (2207744)
I0614 14:57:24.225900  2768 layer_factory.hpp:74] Creating layer inception_4b/double_3x3_reduce_2d
I0614 14:57:24.225922  2768 net.cpp:99] Creating Layer inception_4b/double_3x3_reduce_2d
I0614 14:57:24.225935  2768 net.cpp:480] inception_4b/double_3x3_reduce_2d <- inception_4a/output_inception_4a/output_0_split_2
I0614 14:57:24.225940  2768 net.cpp:130] This layer is inheriting previous layer's sync mode: 1
I0614 14:57:24.225946  2768 net.cpp:436] inception_4b/double_3x3_reduce_2d -> inception_4b/double_3x3_reduce
I0614 14:57:24.225961  2768 net.cpp:163] Setting up inception_4b/double_3x3_reduce_2d
I0614 14:57:24.351337  2768 net.cpp:170] Top shape: 44 96 2 14 14 (1655808)
I0614 14:57:24.351384  2768 layer_factory.hpp:74] Creating layer inception_4b/double_3x3_reduce_bn
I0614 14:57:24.351389  2768 layer_factory.cpp:181] Layer inception_4b/double_3x3_reduce_bn is using CUDNN engine.
I0614 14:57:24.351397  2768 net.cpp:99] Creating Layer inception_4b/double_3x3_reduce_bn
I0614 14:57:24.351402  2768 net.cpp:480] inception_4b/double_3x3_reduce_bn <- inception_4b/double_3x3_reduce
I0614 14:57:24.351405  2768 net.cpp:130] This layer is inheriting previous layer's sync mode: 1
I0614 14:57:24.351410  2768 net.cpp:436] inception_4b/double_3x3_reduce_bn -> inception_4b/double_3x3_reduce_bn
I0614 14:57:24.351418  2768 net.cpp:163] Setting up inception_4b/double_3x3_reduce_bn
I0614 14:57:24.351642  2768 cudnn_bn_layer.cpp:30] using cuDNN BN engine
I0614 14:57:24.351656  2768 net.cpp:170] Top shape: 44 96 2 14 14 (1655808)
I0614 14:57:24.351665  2768 layer_factory.hpp:74] Creating layer inception_4b/relu_double_3x3_reduce
I0614 14:57:24.351750  2768 net.cpp:99] Creating Layer inception_4b/relu_double_3x3_reduce
I0614 14:57:24.351776  2768 net.cpp:480] inception_4b/relu_double_3x3_reduce <- inception_4b/double_3x3_reduce_bn
I0614 14:57:24.351793  2768 net.cpp:130] This layer is inheriting previous layer's sync mode: 1
I0614 14:57:24.351802  2768 net.cpp:425] inception_4b/relu_double_3x3_reduce -> inception_4b/double_3x3_reduce_bn (in-place)
I0614 14:57:24.351817  2768 net.cpp:163] Setting up inception_4b/relu_double_3x3_reduce
I0614 14:57:24.357836  2768 net.cpp:170] Top shape: 44 96 2 14 14 (1655808)
I0614 14:57:24.357852  2768 layer_factory.hpp:74] Creating layer inception_4b/double_3x3_1_2d
I0614 14:57:24.357863  2768 net.cpp:99] Creating Layer inception_4b/double_3x3_1_2d
I0614 14:57:24.357868  2768 net.cpp:480] inception_4b/double_3x3_1_2d <- inception_4b/double_3x3_reduce_bn
I0614 14:57:24.357873  2768 net.cpp:130] This layer is inheriting previous layer's sync mode: 1
I0614 14:57:24.357879  2768 net.cpp:436] inception_4b/double_3x3_1_2d -> inception_4b/double_3x3_1
I0614 14:57:24.357887  2768 net.cpp:163] Setting up inception_4b/double_3x3_1_2d
I0614 14:57:24.436787  2768 net.cpp:170] Top shape: 44 128 2 14 14 (2207744)
I0614 14:57:24.436808  2768 layer_factory.hpp:74] Creating layer inception_4b/double_3x3_1_bn
I0614 14:57:24.436815  2768 layer_factory.cpp:181] Layer inception_4b/double_3x3_1_bn is using CUDNN engine.
I0614 14:57:24.436821  2768 net.cpp:99] Creating Layer inception_4b/double_3x3_1_bn
I0614 14:57:24.436825  2768 net.cpp:480] inception_4b/double_3x3_1_bn <- inception_4b/double_3x3_1
I0614 14:57:24.436830  2768 net.cpp:130] This layer is inheriting previous layer's sync mode: 1
I0614 14:57:24.436835  2768 net.cpp:436] inception_4b/double_3x3_1_bn -> inception_4b/double_3x3_1_bn
I0614 14:57:24.436841  2768 net.cpp:163] Setting up inception_4b/double_3x3_1_bn
I0614 14:57:24.437046  2768 cudnn_bn_layer.cpp:30] using cuDNN BN engine
I0614 14:57:24.437068  2768 net.cpp:170] Top shape: 44 128 2 14 14 (2207744)
I0614 14:57:24.437077  2768 layer_factory.hpp:74] Creating layer inception_4b/relu_double_3x3_1
I0614 14:57:24.437088  2768 net.cpp:99] Creating Layer inception_4b/relu_double_3x3_1
I0614 14:57:24.437093  2768 net.cpp:480] inception_4b/relu_double_3x3_1 <- inception_4b/double_3x3_1_bn
I0614 14:57:24.437096  2768 net.cpp:130] This layer is inheriting previous layer's sync mode: 1
I0614 14:57:24.437100  2768 net.cpp:425] inception_4b/relu_double_3x3_1 -> inception_4b/double_3x3_1_bn (in-place)
I0614 14:57:24.437105  2768 net.cpp:163] Setting up inception_4b/relu_double_3x3_1
I0614 14:57:24.437795  2768 net.cpp:170] Top shape: 44 128 2 14 14 (2207744)
I0614 14:57:24.437824  2768 layer_factory.hpp:74] Creating layer inception_4b/double_3x3_2_2d
I0614 14:57:24.437845  2768 net.cpp:99] Creating Layer inception_4b/double_3x3_2_2d
I0614 14:57:24.437849  2768 net.cpp:480] inception_4b/double_3x3_2_2d <- inception_4b/double_3x3_1_bn
I0614 14:57:24.437853  2768 net.cpp:130] This layer is inheriting previous layer's sync mode: 1
I0614 14:57:24.437860  2768 net.cpp:436] inception_4b/double_3x3_2_2d -> inception_4b/double_3x3_2
I0614 14:57:24.437866  2768 net.cpp:163] Setting up inception_4b/double_3x3_2_2d
I0614 14:57:24.513062  2768 net.cpp:170] Top shape: 44 128 2 14 14 (2207744)
I0614 14:57:24.513079  2768 layer_factory.hpp:74] Creating layer inception_4b/double_3x3_2_bn
I0614 14:57:24.513084  2768 layer_factory.cpp:181] Layer inception_4b/double_3x3_2_bn is using CUDNN engine.
I0614 14:57:24.513099  2768 net.cpp:99] Creating Layer inception_4b/double_3x3_2_bn
I0614 14:57:24.513104  2768 net.cpp:480] inception_4b/double_3x3_2_bn <- inception_4b/double_3x3_2
I0614 14:57:24.513109  2768 net.cpp:130] This layer is inheriting previous layer's sync mode: 1
I0614 14:57:24.513114  2768 net.cpp:436] inception_4b/double_3x3_2_bn -> inception_4b/double_3x3_2_bn
I0614 14:57:24.513123  2768 net.cpp:163] Setting up inception_4b/double_3x3_2_bn
I0614 14:57:24.515547  2768 cudnn_bn_layer.cpp:30] using cuDNN BN engine
I0614 14:57:24.515588  2768 net.cpp:170] Top shape: 44 128 2 14 14 (2207744)
I0614 14:57:24.515599  2768 layer_factory.hpp:74] Creating layer inception_4b/relu_double_3x3_2
I0614 14:57:24.515605  2768 net.cpp:99] Creating Layer inception_4b/relu_double_3x3_2
I0614 14:57:24.515609  2768 net.cpp:480] inception_4b/relu_double_3x3_2 <- inception_4b/double_3x3_2_bn
I0614 14:57:24.515614  2768 net.cpp:130] This layer is inheriting previous layer's sync mode: 1
I0614 14:57:24.515619  2768 net.cpp:425] inception_4b/relu_double_3x3_2 -> inception_4b/double_3x3_2_bn (in-place)
I0614 14:57:24.515624  2768 net.cpp:163] Setting up inception_4b/relu_double_3x3_2
I0614 14:57:24.520555  2768 net.cpp:170] Top shape: 44 128 2 14 14 (2207744)
I0614 14:57:24.520568  2768 layer_factory.hpp:74] Creating layer inception_4b/pool_2d
I0614 14:57:24.520578  2768 net.cpp:99] Creating Layer inception_4b/pool_2d
I0614 14:57:24.520582  2768 net.cpp:480] inception_4b/pool_2d <- inception_4a/output_inception_4a/output_0_split_3
I0614 14:57:24.520587  2768 net.cpp:130] This layer is inheriting previous layer's sync mode: 1
I0614 14:57:24.520593  2768 net.cpp:436] inception_4b/pool_2d -> inception_4b/pool
I0614 14:57:24.520601  2768 net.cpp:163] Setting up inception_4b/pool_2d
I0614 14:57:24.520792  2768 net.cpp:170] Top shape: 44 576 2 14 14 (9934848)
I0614 14:57:24.520807  2768 layer_factory.hpp:74] Creating layer inception_4b/pool_proj_2d
I0614 14:57:24.520829  2768 net.cpp:99] Creating Layer inception_4b/pool_proj_2d
I0614 14:57:24.520834  2768 net.cpp:480] inception_4b/pool_proj_2d <- inception_4b/pool
I0614 14:57:24.520838  2768 net.cpp:130] This layer is inheriting previous layer's sync mode: 1
I0614 14:57:24.520841  2768 net.cpp:436] inception_4b/pool_proj_2d -> inception_4b/pool_proj
I0614 14:57:24.520848  2768 net.cpp:163] Setting up inception_4b/pool_proj_2d
I0614 14:57:24.671566  2768 net.cpp:170] Top shape: 44 128 2 14 14 (2207744)
I0614 14:57:24.671583  2768 layer_factory.hpp:74] Creating layer inception_4b/pool_proj_bn
I0614 14:57:24.671607  2768 layer_factory.cpp:181] Layer inception_4b/pool_proj_bn is using CUDNN engine.
I0614 14:57:24.671627  2768 net.cpp:99] Creating Layer inception_4b/pool_proj_bn
I0614 14:57:24.671630  2768 net.cpp:480] inception_4b/pool_proj_bn <- inception_4b/pool_proj
I0614 14:57:24.671634  2768 net.cpp:130] This layer is inheriting previous layer's sync mode: 1
I0614 14:57:24.671638  2768 net.cpp:436] inception_4b/pool_proj_bn -> inception_4b/pool_proj_bn
I0614 14:57:24.671658  2768 net.cpp:163] Setting up inception_4b/pool_proj_bn
I0614 14:57:24.671844  2768 cudnn_bn_layer.cpp:30] using cuDNN BN engine
I0614 14:57:24.671859  2768 net.cpp:170] Top shape: 44 128 2 14 14 (2207744)
I0614 14:57:24.671866  2768 layer_factory.hpp:74] Creating layer inception_4b/relu_pool_proj
I0614 14:57:24.671871  2768 net.cpp:99] Creating Layer inception_4b/relu_pool_proj
I0614 14:57:24.671875  2768 net.cpp:480] inception_4b/relu_pool_proj <- inception_4b/pool_proj_bn
I0614 14:57:24.671880  2768 net.cpp:130] This layer is inheriting previous layer's sync mode: 1
I0614 14:57:24.671885  2768 net.cpp:425] inception_4b/relu_pool_proj -> inception_4b/pool_proj_bn (in-place)
I0614 14:57:24.671891  2768 net.cpp:163] Setting up inception_4b/relu_pool_proj
I0614 14:57:24.675045  2768 net.cpp:170] Top shape: 44 128 2 14 14 (2207744)
I0614 14:57:24.675060  2768 layer_factory.hpp:74] Creating layer inception_4b/output
I0614 14:57:24.675076  2768 net.cpp:99] Creating Layer inception_4b/output
I0614 14:57:24.675081  2768 net.cpp:480] inception_4b/output <- inception_4b/1x1_bn
I0614 14:57:24.675086  2768 net.cpp:480] inception_4b/output <- inception_4b/3x3_bn
I0614 14:57:24.675091  2768 net.cpp:480] inception_4b/output <- inception_4b/double_3x3_2_bn
I0614 14:57:24.675094  2768 net.cpp:480] inception_4b/output <- inception_4b/pool_proj_bn
I0614 14:57:24.675097  2768 net.cpp:130] This layer is inheriting previous layer's sync mode: 1
I0614 14:57:24.675102  2768 net.cpp:436] inception_4b/output -> inception_4b/output
I0614 14:57:24.675108  2768 net.cpp:163] Setting up inception_4b/output
I0614 14:57:24.675117  2768 net.cpp:170] Top shape: 44 576 2 14 14 (9934848)
I0614 14:57:24.675135  2768 layer_factory.hpp:74] Creating layer inception_4b/output_inception_4b/output_0_split
I0614 14:57:24.675276  2768 net.cpp:99] Creating Layer inception_4b/output_inception_4b/output_0_split
I0614 14:57:24.675282  2768 net.cpp:480] inception_4b/output_inception_4b/output_0_split <- inception_4b/output
I0614 14:57:24.675287  2768 net.cpp:130] This layer is inheriting previous layer's sync mode: 1
I0614 14:57:24.675290  2768 net.cpp:436] inception_4b/output_inception_4b/output_0_split -> inception_4b/output_inception_4b/output_0_split_0
I0614 14:57:24.675297  2768 net.cpp:436] inception_4b/output_inception_4b/output_0_split -> inception_4b/output_inception_4b/output_0_split_1
I0614 14:57:24.675302  2768 net.cpp:436] inception_4b/output_inception_4b/output_0_split -> inception_4b/output_inception_4b/output_0_split_2
I0614 14:57:24.675307  2768 net.cpp:436] inception_4b/output_inception_4b/output_0_split -> inception_4b/output_inception_4b/output_0_split_3
I0614 14:57:24.675312  2768 net.cpp:163] Setting up inception_4b/output_inception_4b/output_0_split
I0614 14:57:24.675328  2768 net.cpp:170] Top shape: 44 576 2 14 14 (9934848)
I0614 14:57:24.675331  2768 net.cpp:170] Top shape: 44 576 2 14 14 (9934848)
I0614 14:57:24.675335  2768 net.cpp:170] Top shape: 44 576 2 14 14 (9934848)
I0614 14:57:24.675338  2768 net.cpp:170] Top shape: 44 576 2 14 14 (9934848)
I0614 14:57:24.675341  2768 layer_factory.hpp:74] Creating layer inception_4c/1x1_2d
I0614 14:57:24.675349  2768 net.cpp:99] Creating Layer inception_4c/1x1_2d
I0614 14:57:24.675353  2768 net.cpp:480] inception_4c/1x1_2d <- inception_4b/output_inception_4b/output_0_split_0
I0614 14:57:24.675364  2768 net.cpp:130] This layer is inheriting previous layer's sync mode: 1
I0614 14:57:24.675367  2768 net.cpp:436] inception_4c/1x1_2d -> inception_4c/1x1
I0614 14:57:24.675384  2768 net.cpp:163] Setting up inception_4c/1x1_2d
I0614 14:57:24.837812  2768 net.cpp:170] Top shape: 44 160 2 14 14 (2759680)
I0614 14:57:24.837832  2768 layer_factory.hpp:74] Creating layer inception_4c/1x1_bn
I0614 14:57:24.837839  2768 layer_factory.cpp:181] Layer inception_4c/1x1_bn is using CUDNN engine.
I0614 14:57:24.837846  2768 net.cpp:99] Creating Layer inception_4c/1x1_bn
I0614 14:57:24.837858  2768 net.cpp:480] inception_4c/1x1_bn <- inception_4c/1x1
I0614 14:57:24.837867  2768 net.cpp:130] This layer is inheriting previous layer's sync mode: 1
I0614 14:57:24.837872  2768 net.cpp:436] inception_4c/1x1_bn -> inception_4c/1x1_bn
I0614 14:57:24.837878  2768 net.cpp:163] Setting up inception_4c/1x1_bn
I0614 14:57:24.839110  2768 cudnn_bn_layer.cpp:30] using cuDNN BN engine
I0614 14:57:24.839128  2768 net.cpp:170] Top shape: 44 160 2 14 14 (2759680)
I0614 14:57:24.839141  2768 layer_factory.hpp:74] Creating layer inception_4c/relu_1x1
I0614 14:57:24.839151  2768 net.cpp:99] Creating Layer inception_4c/relu_1x1
I0614 14:57:24.839155  2768 net.cpp:480] inception_4c/relu_1x1 <- inception_4c/1x1_bn
I0614 14:57:24.839159  2768 net.cpp:130] This layer is inheriting previous layer's sync mode: 1
I0614 14:57:24.839161  2768 net.cpp:425] inception_4c/relu_1x1 -> inception_4c/1x1_bn (in-place)
I0614 14:57:24.839166  2768 net.cpp:163] Setting up inception_4c/relu_1x1
I0614 14:57:24.840384  2768 net.cpp:170] Top shape: 44 160 2 14 14 (2759680)
I0614 14:57:24.840396  2768 layer_factory.hpp:74] Creating layer inception_4c/3x3_reduce_2d
I0614 14:57:24.840404  2768 net.cpp:99] Creating Layer inception_4c/3x3_reduce_2d
I0614 14:57:24.840409  2768 net.cpp:480] inception_4c/3x3_reduce_2d <- inception_4b/output_inception_4b/output_0_split_1
I0614 14:57:24.840412  2768 net.cpp:130] This layer is inheriting previous layer's sync mode: 1
I0614 14:57:24.840416  2768 net.cpp:436] inception_4c/3x3_reduce_2d -> inception_4c/3x3_reduce
I0614 14:57:24.840422  2768 net.cpp:163] Setting up inception_4c/3x3_reduce_2d
I0614 14:57:24.971789  2768 net.cpp:170] Top shape: 44 128 2 14 14 (2207744)
I0614 14:57:24.971804  2768 layer_factory.hpp:74] Creating layer inception_4c/3x3_reduce_bn
I0614 14:57:24.971822  2768 layer_factory.cpp:181] Layer inception_4c/3x3_reduce_bn is using CUDNN engine.
I0614 14:57:24.971828  2768 net.cpp:99] Creating Layer inception_4c/3x3_reduce_bn
I0614 14:57:24.971832  2768 net.cpp:480] inception_4c/3x3_reduce_bn <- inception_4c/3x3_reduce
I0614 14:57:24.971837  2768 net.cpp:130] This layer is inheriting previous layer's sync mode: 1
I0614 14:57:24.971840  2768 net.cpp:436] inception_4c/3x3_reduce_bn -> inception_4c/3x3_reduce_bn
I0614 14:57:24.971848  2768 net.cpp:163] Setting up inception_4c/3x3_reduce_bn
I0614 14:57:24.972061  2768 cudnn_bn_layer.cpp:30] using cuDNN BN engine
I0614 14:57:24.972074  2768 net.cpp:170] Top shape: 44 128 2 14 14 (2207744)
I0614 14:57:24.972082  2768 layer_factory.hpp:74] Creating layer inception_4c/relu_3x3_reduce
I0614 14:57:24.972102  2768 net.cpp:99] Creating Layer inception_4c/relu_3x3_reduce
I0614 14:57:24.972107  2768 net.cpp:480] inception_4c/relu_3x3_reduce <- inception_4c/3x3_reduce_bn
I0614 14:57:24.972110  2768 net.cpp:130] This layer is inheriting previous layer's sync mode: 1
I0614 14:57:24.972115  2768 net.cpp:425] inception_4c/relu_3x3_reduce -> inception_4c/3x3_reduce_bn (in-place)
I0614 14:57:24.972120  2768 net.cpp:163] Setting up inception_4c/relu_3x3_reduce
I0614 14:57:24.974503  2768 net.cpp:170] Top shape: 44 128 2 14 14 (2207744)
I0614 14:57:24.974524  2768 layer_factory.hpp:74] Creating layer inception_4c/3x3_2d
I0614 14:57:24.974536  2768 net.cpp:99] Creating Layer inception_4c/3x3_2d
I0614 14:57:24.974541  2768 net.cpp:480] inception_4c/3x3_2d <- inception_4c/3x3_reduce_bn
I0614 14:57:24.974546  2768 net.cpp:130] This layer is inheriting previous layer's sync mode: 1
I0614 14:57:24.974550  2768 net.cpp:436] inception_4c/3x3_2d -> inception_4c/3x3
I0614 14:57:24.974557  2768 net.cpp:163] Setting up inception_4c/3x3_2d
I0614 14:57:25.052521  2768 net.cpp:170] Top shape: 44 160 2 14 14 (2759680)
I0614 14:57:25.052562  2768 layer_factory.hpp:74] Creating layer inception_4c/3x3_bn
I0614 14:57:25.052573  2768 layer_factory.cpp:181] Layer inception_4c/3x3_bn is using CUDNN engine.
I0614 14:57:25.052582  2768 net.cpp:99] Creating Layer inception_4c/3x3_bn
I0614 14:57:25.052588  2768 net.cpp:480] inception_4c/3x3_bn <- inception_4c/3x3
I0614 14:57:25.052594  2768 net.cpp:130] This layer is inheriting previous layer's sync mode: 1
I0614 14:57:25.052599  2768 net.cpp:436] inception_4c/3x3_bn -> inception_4c/3x3_bn
I0614 14:57:25.052608  2768 net.cpp:163] Setting up inception_4c/3x3_bn
I0614 14:57:25.056293  2768 cudnn_bn_layer.cpp:30] using cuDNN BN engine
I0614 14:57:25.056324  2768 net.cpp:170] Top shape: 44 160 2 14 14 (2759680)
I0614 14:57:25.056334  2768 layer_factory.hpp:74] Creating layer inception_4c/relu_3x3
I0614 14:57:25.056340  2768 net.cpp:99] Creating Layer inception_4c/relu_3x3
I0614 14:57:25.056344  2768 net.cpp:480] inception_4c/relu_3x3 <- inception_4c/3x3_bn
I0614 14:57:25.056349  2768 net.cpp:130] This layer is inheriting previous layer's sync mode: 1
I0614 14:57:25.056352  2768 net.cpp:425] inception_4c/relu_3x3 -> inception_4c/3x3_bn (in-place)
I0614 14:57:25.056360  2768 net.cpp:163] Setting up inception_4c/relu_3x3
I0614 14:57:25.060636  2768 net.cpp:170] Top shape: 44 160 2 14 14 (2759680)
I0614 14:57:25.060650  2768 layer_factory.hpp:74] Creating layer inception_4c/double_3x3_reduce_2d
I0614 14:57:25.060664  2768 net.cpp:99] Creating Layer inception_4c/double_3x3_reduce_2d
I0614 14:57:25.060668  2768 net.cpp:480] inception_4c/double_3x3_reduce_2d <- inception_4b/output_inception_4b/output_0_split_2
I0614 14:57:25.060673  2768 net.cpp:130] This layer is inheriting previous layer's sync mode: 1
I0614 14:57:25.060678  2768 net.cpp:436] inception_4c/double_3x3_reduce_2d -> inception_4c/double_3x3_reduce
I0614 14:57:25.060684  2768 net.cpp:163] Setting up inception_4c/double_3x3_reduce_2d
I0614 14:57:25.201902  2768 net.cpp:170] Top shape: 44 128 2 14 14 (2207744)
I0614 14:57:25.201962  2768 layer_factory.hpp:74] Creating layer inception_4c/double_3x3_reduce_bn
I0614 14:57:25.201997  2768 layer_factory.cpp:181] Layer inception_4c/double_3x3_reduce_bn is using CUDNN engine.
I0614 14:57:25.202004  2768 net.cpp:99] Creating Layer inception_4c/double_3x3_reduce_bn
I0614 14:57:25.202008  2768 net.cpp:480] inception_4c/double_3x3_reduce_bn <- inception_4c/double_3x3_reduce
I0614 14:57:25.202013  2768 net.cpp:130] This layer is inheriting previous layer's sync mode: 1
I0614 14:57:25.202029  2768 net.cpp:436] inception_4c/double_3x3_reduce_bn -> inception_4c/double_3x3_reduce_bn
I0614 14:57:25.202036  2768 net.cpp:163] Setting up inception_4c/double_3x3_reduce_bn
I0614 14:57:25.206360  2768 cudnn_bn_layer.cpp:30] using cuDNN BN engine
I0614 14:57:25.206389  2768 net.cpp:170] Top shape: 44 128 2 14 14 (2207744)
I0614 14:57:25.206398  2768 layer_factory.hpp:74] Creating layer inception_4c/relu_double_3x3_reduce
I0614 14:57:25.206408  2768 net.cpp:99] Creating Layer inception_4c/relu_double_3x3_reduce
I0614 14:57:25.206411  2768 net.cpp:480] inception_4c/relu_double_3x3_reduce <- inception_4c/double_3x3_reduce_bn
I0614 14:57:25.206415  2768 net.cpp:130] This layer is inheriting previous layer's sync mode: 1
I0614 14:57:25.206418  2768 net.cpp:425] inception_4c/relu_double_3x3_reduce -> inception_4c/double_3x3_reduce_bn (in-place)
I0614 14:57:25.206424  2768 net.cpp:163] Setting up inception_4c/relu_double_3x3_reduce
I0614 14:57:25.206624  2768 net.cpp:170] Top shape: 44 128 2 14 14 (2207744)
I0614 14:57:25.206632  2768 layer_factory.hpp:74] Creating layer inception_4c/double_3x3_1_2d
I0614 14:57:25.206642  2768 net.cpp:99] Creating Layer inception_4c/double_3x3_1_2d
I0614 14:57:25.206646  2768 net.cpp:480] inception_4c/double_3x3_1_2d <- inception_4c/double_3x3_reduce_bn
I0614 14:57:25.206650  2768 net.cpp:130] This layer is inheriting previous layer's sync mode: 1
I0614 14:57:25.206655  2768 net.cpp:436] inception_4c/double_3x3_1_2d -> inception_4c/double_3x3_1
I0614 14:57:25.206674  2768 net.cpp:163] Setting up inception_4c/double_3x3_1_2d
I0614 14:57:25.288066  2768 net.cpp:170] Top shape: 44 160 2 14 14 (2759680)
I0614 14:57:25.288095  2768 layer_factory.hpp:74] Creating layer inception_4c/double_3x3_1_bn
I0614 14:57:25.288105  2768 layer_factory.cpp:181] Layer inception_4c/double_3x3_1_bn is using CUDNN engine.
I0614 14:57:25.288112  2768 net.cpp:99] Creating Layer inception_4c/double_3x3_1_bn
I0614 14:57:25.288130  2768 net.cpp:480] inception_4c/double_3x3_1_bn <- inception_4c/double_3x3_1
I0614 14:57:25.288134  2768 net.cpp:130] This layer is inheriting previous layer's sync mode: 1
I0614 14:57:25.288139  2768 net.cpp:436] inception_4c/double_3x3_1_bn -> inception_4c/double_3x3_1_bn
I0614 14:57:25.288146  2768 net.cpp:163] Setting up inception_4c/double_3x3_1_bn
I0614 14:57:25.289388  2768 cudnn_bn_layer.cpp:30] using cuDNN BN engine
I0614 14:57:25.289404  2768 net.cpp:170] Top shape: 44 160 2 14 14 (2759680)
I0614 14:57:25.289412  2768 layer_factory.hpp:74] Creating layer inception_4c/relu_double_3x3_1
I0614 14:57:25.289419  2768 net.cpp:99] Creating Layer inception_4c/relu_double_3x3_1
I0614 14:57:25.289423  2768 net.cpp:480] inception_4c/relu_double_3x3_1 <- inception_4c/double_3x3_1_bn
I0614 14:57:25.289427  2768 net.cpp:130] This layer is inheriting previous layer's sync mode: 1
I0614 14:57:25.289430  2768 net.cpp:425] inception_4c/relu_double_3x3_1 -> inception_4c/double_3x3_1_bn (in-place)
I0614 14:57:25.289435  2768 net.cpp:163] Setting up inception_4c/relu_double_3x3_1
I0614 14:57:25.289607  2768 net.cpp:170] Top shape: 44 160 2 14 14 (2759680)
I0614 14:57:25.289615  2768 layer_factory.hpp:74] Creating layer inception_4c/double_3x3_2_2d
I0614 14:57:25.289623  2768 net.cpp:99] Creating Layer inception_4c/double_3x3_2_2d
I0614 14:57:25.289626  2768 net.cpp:480] inception_4c/double_3x3_2_2d <- inception_4c/double_3x3_1_bn
I0614 14:57:25.289630  2768 net.cpp:130] This layer is inheriting previous layer's sync mode: 1
I0614 14:57:25.289635  2768 net.cpp:436] inception_4c/double_3x3_2_2d -> inception_4c/double_3x3_2
I0614 14:57:25.289643  2768 net.cpp:163] Setting up inception_4c/double_3x3_2_2d
I0614 14:57:25.379792  2768 net.cpp:170] Top shape: 44 160 2 14 14 (2759680)
I0614 14:57:25.379812  2768 layer_factory.hpp:74] Creating layer inception_4c/double_3x3_2_bn
I0614 14:57:25.379823  2768 layer_factory.cpp:181] Layer inception_4c/double_3x3_2_bn is using CUDNN engine.
I0614 14:57:25.379829  2768 net.cpp:99] Creating Layer inception_4c/double_3x3_2_bn
I0614 14:57:25.379833  2768 net.cpp:480] inception_4c/double_3x3_2_bn <- inception_4c/double_3x3_2
I0614 14:57:25.379838  2768 net.cpp:130] This layer is inheriting previous layer's sync mode: 1
I0614 14:57:25.379842  2768 net.cpp:436] inception_4c/double_3x3_2_bn -> inception_4c/double_3x3_2_bn
I0614 14:57:25.379848  2768 net.cpp:163] Setting up inception_4c/double_3x3_2_bn
I0614 14:57:25.381680  2768 cudnn_bn_layer.cpp:30] using cuDNN BN engine
I0614 14:57:25.381709  2768 net.cpp:170] Top shape: 44 160 2 14 14 (2759680)
I0614 14:57:25.381724  2768 layer_factory.hpp:74] Creating layer inception_4c/relu_double_3x3_2
I0614 14:57:25.381732  2768 net.cpp:99] Creating Layer inception_4c/relu_double_3x3_2
I0614 14:57:25.381736  2768 net.cpp:480] inception_4c/relu_double_3x3_2 <- inception_4c/double_3x3_2_bn
I0614 14:57:25.381742  2768 net.cpp:130] This layer is inheriting previous layer's sync mode: 1
I0614 14:57:25.381744  2768 net.cpp:425] inception_4c/relu_double_3x3_2 -> inception_4c/double_3x3_2_bn (in-place)
I0614 14:57:25.381750  2768 net.cpp:163] Setting up inception_4c/relu_double_3x3_2
I0614 14:57:25.381927  2768 net.cpp:170] Top shape: 44 160 2 14 14 (2759680)
I0614 14:57:25.381937  2768 layer_factory.hpp:74] Creating layer inception_4c/pool_2d
I0614 14:57:25.381947  2768 net.cpp:99] Creating Layer inception_4c/pool_2d
I0614 14:57:25.381958  2768 net.cpp:480] inception_4c/pool_2d <- inception_4b/output_inception_4b/output_0_split_3
I0614 14:57:25.381963  2768 net.cpp:130] This layer is inheriting previous layer's sync mode: 1
I0614 14:57:25.381996  2768 net.cpp:436] inception_4c/pool_2d -> inception_4c/pool
I0614 14:57:25.382004  2768 net.cpp:163] Setting up inception_4c/pool_2d
I0614 14:57:25.382719  2768 net.cpp:170] Top shape: 44 576 2 14 14 (9934848)
I0614 14:57:25.382730  2768 layer_factory.hpp:74] Creating layer inception_4c/pool_proj_2d
I0614 14:57:25.382743  2768 net.cpp:99] Creating Layer inception_4c/pool_proj_2d
I0614 14:57:25.382747  2768 net.cpp:480] inception_4c/pool_proj_2d <- inception_4c/pool
I0614 14:57:25.382751  2768 net.cpp:130] This layer is inheriting previous layer's sync mode: 1
I0614 14:57:25.382756  2768 net.cpp:436] inception_4c/pool_proj_2d -> inception_4c/pool_proj
I0614 14:57:25.382762  2768 net.cpp:163] Setting up inception_4c/pool_proj_2d
I0614 14:57:25.522677  2768 net.cpp:170] Top shape: 44 128 2 14 14 (2207744)
I0614 14:57:25.522706  2768 layer_factory.hpp:74] Creating layer inception_4c/pool_proj_bn
I0614 14:57:25.522717  2768 layer_factory.cpp:181] Layer inception_4c/pool_proj_bn is using CUDNN engine.
I0614 14:57:25.522724  2768 net.cpp:99] Creating Layer inception_4c/pool_proj_bn
I0614 14:57:25.522728  2768 net.cpp:480] inception_4c/pool_proj_bn <- inception_4c/pool_proj
I0614 14:57:25.522733  2768 net.cpp:130] This layer is inheriting previous layer's sync mode: 1
I0614 14:57:25.522737  2768 net.cpp:436] inception_4c/pool_proj_bn -> inception_4c/pool_proj_bn
I0614 14:57:25.522744  2768 net.cpp:163] Setting up inception_4c/pool_proj_bn
I0614 14:57:25.524096  2768 cudnn_bn_layer.cpp:30] using cuDNN BN engine
I0614 14:57:25.524127  2768 net.cpp:170] Top shape: 44 128 2 14 14 (2207744)
I0614 14:57:25.524441  2768 layer_factory.hpp:74] Creating layer inception_4c/relu_pool_proj
I0614 14:57:25.524454  2768 net.cpp:99] Creating Layer inception_4c/relu_pool_proj
I0614 14:57:25.524458  2768 net.cpp:480] inception_4c/relu_pool_proj <- inception_4c/pool_proj_bn
I0614 14:57:25.524463  2768 net.cpp:130] This layer is inheriting previous layer's sync mode: 1
I0614 14:57:25.524466  2768 net.cpp:425] inception_4c/relu_pool_proj -> inception_4c/pool_proj_bn (in-place)
I0614 14:57:25.524472  2768 net.cpp:163] Setting up inception_4c/relu_pool_proj
I0614 14:57:25.528093  2768 net.cpp:170] Top shape: 44 128 2 14 14 (2207744)
I0614 14:57:25.528106  2768 layer_factory.hpp:74] Creating layer inception_4c/output
I0614 14:57:25.528125  2768 net.cpp:99] Creating Layer inception_4c/output
I0614 14:57:25.528128  2768 net.cpp:480] inception_4c/output <- inception_4c/1x1_bn
I0614 14:57:25.528136  2768 net.cpp:480] inception_4c/output <- inception_4c/3x3_bn
I0614 14:57:25.528139  2768 net.cpp:480] inception_4c/output <- inception_4c/double_3x3_2_bn
I0614 14:57:25.528143  2768 net.cpp:480] inception_4c/output <- inception_4c/pool_proj_bn
I0614 14:57:25.528146  2768 net.cpp:130] This layer is inheriting previous layer's sync mode: 1
I0614 14:57:25.528151  2768 net.cpp:436] inception_4c/output -> inception_4c/output
I0614 14:57:25.528162  2768 net.cpp:163] Setting up inception_4c/output
I0614 14:57:25.528168  2768 net.cpp:170] Top shape: 44 608 2 14 14 (10486784)
I0614 14:57:25.528172  2768 layer_factory.hpp:74] Creating layer inception_4c/output_inception_4c/output_0_split
I0614 14:57:25.528179  2768 net.cpp:99] Creating Layer inception_4c/output_inception_4c/output_0_split
I0614 14:57:25.528182  2768 net.cpp:480] inception_4c/output_inception_4c/output_0_split <- inception_4c/output
I0614 14:57:25.528185  2768 net.cpp:130] This layer is inheriting previous layer's sync mode: 1
I0614 14:57:25.528192  2768 net.cpp:436] inception_4c/output_inception_4c/output_0_split -> inception_4c/output_inception_4c/output_0_split_0
I0614 14:57:25.528198  2768 net.cpp:436] inception_4c/output_inception_4c/output_0_split -> inception_4c/output_inception_4c/output_0_split_1
I0614 14:57:25.528283  2768 net.cpp:436] inception_4c/output_inception_4c/output_0_split -> inception_4c/output_inception_4c/output_0_split_2
I0614 14:57:25.528292  2768 net.cpp:436] inception_4c/output_inception_4c/output_0_split -> inception_4c/output_inception_4c/output_0_split_3
I0614 14:57:25.528308  2768 net.cpp:163] Setting up inception_4c/output_inception_4c/output_0_split
I0614 14:57:25.528316  2768 net.cpp:170] Top shape: 44 608 2 14 14 (10486784)
I0614 14:57:25.528322  2768 net.cpp:170] Top shape: 44 608 2 14 14 (10486784)
I0614 14:57:25.528326  2768 net.cpp:170] Top shape: 44 608 2 14 14 (10486784)
I0614 14:57:25.528329  2768 net.cpp:170] Top shape: 44 608 2 14 14 (10486784)
I0614 14:57:25.528337  2768 layer_factory.hpp:74] Creating layer inception_4d/1x1_2d
I0614 14:57:25.528345  2768 net.cpp:99] Creating Layer inception_4d/1x1_2d
I0614 14:57:25.528348  2768 net.cpp:480] inception_4d/1x1_2d <- inception_4c/output_inception_4c/output_0_split_0
I0614 14:57:25.528352  2768 net.cpp:130] This layer is inheriting previous layer's sync mode: 1
I0614 14:57:25.528357  2768 net.cpp:436] inception_4d/1x1_2d -> inception_4d/1x1
I0614 14:57:25.528362  2768 net.cpp:163] Setting up inception_4d/1x1_2d
I0614 14:57:25.646394  2768 net.cpp:170] Top shape: 44 96 2 14 14 (1655808)
I0614 14:57:25.646445  2768 layer_factory.hpp:74] Creating layer inception_4d/1x1_bn
I0614 14:57:25.646458  2768 layer_factory.cpp:181] Layer inception_4d/1x1_bn is using CUDNN engine.
I0614 14:57:25.646466  2768 net.cpp:99] Creating Layer inception_4d/1x1_bn
I0614 14:57:25.646471  2768 net.cpp:480] inception_4d/1x1_bn <- inception_4d/1x1
I0614 14:57:25.646476  2768 net.cpp:130] This layer is inheriting previous layer's sync mode: 1
I0614 14:57:25.646481  2768 net.cpp:436] inception_4d/1x1_bn -> inception_4d/1x1_bn
I0614 14:57:25.646487  2768 net.cpp:163] Setting up inception_4d/1x1_bn
I0614 14:57:25.649427  2768 cudnn_bn_layer.cpp:30] using cuDNN BN engine
I0614 14:57:25.649456  2768 net.cpp:170] Top shape: 44 96 2 14 14 (1655808)
I0614 14:57:25.649464  2768 layer_factory.hpp:74] Creating layer inception_4d/relu_1x1
I0614 14:57:25.649471  2768 net.cpp:99] Creating Layer inception_4d/relu_1x1
I0614 14:57:25.649474  2768 net.cpp:480] inception_4d/relu_1x1 <- inception_4d/1x1_bn
I0614 14:57:25.649477  2768 net.cpp:130] This layer is inheriting previous layer's sync mode: 1
I0614 14:57:25.649483  2768 net.cpp:425] inception_4d/relu_1x1 -> inception_4d/1x1_bn (in-place)
I0614 14:57:25.649499  2768 net.cpp:163] Setting up inception_4d/relu_1x1
I0614 14:57:25.649683  2768 net.cpp:170] Top shape: 44 96 2 14 14 (1655808)
I0614 14:57:25.649693  2768 layer_factory.hpp:74] Creating layer inception_4d/3x3_reduce_2d
I0614 14:57:25.649708  2768 net.cpp:99] Creating Layer inception_4d/3x3_reduce_2d
I0614 14:57:25.649711  2768 net.cpp:480] inception_4d/3x3_reduce_2d <- inception_4c/output_inception_4c/output_0_split_1
I0614 14:57:25.649715  2768 net.cpp:130] This layer is inheriting previous layer's sync mode: 1
I0614 14:57:25.649721  2768 net.cpp:436] inception_4d/3x3_reduce_2d -> inception_4d/3x3_reduce
I0614 14:57:25.649729  2768 net.cpp:163] Setting up inception_4d/3x3_reduce_2d
I0614 14:57:25.791505  2768 net.cpp:170] Top shape: 44 128 2 14 14 (2207744)
I0614 14:57:25.791524  2768 layer_factory.hpp:74] Creating layer inception_4d/3x3_reduce_bn
I0614 14:57:25.791538  2768 layer_factory.cpp:181] Layer inception_4d/3x3_reduce_bn is using CUDNN engine.
I0614 14:57:25.791545  2768 net.cpp:99] Creating Layer inception_4d/3x3_reduce_bn
I0614 14:57:25.791550  2768 net.cpp:480] inception_4d/3x3_reduce_bn <- inception_4d/3x3_reduce
I0614 14:57:25.791554  2768 net.cpp:130] This layer is inheriting previous layer's sync mode: 1
I0614 14:57:25.791559  2768 net.cpp:436] inception_4d/3x3_reduce_bn -> inception_4d/3x3_reduce_bn
I0614 14:57:25.791565  2768 net.cpp:163] Setting up inception_4d/3x3_reduce_bn
I0614 14:57:25.792368  2768 cudnn_bn_layer.cpp:30] using cuDNN BN engine
I0614 14:57:25.792383  2768 net.cpp:170] Top shape: 44 128 2 14 14 (2207744)
I0614 14:57:25.792398  2768 layer_factory.hpp:74] Creating layer inception_4d/relu_3x3_reduce
I0614 14:57:25.792404  2768 net.cpp:99] Creating Layer inception_4d/relu_3x3_reduce
I0614 14:57:25.792408  2768 net.cpp:480] inception_4d/relu_3x3_reduce <- inception_4d/3x3_reduce_bn
I0614 14:57:25.792443  2768 net.cpp:130] This layer is inheriting previous layer's sync mode: 1
I0614 14:57:25.792448  2768 net.cpp:425] inception_4d/relu_3x3_reduce -> inception_4d/3x3_reduce_bn (in-place)
I0614 14:57:25.792454  2768 net.cpp:163] Setting up inception_4d/relu_3x3_reduce
I0614 14:57:25.792628  2768 net.cpp:170] Top shape: 44 128 2 14 14 (2207744)
I0614 14:57:25.792637  2768 layer_factory.hpp:74] Creating layer inception_4d/3x3_2d
I0614 14:57:25.792649  2768 net.cpp:99] Creating Layer inception_4d/3x3_2d
I0614 14:57:25.792651  2768 net.cpp:480] inception_4d/3x3_2d <- inception_4d/3x3_reduce_bn
I0614 14:57:25.792655  2768 net.cpp:130] This layer is inheriting previous layer's sync mode: 1
I0614 14:57:25.792660  2768 net.cpp:436] inception_4d/3x3_2d -> inception_4d/3x3
I0614 14:57:25.792666  2768 net.cpp:163] Setting up inception_4d/3x3_2d
I0614 14:57:25.878991  2768 net.cpp:170] Top shape: 44 192 2 14 14 (3311616)
I0614 14:57:25.879014  2768 layer_factory.hpp:74] Creating layer inception_4d/3x3_bn
I0614 14:57:25.879021  2768 layer_factory.cpp:181] Layer inception_4d/3x3_bn is using CUDNN engine.
I0614 14:57:25.879029  2768 net.cpp:99] Creating Layer inception_4d/3x3_bn
I0614 14:57:25.879031  2768 net.cpp:480] inception_4d/3x3_bn <- inception_4d/3x3
I0614 14:57:25.879035  2768 net.cpp:130] This layer is inheriting previous layer's sync mode: 1
I0614 14:57:25.879040  2768 net.cpp:436] inception_4d/3x3_bn -> inception_4d/3x3_bn
I0614 14:57:25.879046  2768 net.cpp:163] Setting up inception_4d/3x3_bn
I0614 14:57:25.881379  2768 cudnn_bn_layer.cpp:30] using cuDNN BN engine
I0614 14:57:25.881397  2768 net.cpp:170] Top shape: 44 192 2 14 14 (3311616)
I0614 14:57:25.881422  2768 layer_factory.hpp:74] Creating layer inception_4d/relu_3x3
I0614 14:57:25.881428  2768 net.cpp:99] Creating Layer inception_4d/relu_3x3
I0614 14:57:25.881433  2768 net.cpp:480] inception_4d/relu_3x3 <- inception_4d/3x3_bn
I0614 14:57:25.881439  2768 net.cpp:130] This layer is inheriting previous layer's sync mode: 1
I0614 14:57:25.881443  2768 net.cpp:425] inception_4d/relu_3x3 -> inception_4d/3x3_bn (in-place)
I0614 14:57:25.881448  2768 net.cpp:163] Setting up inception_4d/relu_3x3
I0614 14:57:25.881680  2768 net.cpp:170] Top shape: 44 192 2 14 14 (3311616)
I0614 14:57:25.881690  2768 layer_factory.hpp:74] Creating layer inception_4d/double_3x3_reduce_2d
I0614 14:57:25.881697  2768 net.cpp:99] Creating Layer inception_4d/double_3x3_reduce_2d
I0614 14:57:25.881701  2768 net.cpp:480] inception_4d/double_3x3_reduce_2d <- inception_4c/output_inception_4c/output_0_split_2
I0614 14:57:25.881706  2768 net.cpp:130] This layer is inheriting previous layer's sync mode: 1
I0614 14:57:25.881711  2768 net.cpp:436] inception_4d/double_3x3_reduce_2d -> inception_4d/double_3x3_reduce
I0614 14:57:25.881716  2768 net.cpp:163] Setting up inception_4d/double_3x3_reduce_2d
I0614 14:57:26.054589  2768 net.cpp:170] Top shape: 44 160 2 14 14 (2759680)
I0614 14:57:26.054627  2768 layer_factory.hpp:74] Creating layer inception_4d/double_3x3_reduce_bn
I0614 14:57:26.054646  2768 layer_factory.cpp:181] Layer inception_4d/double_3x3_reduce_bn is using CUDNN engine.
I0614 14:57:26.054654  2768 net.cpp:99] Creating Layer inception_4d/double_3x3_reduce_bn
I0614 14:57:26.054669  2768 net.cpp:480] inception_4d/double_3x3_reduce_bn <- inception_4d/double_3x3_reduce
I0614 14:57:26.054687  2768 net.cpp:130] This layer is inheriting previous layer's sync mode: 1
I0614 14:57:26.054692  2768 net.cpp:436] inception_4d/double_3x3_reduce_bn -> inception_4d/double_3x3_reduce_bn
I0614 14:57:26.054700  2768 net.cpp:163] Setting up inception_4d/double_3x3_reduce_bn
I0614 14:57:26.054949  2768 cudnn_bn_layer.cpp:30] using cuDNN BN engine
I0614 14:57:26.054973  2768 net.cpp:170] Top shape: 44 160 2 14 14 (2759680)
I0614 14:57:26.054981  2768 layer_factory.hpp:74] Creating layer inception_4d/relu_double_3x3_reduce
I0614 14:57:26.054997  2768 net.cpp:99] Creating Layer inception_4d/relu_double_3x3_reduce
I0614 14:57:26.055001  2768 net.cpp:480] inception_4d/relu_double_3x3_reduce <- inception_4d/double_3x3_reduce_bn
I0614 14:57:26.055027  2768 net.cpp:130] This layer is inheriting previous layer's sync mode: 1
I0614 14:57:26.055044  2768 net.cpp:425] inception_4d/relu_double_3x3_reduce -> inception_4d/double_3x3_reduce_bn (in-place)
I0614 14:57:26.055049  2768 net.cpp:163] Setting up inception_4d/relu_double_3x3_reduce
I0614 14:57:26.058024  2768 net.cpp:170] Top shape: 44 160 2 14 14 (2759680)
I0614 14:57:26.058038  2768 layer_factory.hpp:74] Creating layer inception_4d/double_3x3_1_2d
I0614 14:57:26.058053  2768 net.cpp:99] Creating Layer inception_4d/double_3x3_1_2d
I0614 14:57:26.058058  2768 net.cpp:480] inception_4d/double_3x3_1_2d <- inception_4d/double_3x3_reduce_bn
I0614 14:57:26.058064  2768 net.cpp:130] This layer is inheriting previous layer's sync mode: 1
I0614 14:57:26.058070  2768 net.cpp:436] inception_4d/double_3x3_1_2d -> inception_4d/double_3x3_1
I0614 14:57:26.058078  2768 net.cpp:163] Setting up inception_4d/double_3x3_1_2d
I0614 14:57:26.153978  2768 net.cpp:170] Top shape: 44 192 2 14 14 (3311616)
I0614 14:57:26.154003  2768 layer_factory.hpp:74] Creating layer inception_4d/double_3x3_1_bn
I0614 14:57:26.154011  2768 layer_factory.cpp:181] Layer inception_4d/double_3x3_1_bn is using CUDNN engine.
I0614 14:57:26.154019  2768 net.cpp:99] Creating Layer inception_4d/double_3x3_1_bn
I0614 14:57:26.154026  2768 net.cpp:480] inception_4d/double_3x3_1_bn <- inception_4d/double_3x3_1
I0614 14:57:26.154031  2768 net.cpp:130] This layer is inheriting previous layer's sync mode: 1
I0614 14:57:26.154036  2768 net.cpp:436] inception_4d/double_3x3_1_bn -> inception_4d/double_3x3_1_bn
I0614 14:57:26.154045  2768 net.cpp:163] Setting up inception_4d/double_3x3_1_bn
I0614 14:57:26.154270  2768 cudnn_bn_layer.cpp:30] using cuDNN BN engine
I0614 14:57:26.154296  2768 net.cpp:170] Top shape: 44 192 2 14 14 (3311616)
I0614 14:57:26.154424  2768 layer_factory.hpp:74] Creating layer inception_4d/relu_double_3x3_1
I0614 14:57:26.154464  2768 net.cpp:99] Creating Layer inception_4d/relu_double_3x3_1
I0614 14:57:26.154470  2768 net.cpp:480] inception_4d/relu_double_3x3_1 <- inception_4d/double_3x3_1_bn
I0614 14:57:26.154476  2768 net.cpp:130] This layer is inheriting previous layer's sync mode: 1
I0614 14:57:26.154480  2768 net.cpp:425] inception_4d/relu_double_3x3_1 -> inception_4d/double_3x3_1_bn (in-place)
I0614 14:57:26.154487  2768 net.cpp:163] Setting up inception_4d/relu_double_3x3_1
I0614 14:57:26.157963  2768 net.cpp:170] Top shape: 44 192 2 14 14 (3311616)
I0614 14:57:26.157976  2768 layer_factory.hpp:74] Creating layer inception_4d/double_3x3_2_2d
I0614 14:57:26.158020  2768 net.cpp:99] Creating Layer inception_4d/double_3x3_2_2d
I0614 14:57:26.158025  2768 net.cpp:480] inception_4d/double_3x3_2_2d <- inception_4d/double_3x3_1_bn
I0614 14:57:26.158030  2768 net.cpp:130] This layer is inheriting previous layer's sync mode: 1
I0614 14:57:26.158035  2768 net.cpp:436] inception_4d/double_3x3_2_2d -> inception_4d/double_3x3_2
I0614 14:57:26.158041  2768 net.cpp:163] Setting up inception_4d/double_3x3_2_2d
I0614 14:57:26.267410  2768 net.cpp:170] Top shape: 44 192 2 14 14 (3311616)
I0614 14:57:26.267448  2768 layer_factory.hpp:74] Creating layer inception_4d/double_3x3_2_bn
I0614 14:57:26.267453  2768 layer_factory.cpp:181] Layer inception_4d/double_3x3_2_bn is using CUDNN engine.
I0614 14:57:26.267460  2768 net.cpp:99] Creating Layer inception_4d/double_3x3_2_bn
I0614 14:57:26.267465  2768 net.cpp:480] inception_4d/double_3x3_2_bn <- inception_4d/double_3x3_2
I0614 14:57:26.267469  2768 net.cpp:130] This layer is inheriting previous layer's sync mode: 1
I0614 14:57:26.267477  2768 net.cpp:436] inception_4d/double_3x3_2_bn -> inception_4d/double_3x3_2_bn
I0614 14:57:26.267483  2768 net.cpp:163] Setting up inception_4d/double_3x3_2_bn
…
I0614 14:57:33.915411  2768 layer_factory.cpp:181] Layer inception_4e/3x3_reduce_bn is using CUDNN engine.
I0614 14:57:33.915421  2768 net.cpp:99] Creating Layer inception_4e/3x3_reduce_bn
I0614 14:57:33.915442  2768 net.cpp:480] inception_4e/3x3_reduce_bn <- inception_4e/3x3_reduce
I0614 14:57:33.915449  2768 net.cpp:130] This layer is inheriting previous layer's sync mode: 1
I0614 14:57:33.915454  2768 net.cpp:436] inception_4e/3x3_reduce_bn -> inception_4e/3x3_reduce_bn
I0614 14:57:33.915467  2768 net.cpp:163] Setting up inception_4e/3x3_reduce_bn
I0614 14:57:33.915915  2768 cudnn_bn_layer.cpp:30] using cuDNN BN engine
I0614 14:57:33.915938  2768 net.cpp:170] Top shape: 2 128 2 14 14 (100352)
I0614 14:57:33.915948  2768 layer_factory.hpp:74] Creating layer inception_4e/relu_3x3_reduce
I0614 14:57:33.915958  2768 net.cpp:99] Creating Layer inception_4e/relu_3x3_reduce
I0614 14:57:33.915964  2768 net.cpp:480] inception_4e/relu_3x3_reduce <- inception_4e/3x3_reduce_bn
I0614 14:57:33.915969  2768 net.cpp:130] This layer is inheriting previous layer's sync mode: 1
I0614 14:57:33.915974  2768 net.cpp:425] inception_4e/relu_3x3_reduce -> inception_4e/3x3_reduce_bn (in-place)
I0614 14:57:33.915980  2768 net.cpp:163] Setting up inception_4e/relu_3x3_reduce
I0614 14:57:33.921309  2768 net.cpp:170] Top shape: 2 128 2 14 14 (100352)
I0614 14:57:33.921324  2768 layer_factory.hpp:74] Creating layer inception_4e/3x3_2d
I0614 14:57:33.921362  2768 net.cpp:99] Creating Layer inception_4e/3x3_2d
I0614 14:57:33.921367  2768 net.cpp:480] inception_4e/3x3_2d <- inception_4e/3x3_reduce_bn
I0614 14:57:33.921383  2768 net.cpp:130] This layer is inheriting previous layer's sync mode: 1
I0614 14:57:33.921389  2768 net.cpp:436] inception_4e/3x3_2d -> inception_4e/3x3
I0614 14:57:33.921396  2768 net.cpp:163] Setting up inception_4e/3x3_2d
I0614 14:57:33.942402  2768 net.cpp:170] Top shape: 2 192 2 7 7 (37632)
I0614 14:57:33.942428  2768 layer_factory.hpp:74] Creating layer inception_4e/3x3_bn
I0614 14:57:33.942445  2768 layer_factory.cpp:181] Layer inception_4e/3x3_bn is using CUDNN engine.
I0614 14:57:33.942471  2768 net.cpp:99] Creating Layer inception_4e/3x3_bn
I0614 14:57:33.942476  2768 net.cpp:480] inception_4e/3x3_bn <- inception_4e/3x3
I0614 14:57:33.942481  2768 net.cpp:130] This layer is inheriting previous layer's sync mode: 1
I0614 14:57:33.942487  2768 net.cpp:436] inception_4e/3x3_bn -> inception_4e/3x3_bn
I0614 14:57:33.942497  2768 net.cpp:163] Setting up inception_4e/3x3_bn
I0614 14:57:33.942746  2768 cudnn_bn_layer.cpp:30] using cuDNN BN engine
I0614 14:57:33.942778  2768 net.cpp:170] Top shape: 2 192 2 7 7 (37632)
I0614 14:57:33.942791  2768 layer_factory.hpp:74] Creating layer inception_4e/relu_3x3
I0614 14:57:33.942797  2768 net.cpp:99] Creating Layer inception_4e/relu_3x3
I0614 14:57:33.942801  2768 net.cpp:480] inception_4e/relu_3x3 <- inception_4e/3x3_bn
I0614 14:57:33.942806  2768 net.cpp:130] This layer is inheriting previous layer's sync mode: 1
I0614 14:57:33.942811  2768 net.cpp:425] inception_4e/relu_3x3 -> inception_4e/3x3_bn (in-place)
I0614 14:57:33.942816  2768 net.cpp:163] Setting up inception_4e/relu_3x3
I0614 14:57:33.943851  2768 net.cpp:170] Top shape: 2 192 2 7 7 (37632)
I0614 14:57:33.943862  2768 layer_factory.hpp:74] Creating layer inception_4e/double_3x3_reduce_2d
I0614 14:57:33.943886  2768 net.cpp:99] Creating Layer inception_4e/double_3x3_reduce_2d
I0614 14:57:33.943891  2768 net.cpp:480] inception_4e/double_3x3_reduce_2d <- inception_4d/output_inception_4d/output_0_split_1
I0614 14:57:33.943895  2768 net.cpp:130] This layer is inheriting previous layer's sync mode: 1
I0614 14:57:33.943902  2768 net.cpp:436] inception_4e/double_3x3_reduce_2d -> inception_4e/double_3x3_reduce
I0614 14:57:33.943908  2768 net.cpp:163] Setting up inception_4e/double_3x3_reduce_2d
I0614 14:57:34.092244  2768 net.cpp:170] Top shape: 2 192 2 14 14 (150528)
I0614 14:57:34.092272  2768 layer_factory.hpp:74] Creating layer inception_4e/double_3x3_reduce_bn
I0614 14:57:34.092277  2768 layer_factory.cpp:181] Layer inception_4e/double_3x3_reduce_bn is using CUDNN engine.
I0614 14:57:34.092285  2768 net.cpp:99] Creating Layer inception_4e/double_3x3_reduce_bn
I0614 14:57:34.092289  2768 net.cpp:480] inception_4e/double_3x3_reduce_bn <- inception_4e/double_3x3_reduce
I0614 14:57:34.092294  2768 net.cpp:130] This layer is inheriting previous layer's sync mode: 1
I0614 14:57:34.092299  2768 net.cpp:436] inception_4e/double_3x3_reduce_bn -> inception_4e/double_3x3_reduce_bn
I0614 14:57:34.092305  2768 net.cpp:163] Setting up inception_4e/double_3x3_reduce_bn
I0614 14:57:34.092555  2768 cudnn_bn_layer.cpp:30] using cuDNN BN engine
I0614 14:57:34.092569  2768 net.cpp:170] Top shape: 2 192 2 14 14 (150528)
I0614 14:57:34.092577  2768 layer_factory.hpp:74] Creating layer inception_4e/relu_double_3x3_reduce
I0614 14:57:34.092583  2768 net.cpp:99] Creating Layer inception_4e/relu_double_3x3_reduce
I0614 14:57:34.092586  2768 net.cpp:480] inception_4e/relu_double_3x3_reduce <- inception_4e/double_3x3_reduce_bn
I0614 14:57:34.092591  2768 net.cpp:130] This layer is inheriting previous layer's sync mode: 1
I0614 14:57:34.092595  2768 net.cpp:425] inception_4e/relu_double_3x3_reduce -> inception_4e/double_3x3_reduce_bn (in-place)
I0614 14:57:34.092600  2768 net.cpp:163] Setting up inception_4e/relu_double_3x3_reduce
I0614 14:57:34.095289  2768 net.cpp:170] Top shape: 2 192 2 14 14 (150528)
I0614 14:57:34.095307  2768 layer_factory.hpp:74] Creating layer inception_4e/double_3x3_1_2d
I0614 14:57:34.095335  2768 net.cpp:99] Creating Layer inception_4e/double_3x3_1_2d
I0614 14:57:34.095340  2768 net.cpp:480] inception_4e/double_3x3_1_2d <- inception_4e/double_3x3_reduce_bn
I0614 14:57:34.095343  2768 net.cpp:130] This layer is inheriting previous layer's sync mode: 1
I0614 14:57:34.095360  2768 net.cpp:436] inception_4e/double_3x3_1_2d -> inception_4e/double_3x3_1
I0614 14:57:34.095367  2768 net.cpp:163] Setting up inception_4e/double_3x3_1_2d
I0614 14:57:34.189383  2768 net.cpp:170] Top shape: 2 256 2 14 14 (200704)
I0614 14:57:34.189404  2768 layer_factory.hpp:74] Creating layer inception_4e/double_3x3_1_bn
I0614 14:57:34.189410  2768 layer_factory.cpp:181] Layer inception_4e/double_3x3_1_bn is using CUDNN engine.
I0614 14:57:34.189424  2768 net.cpp:99] Creating Layer inception_4e/double_3x3_1_bn
I0614 14:57:34.189440  2768 net.cpp:480] inception_4e/double_3x3_1_bn <- inception_4e/double_3x3_1
I0614 14:57:34.189455  2768 net.cpp:130] This layer is inheriting previous layer's sync mode: 1
I0614 14:57:34.189460  2768 net.cpp:436] inception_4e/double_3x3_1_bn -> inception_4e/double_3x3_1_bn
I0614 14:57:34.189466  2768 net.cpp:163] Setting up inception_4e/double_3x3_1_bn
I0614 14:57:34.193651  2768 cudnn_bn_layer.cpp:30] using cuDNN BN engine
I0614 14:57:34.193691  2768 net.cpp:170] Top shape: 2 256 2 14 14 (200704)
I0614 14:57:34.193702  2768 layer_factory.hpp:74] Creating layer inception_4e/relu_double_3x3_1
I0614 14:57:34.193712  2768 net.cpp:99] Creating Layer inception_4e/relu_double_3x3_1
I0614 14:57:34.193719  2768 net.cpp:480] inception_4e/relu_double_3x3_1 <- inception_4e/double_3x3_1_bn
I0614 14:57:34.193723  2768 net.cpp:130] This layer is inheriting previous layer's sync mode: 1
I0614 14:57:34.193729  2768 net.cpp:425] inception_4e/relu_double_3x3_1 -> inception_4e/double_3x3_1_bn (in-place)
I0614 14:57:34.193737  2768 net.cpp:163] Setting up inception_4e/relu_double_3x3_1
I0614 14:57:34.193964  2768 net.cpp:170] Top shape: 2 256 2 14 14 (200704)
I0614 14:57:34.193974  2768 layer_factory.hpp:74] Creating layer inception_4e/double_3x3_2_2d
I0614 14:57:34.193996  2768 net.cpp:99] Creating Layer inception_4e/double_3x3_2_2d
I0614 14:57:34.194006  2768 net.cpp:480] inception_4e/double_3x3_2_2d <- inception_4e/double_3x3_1_bn
I0614 14:57:34.194010  2768 net.cpp:130] This layer is inheriting previous layer's sync mode: 1
I0614 14:57:34.194016  2768 net.cpp:436] inception_4e/double_3x3_2_2d -> inception_4e/double_3x3_2
I0614 14:57:34.194023  2768 net.cpp:163] Setting up inception_4e/double_3x3_2_2d
I0614 14:57:34.227030  2768 net.cpp:170] Top shape: 2 256 2 7 7 (50176)
I0614 14:57:34.227069  2768 layer_factory.hpp:74] Creating layer inception_4e/double_3x3_2_bn
I0614 14:57:34.227084  2768 layer_factory.cpp:181] Layer inception_4e/double_3x3_2_bn is using CUDNN engine.
I0614 14:57:34.227113  2768 net.cpp:99] Creating Layer inception_4e/double_3x3_2_bn
I0614 14:57:34.227118  2768 net.cpp:480] inception_4e/double_3x3_2_bn <- inception_4e/double_3x3_2
I0614 14:57:34.227136  2768 net.cpp:130] This layer is inheriting previous layer's sync mode: 1
I0614 14:57:34.227151  2768 net.cpp:436] inception_4e/double_3x3_2_bn -> inception_4e/double_3x3_2_bn
I0614 14:57:34.227159  2768 net.cpp:163] Setting up inception_4e/double_3x3_2_bn
I0614 14:57:34.229353  2768 cudnn_bn_layer.cpp:30] using cuDNN BN engine
I0614 14:57:34.229372  2768 net.cpp:170] Top shape: 2 256 2 7 7 (50176)
I0614 14:57:34.229383  2768 layer_factory.hpp:74] Creating layer inception_4e/relu_double_3x3_2
I0614 14:57:34.229391  2768 net.cpp:99] Creating Layer inception_4e/relu_double_3x3_2
I0614 14:57:34.229395  2768 net.cpp:480] inception_4e/relu_double_3x3_2 <- inception_4e/double_3x3_2_bn
I0614 14:57:34.229411  2768 net.cpp:130] This layer is inheriting previous layer's sync mode: 1
I0614 14:57:34.229414  2768 net.cpp:425] inception_4e/relu_double_3x3_2 -> inception_4e/double_3x3_2_bn (in-place)
I0614 14:57:34.229430  2768 net.cpp:163] Setting up inception_4e/relu_double_3x3_2
I0614 14:57:34.229656  2768 net.cpp:170] Top shape: 2 256 2 7 7 (50176)
I0614 14:57:34.229665  2768 layer_factory.hpp:74] Creating layer inception_4e/pool_2d
I0614 14:57:34.229676  2768 net.cpp:99] Creating Layer inception_4e/pool_2d
I0614 14:57:34.229681  2768 net.cpp:480] inception_4e/pool_2d <- inception_4d/output_inception_4d/output_0_split_2
I0614 14:57:34.229686  2768 net.cpp:130] This layer is inheriting previous layer's sync mode: 1
I0614 14:57:34.229691  2768 net.cpp:436] inception_4e/pool_2d -> inception_4e/pool
I0614 14:57:34.229696  2768 net.cpp:163] Setting up inception_4e/pool_2d
I0614 14:57:34.231938  2768 net.cpp:170] Top shape: 2 608 2 7 7 (119168)
I0614 14:57:34.231958  2768 layer_factory.hpp:74] Creating layer inception_4e/output
I0614 14:57:34.231966  2768 net.cpp:99] Creating Layer inception_4e/output
I0614 14:57:34.231971  2768 net.cpp:480] inception_4e/output <- inception_4e/3x3_bn
I0614 14:57:34.231976  2768 net.cpp:480] inception_4e/output <- inception_4e/double_3x3_2_bn
I0614 14:57:34.231981  2768 net.cpp:480] inception_4e/output <- inception_4e/pool
I0614 14:57:34.231984  2768 net.cpp:130] This layer is inheriting previous layer's sync mode: 1
I0614 14:57:34.231989  2768 net.cpp:436] inception_4e/output -> inception_4e/output_1
I0614 14:57:34.231995  2768 net.cpp:163] Setting up inception_4e/output
I0614 14:57:34.232002  2768 net.cpp:170] Top shape: 2 1056 2 7 7 (206976)
I0614 14:57:34.232005  2768 layer_factory.hpp:74] Creating layer pool_4e
I0614 14:57:34.232012  2768 net.cpp:99] Creating Layer pool_4e
I0614 14:57:34.232015  2768 net.cpp:480] pool_4e <- inception_4e/output_1
I0614 14:57:34.232019  2768 net.cpp:130] This layer is inheriting previous layer's sync mode: 1
I0614 14:57:34.232023  2768 net.cpp:436] pool_4e -> inception_4e/output
I0614 14:57:34.232028  2768 net.cpp:163] Setting up pool_4e
I0614 14:57:34.232249  2768 net.cpp:170] Top shape: 2 1056 1 7 7 (103488)
I0614 14:57:34.232259  2768 layer_factory.hpp:74] Creating layer inception_4e/output_pool_4e_0_split
I0614 14:57:34.232267  2768 net.cpp:99] Creating Layer inception_4e/output_pool_4e_0_split
I0614 14:57:34.232270  2768 net.cpp:480] inception_4e/output_pool_4e_0_split <- inception_4e/output
I0614 14:57:34.232275  2768 net.cpp:130] This layer is inheriting previous layer's sync mode: 1
I0614 14:57:34.232280  2768 net.cpp:436] inception_4e/output_pool_4e_0_split -> inception_4e/output_pool_4e_0_split_0
I0614 14:57:34.232285  2768 net.cpp:436] inception_4e/output_pool_4e_0_split -> inception_4e/output_pool_4e_0_split_1
I0614 14:57:34.232290  2768 net.cpp:436] inception_4e/output_pool_4e_0_split -> inception_4e/output_pool_4e_0_split_2
I0614 14:57:34.232296  2768 net.cpp:436] inception_4e/output_pool_4e_0_split -> inception_4e/output_pool_4e_0_split_3
I0614 14:57:34.232300  2768 net.cpp:163] Setting up inception_4e/output_pool_4e_0_split
I0614 14:57:34.232307  2768 net.cpp:170] Top shape: 2 1056 1 7 7 (103488)
I0614 14:57:34.232311  2768 net.cpp:170] Top shape: 2 1056 1 7 7 (103488)
I0614 14:57:34.232314  2768 net.cpp:170] Top shape: 2 1056 1 7 7 (103488)
I0614 14:57:34.232317  2768 net.cpp:170] Top shape: 2 1056 1 7 7 (103488)
I0614 14:57:34.232321  2768 layer_factory.hpp:74] Creating layer inception_5a/1x1_2d
I0614 14:57:34.232327  2768 net.cpp:99] Creating Layer inception_5a/1x1_2d
I0614 14:57:34.232331  2768 net.cpp:480] inception_5a/1x1_2d <- inception_4e/output_pool_4e_0_split_0
I0614 14:57:34.232333  2768 net.cpp:130] This layer is inheriting previous layer's sync mode: 1
I0614 14:57:34.232338  2768 net.cpp:436] inception_5a/1x1_2d -> inception_5a/1x1
I0614 14:57:34.232343  2768 net.cpp:163] Setting up inception_5a/1x1_2d
I0614 14:57:34.316602  2768 net.cpp:170] Top shape: 2 352 1 7 7 (34496)
I0614 14:57:34.316624  2768 layer_factory.hpp:74] Creating layer inception_5a/1x1_bn
I0614 14:57:34.316633  2768 layer_factory.cpp:181] Layer inception_5a/1x1_bn is using CUDNN engine.
I0614 14:57:34.316639  2768 net.cpp:99] Creating Layer inception_5a/1x1_bn
I0614 14:57:34.316658  2768 net.cpp:480] inception_5a/1x1_bn <- inception_5a/1x1
I0614 14:57:34.316678  2768 net.cpp:130] This layer is inheriting previous layer's sync mode: 1
I0614 14:57:34.316684  2768 net.cpp:436] inception_5a/1x1_bn -> inception_5a/1x1_bn
I0614 14:57:34.316690  2768 net.cpp:163] Setting up inception_5a/1x1_bn
I0614 14:57:34.322489  2768 cudnn_bn_layer.cpp:30] using cuDNN BN engine
I0614 14:57:34.322520  2768 net.cpp:170] Top shape: 2 352 1 7 7 (34496)
I0614 14:57:34.322530  2768 layer_factory.hpp:74] Creating layer inception_5a/relu_1x1
I0614 14:57:34.322536  2768 net.cpp:99] Creating Layer inception_5a/relu_1x1
I0614 14:57:34.322541  2768 net.cpp:480] inception_5a/relu_1x1 <- inception_5a/1x1_bn
I0614 14:57:34.322546  2768 net.cpp:130] This layer is inheriting previous layer's sync mode: 1
I0614 14:57:34.322551  2768 net.cpp:425] inception_5a/relu_1x1 -> inception_5a/1x1_bn (in-place)
I0614 14:57:34.322556  2768 net.cpp:163] Setting up inception_5a/relu_1x1
I0614 14:57:34.322775  2768 net.cpp:170] Top shape: 2 352 1 7 7 (34496)
I0614 14:57:34.322787  2768 layer_factory.hpp:74] Creating layer inception_5a/3x3_reduce_2d
I0614 14:57:34.322803  2768 net.cpp:99] Creating Layer inception_5a/3x3_reduce_2d
I0614 14:57:34.322808  2768 net.cpp:480] inception_5a/3x3_reduce_2d <- inception_4e/output_pool_4e_0_split_1
I0614 14:57:34.322813  2768 net.cpp:130] This layer is inheriting previous layer's sync mode: 1
I0614 14:57:34.322818  2768 net.cpp:436] inception_5a/3x3_reduce_2d -> inception_5a/3x3_reduce
I0614 14:57:34.322824  2768 net.cpp:163] Setting up inception_5a/3x3_reduce_2d
I0614 14:57:34.571374  2768 net.cpp:170] Top shape: 2 192 1 7 7 (18816)
I0614 14:57:34.571413  2768 layer_factory.hpp:74] Creating layer inception_5a/3x3_reduce_bn
I0614 14:57:34.571434  2768 layer_factory.cpp:181] Layer inception_5a/3x3_reduce_bn is using CUDNN engine.
I0614 14:57:34.571449  2768 net.cpp:99] Creating Layer inception_5a/3x3_reduce_bn
I0614 14:57:34.571480  2768 net.cpp:480] inception_5a/3x3_reduce_bn <- inception_5a/3x3_reduce
I0614 14:57:34.571493  2768 net.cpp:130] This layer is inheriting previous layer's sync mode: 1
I0614 14:57:34.571499  2768 net.cpp:436] inception_5a/3x3_reduce_bn -> inception_5a/3x3_reduce_bn
I0614 14:57:34.571507  2768 net.cpp:163] Setting up inception_5a/3x3_reduce_bn
I0614 14:57:34.586938  2768 cudnn_bn_layer.cpp:30] using cuDNN BN engine
I0614 14:57:34.586957  2768 net.cpp:170] Top shape: 2 192 1 7 7 (18816)
I0614 14:57:34.586967  2768 layer_factory.hpp:74] Creating layer inception_5a/relu_3x3_reduce
I0614 14:57:34.586999  2768 net.cpp:99] Creating Layer inception_5a/relu_3x3_reduce
I0614 14:57:34.587004  2768 net.cpp:480] inception_5a/relu_3x3_reduce <- inception_5a/3x3_reduce_bn
I0614 14:57:34.587008  2768 net.cpp:130] This layer is inheriting previous layer's sync mode: 1
I0614 14:57:34.587013  2768 net.cpp:425] inception_5a/relu_3x3_reduce -> inception_5a/3x3_reduce_bn (in-place)
I0614 14:57:34.587018  2768 net.cpp:163] Setting up inception_5a/relu_3x3_reduce
I0614 14:57:34.587237  2768 net.cpp:170] Top shape: 2 192 1 7 7 (18816)
I0614 14:57:34.587246  2768 layer_factory.hpp:74] Creating layer inception_5a/3x3_2d
I0614 14:57:34.587275  2768 net.cpp:99] Creating Layer inception_5a/3x3_2d
I0614 14:57:34.587278  2768 net.cpp:480] inception_5a/3x3_2d <- inception_5a/3x3_reduce_bn
I0614 14:57:34.587282  2768 net.cpp:130] This layer is inheriting previous layer's sync mode: 1
I0614 14:57:34.587287  2768 net.cpp:436] inception_5a/3x3_2d -> inception_5a/3x3
I0614 14:57:34.587294  2768 net.cpp:163] Setting up inception_5a/3x3_2d
I0614 14:57:34.705714  2768 net.cpp:170] Top shape: 2 320 1 7 7 (31360)
I0614 14:57:34.705749  2768 layer_factory.hpp:74] Creating layer inception_5a/3x3_bn
I0614 14:57:34.705756  2768 layer_factory.cpp:181] Layer inception_5a/3x3_bn is using CUDNN engine.
I0614 14:57:34.705768  2768 net.cpp:99] Creating Layer inception_5a/3x3_bn
I0614 14:57:34.705775  2768 net.cpp:480] inception_5a/3x3_bn <- inception_5a/3x3
I0614 14:57:34.705780  2768 net.cpp:130] This layer is inheriting previous layer's sync mode: 1
I0614 14:57:34.705785  2768 net.cpp:436] inception_5a/3x3_bn -> inception_5a/3x3_bn
I0614 14:57:34.705832  2768 net.cpp:163] Setting up inception_5a/3x3_bn
I0614 14:57:34.707710  2768 cudnn_bn_layer.cpp:30] using cuDNN BN engine
I0614 14:57:34.707742  2768 net.cpp:170] Top shape: 2 320 1 7 7 (31360)
I0614 14:57:34.707770  2768 layer_factory.hpp:74] Creating layer inception_5a/relu_3x3
I0614 14:57:34.707800  2768 net.cpp:99] Creating Layer inception_5a/relu_3x3
I0614 14:57:34.707829  2768 net.cpp:480] inception_5a/relu_3x3 <- inception_5a/3x3_bn
I0614 14:57:34.707840  2768 net.cpp:130] This layer is inheriting previous layer's sync mode: 1
I0614 14:57:34.707844  2768 net.cpp:425] inception_5a/relu_3x3 -> inception_5a/3x3_bn (in-place)
I0614 14:57:34.707850  2768 net.cpp:163] Setting up inception_5a/relu_3x3
I0614 14:57:34.710533  2768 net.cpp:170] Top shape: 2 320 1 7 7 (31360)
I0614 14:57:34.710548  2768 layer_factory.hpp:74] Creating layer inception_5a/double_3x3_reduce_2d
I0614 14:57:34.710572  2768 net.cpp:99] Creating Layer inception_5a/double_3x3_reduce_2d
I0614 14:57:34.710575  2768 net.cpp:480] inception_5a/double_3x3_reduce_2d <- inception_4e/output_pool_4e_0_split_2
I0614 14:57:34.710580  2768 net.cpp:130] This layer is inheriting previous layer's sync mode: 1
I0614 14:57:34.710585  2768 net.cpp:436] inception_5a/double_3x3_reduce_2d -> inception_5a/double_3x3_reduce
I0614 14:57:34.710610  2768 net.cpp:163] Setting up inception_5a/double_3x3_reduce_2d
I0614 14:57:34.945961  2768 net.cpp:170] Top shape: 2 160 1 7 7 (15680)
I0614 14:57:34.945996  2768 layer_factory.hpp:74] Creating layer inception_5a/double_3x3_reduce_bn
I0614 14:57:34.946024  2768 layer_factory.cpp:181] Layer inception_5a/double_3x3_reduce_bn is using CUDNN engine.
I0614 14:57:34.946034  2768 net.cpp:99] Creating Layer inception_5a/double_3x3_reduce_bn
I0614 14:57:34.946041  2768 net.cpp:480] inception_5a/double_3x3_reduce_bn <- inception_5a/double_3x3_reduce
I0614 14:57:34.946048  2768 net.cpp:130] This layer is inheriting previous layer's sync mode: 1
I0614 14:57:34.946053  2768 net.cpp:436] inception_5a/double_3x3_reduce_bn -> inception_5a/double_3x3_reduce_bn
I0614 14:57:34.946060  2768 net.cpp:163] Setting up inception_5a/double_3x3_reduce_bn
I0614 14:57:34.946336  2768 cudnn_bn_layer.cpp:30] using cuDNN BN engine
I0614 14:57:34.946362  2768 net.cpp:170] Top shape: 2 160 1 7 7 (15680)
I0614 14:57:34.946370  2768 layer_factory.hpp:74] Creating layer inception_5a/relu_double_3x3_reduce
I0614 14:57:34.946379  2768 net.cpp:99] Creating Layer inception_5a/relu_double_3x3_reduce
I0614 14:57:34.946383  2768 net.cpp:480] inception_5a/relu_double_3x3_reduce <- inception_5a/double_3x3_reduce_bn
I0614 14:57:34.946388  2768 net.cpp:130] This layer is inheriting previous layer's sync mode: 1
I0614 14:57:34.946393  2768 net.cpp:425] inception_5a/relu_double_3x3_reduce -> inception_5a/double_3x3_reduce_bn (in-place)
I0614 14:57:34.946398  2768 net.cpp:163] Setting up inception_5a/relu_double_3x3_reduce
I0614 14:57:34.949764  2768 net.cpp:170] Top shape: 2 160 1 7 7 (15680)
I0614 14:57:34.949779  2768 layer_factory.hpp:74] Creating layer inception_5a/double_3x3_1_2d
I0614 14:57:34.949792  2768 net.cpp:99] Creating Layer inception_5a/double_3x3_1_2d
I0614 14:57:34.949797  2768 net.cpp:480] inception_5a/double_3x3_1_2d <- inception_5a/double_3x3_reduce_bn
I0614 14:57:34.949802  2768 net.cpp:130] This layer is inheriting previous layer's sync mode: 1
I0614 14:57:34.949808  2768 net.cpp:436] inception_5a/double_3x3_1_2d -> inception_5a/double_3x3_1
I0614 14:57:34.949825  2768 net.cpp:163] Setting up inception_5a/double_3x3_1_2d
I0614 14:57:35.095587  2768 net.cpp:170] Top shape: 2 224 1 7 7 (21952)
I0614 14:57:35.095620  2768 layer_factory.hpp:74] Creating layer inception_5a/double_3x3_1_bn
I0614 14:57:35.095628  2768 layer_factory.cpp:181] Layer inception_5a/double_3x3_1_bn is using CUDNN engine.
I0614 14:57:35.095638  2768 net.cpp:99] Creating Layer inception_5a/double_3x3_1_bn
I0614 14:57:35.095641  2768 net.cpp:480] inception_5a/double_3x3_1_bn <- inception_5a/double_3x3_1
I0614 14:57:35.095645  2768 net.cpp:130] This layer is inheriting previous layer's sync mode: 1
I0614 14:57:35.095682  2768 net.cpp:436] inception_5a/double_3x3_1_bn -> inception_5a/double_3x3_1_bn
I0614 14:57:35.095690  2768 net.cpp:163] Setting up inception_5a/double_3x3_1_bn
I0614 14:57:35.095970  2768 cudnn_bn_layer.cpp:30] using cuDNN BN engine
I0614 14:57:35.095995  2768 net.cpp:170] Top shape: 2 224 1 7 7 (21952)
I0614 14:57:35.096015  2768 layer_factory.hpp:74] Creating layer inception_5a/relu_double_3x3_1
I0614 14:57:35.096035  2768 net.cpp:99] Creating Layer inception_5a/relu_double_3x3_1
I0614 14:57:35.096040  2768 net.cpp:480] inception_5a/relu_double_3x3_1 <- inception_5a/double_3x3_1_bn
I0614 14:57:35.096045  2768 net.cpp:130] This layer is inheriting previous layer's sync mode: 1
I0614 14:57:35.096047  2768 net.cpp:425] inception_5a/relu_double_3x3_1 -> inception_5a/double_3x3_1_bn (in-place)
I0614 14:57:35.096052  2768 net.cpp:163] Setting up inception_5a/relu_double_3x3_1
I0614 14:57:35.107136  2768 net.cpp:170] Top shape: 2 224 1 7 7 (21952)
I0614 14:57:35.107175  2768 layer_factory.hpp:74] Creating layer inception_5a/double_3x3_2_2d
I0614 14:57:35.107193  2768 net.cpp:99] Creating Layer inception_5a/double_3x3_2_2d
I0614 14:57:35.107200  2768 net.cpp:480] inception_5a/double_3x3_2_2d <- inception_5a/double_3x3_1_bn
I0614 14:57:35.107205  2768 net.cpp:130] This layer is inheriting previous layer's sync mode: 1
I0614 14:57:35.107211  2768 net.cpp:436] inception_5a/double_3x3_2_2d -> inception_5a/double_3x3_2
I0614 14:57:35.107220  2768 net.cpp:163] Setting up inception_5a/double_3x3_2_2d
I0614 14:57:35.203567  2768 net.cpp:170] Top shape: 2 224 1 7 7 (21952)
I0614 14:57:35.203594  2768 layer_factory.hpp:74] Creating layer inception_5a/double_3x3_2_bn
I0614 14:57:35.203600  2768 layer_factory.cpp:181] Layer inception_5a/double_3x3_2_bn is using CUDNN engine.
I0614 14:57:35.203606  2768 net.cpp:99] Creating Layer inception_5a/double_3x3_2_bn
I0614 14:57:35.203611  2768 net.cpp:480] inception_5a/double_3x3_2_bn <- inception_5a/double_3x3_2
I0614 14:57:35.203615  2768 net.cpp:130] This layer is inheriting previous layer's sync mode: 1
I0614 14:57:35.203620  2768 net.cpp:436] inception_5a/double_3x3_2_bn -> inception_5a/double_3x3_2_bn
I0614 14:57:35.203627  2768 net.cpp:163] Setting up inception_5a/double_3x3_2_bn
I0614 14:57:35.203874  2768 cudnn_bn_layer.cpp:30] using cuDNN BN engine
I0614 14:57:35.203889  2768 net.cpp:170] Top shape: 2 224 1 7 7 (21952)
I0614 14:57:35.203898  2768 layer_factory.hpp:74] Creating layer inception_5a/relu_double_3x3_2
I0614 14:57:35.203905  2768 net.cpp:99] Creating Layer inception_5a/relu_double_3x3_2
I0614 14:57:35.203909  2768 net.cpp:480] inception_5a/relu_double_3x3_2 <- inception_5a/double_3x3_2_bn
I0614 14:57:35.203913  2768 net.cpp:130] This layer is inheriting previous layer's sync mode: 1
I0614 14:57:35.203917  2768 net.cpp:425] inception_5a/relu_double_3x3_2 -> inception_5a/double_3x3_2_bn (in-place)
I0614 14:57:35.203922  2768 net.cpp:163] Setting up inception_5a/relu_double_3x3_2
I0614 14:57:35.205335  2768 net.cpp:170] Top shape: 2 224 1 7 7 (21952)
I0614 14:57:35.205348  2768 layer_factory.hpp:74] Creating layer inception_5a/pool_2d
I0614 14:57:35.205370  2768 net.cpp:99] Creating Layer inception_5a/pool_2d
I0614 14:57:35.205375  2768 net.cpp:480] inception_5a/pool_2d <- inception_4e/output_pool_4e_0_split_3
I0614 14:57:35.205380  2768 net.cpp:130] This layer is inheriting previous layer's sync mode: 1
I0614 14:57:35.205385  2768 net.cpp:436] inception_5a/pool_2d -> inception_5a/pool
I0614 14:57:35.205391  2768 net.cpp:163] Setting up inception_5a/pool_2d
I0614 14:57:35.205607  2768 net.cpp:170] Top shape: 2 1056 1 7 7 (103488)
I0614 14:57:35.205623  2768 layer_factory.hpp:74] Creating layer inception_5a/pool_proj_2d
I0614 14:57:35.205633  2768 net.cpp:99] Creating Layer inception_5a/pool_proj_2d
I0614 14:57:35.205637  2768 net.cpp:480] inception_5a/pool_proj_2d <- inception_5a/pool
I0614 14:57:35.205641  2768 net.cpp:130] This layer is inheriting previous layer's sync mode: 1
I0614 14:57:35.205667  2768 net.cpp:436] inception_5a/pool_proj_2d -> inception_5a/pool_proj
I0614 14:57:35.205675  2768 net.cpp:163] Setting up inception_5a/pool_proj_2d
I0614 14:57:35.355234  2768 net.cpp:170] Top shape: 2 128 1 7 7 (12544)
I0614 14:57:35.355283  2768 layer_factory.hpp:74] Creating layer inception_5a/pool_proj_bn
I0614 14:57:35.355304  2768 layer_factory.cpp:181] Layer inception_5a/pool_proj_bn is using CUDNN engine.
I0614 14:57:35.355322  2768 net.cpp:99] Creating Layer inception_5a/pool_proj_bn
I0614 14:57:35.355351  2768 net.cpp:480] inception_5a/pool_proj_bn <- inception_5a/pool_proj
I0614 14:57:35.355365  2768 net.cpp:130] This layer is inheriting previous layer's sync mode: 1
I0614 14:57:35.355376  2768 net.cpp:436] inception_5a/pool_proj_bn -> inception_5a/pool_proj_bn
I0614 14:57:35.355394  2768 net.cpp:163] Setting up inception_5a/pool_proj_bn
I0614 14:57:35.355720  2768 cudnn_bn_layer.cpp:30] using cuDNN BN engine
I0614 14:57:35.355736  2768 net.cpp:170] Top shape: 2 128 1 7 7 (12544)
I0614 14:57:35.355746  2768 layer_factory.hpp:74] Creating layer inception_5a/relu_pool_proj
I0614 14:57:35.355759  2768 net.cpp:99] Creating Layer inception_5a/relu_pool_proj
I0614 14:57:35.355763  2768 net.cpp:480] inception_5a/relu_pool_proj <- inception_5a/pool_proj_bn
I0614 14:57:35.355768  2768 net.cpp:130] This layer is inheriting previous layer's sync mode: 1
I0614 14:57:35.355773  2768 net.cpp:425] inception_5a/relu_pool_proj -> inception_5a/pool_proj_bn (in-place)
I0614 14:57:35.355778  2768 net.cpp:163] Setting up inception_5a/relu_pool_proj
I0614 14:57:35.358814  2768 net.cpp:170] Top shape: 2 128 1 7 7 (12544)
I0614 14:57:35.358839  2768 layer_factory.hpp:74] Creating layer inception_5a/output
I0614 14:57:35.358867  2768 net.cpp:99] Creating Layer inception_5a/output
I0614 14:57:35.358875  2768 net.cpp:480] inception_5a/output <- inception_5a/1x1_bn
I0614 14:57:35.358882  2768 net.cpp:480] inception_5a/output <- inception_5a/3x3_bn
I0614 14:57:35.358889  2768 net.cpp:480] inception_5a/output <- inception_5a/double_3x3_2_bn
I0614 14:57:35.358893  2768 net.cpp:480] inception_5a/output <- inception_5a/pool_proj_bn
I0614 14:57:35.358896  2768 net.cpp:130] This layer is inheriting previous layer's sync mode: 1
I0614 14:57:35.358901  2768 net.cpp:436] inception_5a/output -> inception_5a/output
I0614 14:57:35.358907  2768 net.cpp:163] Setting up inception_5a/output
I0614 14:57:35.358914  2768 net.cpp:170] Top shape: 2 1024 1 7 7 (100352)
I0614 14:57:35.358922  2768 layer_factory.hpp:74] Creating layer inception_5a/output_inception_5a/output_0_split
I0614 14:57:35.358929  2768 net.cpp:99] Creating Layer inception_5a/output_inception_5a/output_0_split
I0614 14:57:35.358933  2768 net.cpp:480] inception_5a/output_inception_5a/output_0_split <- inception_5a/output
I0614 14:57:35.358937  2768 net.cpp:130] This layer is inheriting previous layer's sync mode: 1
I0614 14:57:35.358942  2768 net.cpp:436] inception_5a/output_inception_5a/output_0_split -> inception_5a/output_inception_5a/output_0_split_0
I0614 14:57:35.358948  2768 net.cpp:436] inception_5a/output_inception_5a/output_0_split -> inception_5a/output_inception_5a/output_0_split_1
I0614 14:57:35.358953  2768 net.cpp:436] inception_5a/output_inception_5a/output_0_split -> inception_5a/output_inception_5a/output_0_split_2
I0614 14:57:35.358958  2768 net.cpp:436] inception_5a/output_inception_5a/output_0_split -> inception_5a/output_inception_5a/output_0_split_3
I0614 14:57:35.358968  2768 net.cpp:163] Setting up inception_5a/output_inception_5a/output_0_split
I0614 14:57:35.358974  2768 net.cpp:170] Top shape: 2 1024 1 7 7 (100352)
I0614 14:57:35.358978  2768 net.cpp:170] Top shape: 2 1024 1 7 7 (100352)
I0614 14:57:35.358981  2768 net.cpp:170] Top shape: 2 1024 1 7 7 (100352)
I0614 14:57:35.358985  2768 net.cpp:170] Top shape: 2 1024 1 7 7 (100352)
I0614 14:57:35.358989  2768 layer_factory.hpp:74] Creating layer inception_5b/1x1_2d
I0614 14:57:35.358997  2768 net.cpp:99] Creating Layer inception_5b/1x1_2d
I0614 14:57:35.359000  2768 net.cpp:480] inception_5b/1x1_2d <- inception_5a/output_inception_5a/output_0_split_0
I0614 14:57:35.359019  2768 net.cpp:130] This layer is inheriting previous layer's sync mode: 1
I0614 14:57:35.359025  2768 net.cpp:436] inception_5b/1x1_2d -> inception_5b/1x1
I0614 14:57:35.359030  2768 net.cpp:163] Setting up inception_5b/1x1_2d
I0614 14:57:35.437019  2768 net.cpp:170] Top shape: 2 352 1 7 7 (34496)
I0614 14:57:35.437052  2768 layer_factory.hpp:74] Creating layer inception_5b/1x1_bn
I0614 14:57:35.437062  2768 layer_factory.cpp:181] Layer inception_5b/1x1_bn is using CUDNN engine.
I0614 14:57:35.437070  2768 net.cpp:99] Creating Layer inception_5b/1x1_bn
I0614 14:57:35.437077  2768 net.cpp:480] inception_5b/1x1_bn <- inception_5b/1x1
I0614 14:57:35.437083  2768 net.cpp:130] This layer is inheriting previous layer's sync mode: 1
I0614 14:57:35.437088  2768 net.cpp:436] inception_5b/1x1_bn -> inception_5b/1x1_bn
I0614 14:57:35.437094  2768 net.cpp:163] Setting up inception_5b/1x1_bn
I0614 14:57:35.437309  2768 cudnn_bn_layer.cpp:30] using cuDNN BN engine
I0614 14:57:35.437324  2768 net.cpp:170] Top shape: 2 352 1 7 7 (34496)
I0614 14:57:35.437332  2768 layer_factory.hpp:74] Creating layer inception_5b/relu_1x1
I0614 14:57:35.437346  2768 net.cpp:99] Creating Layer inception_5b/relu_1x1
I0614 14:57:35.437350  2768 net.cpp:480] inception_5b/relu_1x1 <- inception_5b/1x1_bn
I0614 14:57:35.437355  2768 net.cpp:130] This layer is inheriting previous layer's sync mode: 1
I0614 14:57:35.437360  2768 net.cpp:425] inception_5b/relu_1x1 -> inception_5b/1x1_bn (in-place)
I0614 14:57:35.437364  2768 net.cpp:163] Setting up inception_5b/relu_1x1
I0614 14:57:35.441058  2768 net.cpp:170] Top shape: 2 352 1 7 7 (34496)
I0614 14:57:35.441071  2768 layer_factory.hpp:74] Creating layer inception_5b/3x3_reduce_2d
I0614 14:57:35.441093  2768 net.cpp:99] Creating Layer inception_5b/3x3_reduce_2d
I0614 14:57:35.441098  2768 net.cpp:480] inception_5b/3x3_reduce_2d <- inception_5a/output_inception_5a/output_0_split_1
I0614 14:57:35.441103  2768 net.cpp:130] This layer is inheriting previous layer's sync mode: 1
I0614 14:57:35.441109  2768 net.cpp:436] inception_5b/3x3_reduce_2d -> inception_5b/3x3_reduce
I0614 14:57:35.441117  2768 net.cpp:163] Setting up inception_5b/3x3_reduce_2d
I0614 14:57:35.669394  2768 net.cpp:170] Top shape: 2 192 1 7 7 (18816)
I0614 14:57:35.669425  2768 layer_factory.hpp:74] Creating layer inception_5b/3x3_reduce_bn
I0614 14:57:35.669437  2768 layer_factory.cpp:181] Layer inception_5b/3x3_reduce_bn is using CUDNN engine.
I0614 14:57:35.669446  2768 net.cpp:99] Creating Layer inception_5b/3x3_reduce_bn
I0614 14:57:35.669466  2768 net.cpp:480] inception_5b/3x3_reduce_bn <- inception_5b/3x3_reduce
I0614 14:57:35.669473  2768 net.cpp:130] This layer is inheriting previous layer's sync mode: 1
I0614 14:57:35.669477  2768 net.cpp:436] inception_5b/3x3_reduce_bn -> inception_5b/3x3_reduce_bn
I0614 14:57:35.669504  2768 net.cpp:163] Setting up inception_5b/3x3_reduce_bn
I0614 14:57:35.670701  2768 cudnn_bn_layer.cpp:30] using cuDNN BN engine
I0614 14:57:35.670732  2768 net.cpp:170] Top shape: 2 192 1 7 7 (18816)
I0614 14:57:35.670742  2768 layer_factory.hpp:74] Creating layer inception_5b/relu_3x3_reduce
I0614 14:57:35.670753  2768 net.cpp:99] Creating Layer inception_5b/relu_3x3_reduce
I0614 14:57:35.670756  2768 net.cpp:480] inception_5b/relu_3x3_reduce <- inception_5b/3x3_reduce_bn
I0614 14:57:35.670766  2768 net.cpp:130] This layer is inheriting previous layer's sync mode: 1
I0614 14:57:35.670770  2768 net.cpp:425] inception_5b/relu_3x3_reduce -> inception_5b/3x3_reduce_bn (in-place)
I0614 14:57:35.670788  2768 net.cpp:163] Setting up inception_5b/relu_3x3_reduce
I0614 14:57:35.674998  2768 net.cpp:170] Top shape: 2 192 1 7 7 (18816)
I0614 14:57:35.675011  2768 layer_factory.hpp:74] Creating layer inception_5b/3x3_2d
I0614 14:57:35.675021  2768 net.cpp:99] Creating Layer inception_5b/3x3_2d
I0614 14:57:35.675026  2768 net.cpp:480] inception_5b/3x3_2d <- inception_5b/3x3_reduce_bn
I0614 14:57:35.675030  2768 net.cpp:130] This layer is inheriting previous layer's sync mode: 1
I0614 14:57:35.675055  2768 net.cpp:436] inception_5b/3x3_2d -> inception_5b/3x3
I0614 14:57:35.675074  2768 net.cpp:163] Setting up inception_5b/3x3_2d
I0614 14:57:35.788772  2768 net.cpp:170] Top shape: 2 320 1 7 7 (31360)
I0614 14:57:35.788789  2768 layer_factory.hpp:74] Creating layer inception_5b/3x3_bn
I0614 14:57:35.788794  2768 layer_factory.cpp:181] Layer inception_5b/3x3_bn is using CUDNN engine.
I0614 14:57:35.788803  2768 net.cpp:99] Creating Layer inception_5b/3x3_bn
I0614 14:57:35.788807  2768 net.cpp:480] inception_5b/3x3_bn <- inception_5b/3x3
I0614 14:57:35.788812  2768 net.cpp:130] This layer is inheriting previous layer's sync mode: 1
I0614 14:57:35.788816  2768 net.cpp:436] inception_5b/3x3_bn -> inception_5b/3x3_bn
I0614 14:57:35.788831  2768 net.cpp:163] Setting up inception_5b/3x3_bn
I0614 14:57:35.789065  2768 cudnn_bn_layer.cpp:30] using cuDNN BN engine
I0614 14:57:35.789079  2768 net.cpp:170] Top shape: 2 320 1 7 7 (31360)
I0614 14:57:35.789089  2768 layer_factory.hpp:74] Creating layer inception_5b/relu_3x3
I0614 14:57:35.789098  2768 net.cpp:99] Creating Layer inception_5b/relu_3x3
I0614 14:57:35.789101  2768 net.cpp:480] inception_5b/relu_3x3 <- inception_5b/3x3_bn
I0614 14:57:35.789105  2768 net.cpp:130] This layer is inheriting previous layer's sync mode: 1
I0614 14:57:35.789109  2768 net.cpp:425] inception_5b/relu_3x3 -> inception_5b/3x3_bn (in-place)
I0614 14:57:35.789114  2768 net.cpp:163] Setting up inception_5b/relu_3x3
I0614 14:57:35.797726  2768 net.cpp:170] Top shape: 2 320 1 7 7 (31360)
I0614 14:57:35.797751  2768 layer_factory.hpp:74] Creating layer inception_5b/double_3x3_reduce_2d
I0614 14:57:35.797775  2768 net.cpp:99] Creating Layer inception_5b/double_3x3_reduce_2d
I0614 14:57:35.797780  2768 net.cpp:480] inception_5b/double_3x3_reduce_2d <- inception_5a/output_inception_5a/output_0_split_2
I0614 14:57:35.797785  2768 net.cpp:130] This layer is inheriting previous layer's sync mode: 1
I0614 14:57:35.797791  2768 net.cpp:436] inception_5b/double_3x3_reduce_2d -> inception_5b/double_3x3_reduce
I0614 14:57:35.797797  2768 net.cpp:163] Setting up inception_5b/double_3x3_reduce_2d
I0614 14:57:36.036506  2768 net.cpp:170] Top shape: 2 192 1 7 7 (18816)
I0614 14:57:36.036525  2768 layer_factory.hpp:74] Creating layer inception_5b/double_3x3_reduce_bn
I0614 14:57:36.036619  2768 layer_factory.cpp:181] Layer inception_5b/double_3x3_reduce_bn is using CUDNN engine.
I0614 14:57:36.036640  2768 net.cpp:99] Creating Layer inception_5b/double_3x3_reduce_bn
I0614 14:57:36.036649  2768 net.cpp:480] inception_5b/double_3x3_reduce_bn <- inception_5b/double_3x3_reduce
I0614 14:57:36.036656  2768 net.cpp:130] This layer is inheriting previous layer's sync mode: 1
I0614 14:57:36.036661  2768 net.cpp:436] inception_5b/double_3x3_reduce_bn -> inception_5b/double_3x3_reduce_bn
I0614 14:57:36.036679  2768 net.cpp:163] Setting up inception_5b/double_3x3_reduce_bn
I0614 14:57:36.041808  2768 cudnn_bn_layer.cpp:30] using cuDNN BN engine
I0614 14:57:36.041828  2768 net.cpp:170] Top shape: 2 192 1 7 7 (18816)
I0614 14:57:36.041841  2768 layer_factory.hpp:74] Creating layer inception_5b/relu_double_3x3_reduce
I0614 14:57:36.041849  2768 net.cpp:99] Creating Layer inception_5b/relu_double_3x3_reduce
I0614 14:57:36.041856  2768 net.cpp:480] inception_5b/relu_double_3x3_reduce <- inception_5b/double_3x3_reduce_bn
I0614 14:57:36.041872  2768 net.cpp:130] This layer is inheriting previous layer's sync mode: 1
I0614 14:57:36.041875  2768 net.cpp:425] inception_5b/relu_double_3x3_reduce -> inception_5b/double_3x3_reduce_bn (in-place)
I0614 14:57:36.041882  2768 net.cpp:163] Setting up inception_5b/relu_double_3x3_reduce
I0614 14:57:36.042098  2768 net.cpp:170] Top shape: 2 192 1 7 7 (18816)
I0614 14:57:36.042111  2768 layer_factory.hpp:74] Creating layer inception_5b/double_3x3_1_2d
I0614 14:57:36.042122  2768 net.cpp:99] Creating Layer inception_5b/double_3x3_1_2d
I0614 14:57:36.042126  2768 net.cpp:480] inception_5b/double_3x3_1_2d <- inception_5b/double_3x3_reduce_bn
I0614 14:57:36.042131  2768 net.cpp:130] This layer is inheriting previous layer's sync mode: 1
I0614 14:57:36.042157  2768 net.cpp:436] inception_5b/double_3x3_1_2d -> inception_5b/double_3x3_1
I0614 14:57:36.042167  2768 net.cpp:163] Setting up inception_5b/double_3x3_1_2d
I0614 14:57:36.129241  2768 net.cpp:170] Top shape: 2 224 1 7 7 (21952)
I0614 14:57:36.129277  2768 layer_factory.hpp:74] Creating layer inception_5b/double_3x3_1_bn
I0614 14:57:36.129284  2768 layer_factory.cpp:181] Layer inception_5b/double_3x3_1_bn is using CUDNN engine.
I0614 14:57:36.129292  2768 net.cpp:99] Creating Layer inception_5b/double_3x3_1_bn
I0614 14:57:36.129297  2768 net.cpp:480] inception_5b/double_3x3_1_bn <- inception_5b/double_3x3_1
I0614 14:57:36.129302  2768 net.cpp:130] This layer is inheriting previous layer's sync mode: 1
I0614 14:57:36.129305  2768 net.cpp:436] inception_5b/double_3x3_1_bn -> inception_5b/double_3x3_1_bn
I0614 14:57:36.129312  2768 net.cpp:163] Setting up inception_5b/double_3x3_1_bn
I0614 14:57:36.131477  2768 cudnn_bn_layer.cpp:30] using cuDNN BN engine
I0614 14:57:36.131503  2768 net.cpp:170] Top shape: 2 224 1 7 7 (21952)
I0614 14:57:36.131515  2768 layer_factory.hpp:74] Creating layer inception_5b/relu_double_3x3_1
I0614 14:57:36.131523  2768 net.cpp:99] Creating Layer inception_5b/relu_double_3x3_1
I0614 14:57:36.131528  2768 net.cpp:480] inception_5b/relu_double_3x3_1 <- inception_5b/double_3x3_1_bn
I0614 14:57:36.131532  2768 net.cpp:130] This layer is inheriting previous layer's sync mode: 1
I0614 14:57:36.131536  2768 net.cpp:425] inception_5b/relu_double_3x3_1 -> inception_5b/double_3x3_1_bn (in-place)
I0614 14:57:36.131541  2768 net.cpp:163] Setting up inception_5b/relu_double_3x3_1
I0614 14:57:36.131706  2768 net.cpp:170] Top shape: 2 224 1 7 7 (21952)
I0614 14:57:36.131716  2768 layer_factory.hpp:74] Creating layer inception_5b/double_3x3_2_2d
I0614 14:57:36.131731  2768 net.cpp:99] Creating Layer inception_5b/double_3x3_2_2d
I0614 14:57:36.131736  2768 net.cpp:480] inception_5b/double_3x3_2_2d <- inception_5b/double_3x3_1_bn
I0614 14:57:36.131739  2768 net.cpp:130] This layer is inheriting previous layer's sync mode: 1
I0614 14:57:36.131745  2768 net.cpp:436] inception_5b/double_3x3_2_2d -> inception_5b/double_3x3_2
I0614 14:57:36.131753  2768 net.cpp:163] Setting up inception_5b/double_3x3_2_2d
I0614 14:57:36.257972  2768 net.cpp:170] Top shape: 2 224 1 7 7 (21952)
I0614 14:57:36.258000  2768 layer_factory.hpp:74] Creating layer inception_5b/double_3x3_2_bn
I0614 14:57:36.258008  2768 layer_factory.cpp:181] Layer inception_5b/double_3x3_2_bn is using CUDNN engine.
I0614 14:57:36.258014  2768 net.cpp:99] Creating Layer inception_5b/double_3x3_2_bn
I0614 14:57:36.258019  2768 net.cpp:480] inception_5b/double_3x3_2_bn <- inception_5b/double_3x3_2
I0614 14:57:36.258024  2768 net.cpp:130] This layer is inheriting previous layer's sync mode: 1
I0614 14:57:36.258028  2768 net.cpp:436] inception_5b/double_3x3_2_bn -> inception_5b/double_3x3_2_bn
I0614 14:57:36.258035  2768 net.cpp:163] Setting up inception_5b/double_3x3_2_bn
I0614 14:57:36.260818  2768 cudnn_bn_layer.cpp:30] using cuDNN BN engine
I0614 14:57:36.260848  2768 net.cpp:170] Top shape: 2 224 1 7 7 (21952)
I0614 14:57:36.260869  2768 layer_factory.hpp:74] Creating layer inception_5b/relu_double_3x3_2
I0614 14:57:36.260877  2768 net.cpp:99] Creating Layer inception_5b/relu_double_3x3_2
I0614 14:57:36.260882  2768 net.cpp:480] inception_5b/relu_double_3x3_2 <- inception_5b/double_3x3_2_bn
I0614 14:57:36.260886  2768 net.cpp:130] This layer is inheriting previous layer's sync mode: 1
I0614 14:57:36.260893  2768 net.cpp:425] inception_5b/relu_double_3x3_2 -> inception_5b/double_3x3_2_bn (in-place)
I0614 14:57:36.260898  2768 net.cpp:163] Setting up inception_5b/relu_double_3x3_2
I0614 14:57:36.261056  2768 net.cpp:170] Top shape: 2 224 1 7 7 (21952)
I0614 14:57:36.261065  2768 layer_factory.hpp:74] Creating layer inception_5b/pool_2d
I0614 14:57:36.261076  2768 net.cpp:99] Creating Layer inception_5b/pool_2d
I0614 14:57:36.261081  2768 net.cpp:480] inception_5b/pool_2d <- inception_5a/output_inception_5a/output_0_split_3
I0614 14:57:36.261121  2768 net.cpp:130] This layer is inheriting previous layer's sync mode: 1
I0614 14:57:36.261126  2768 net.cpp:436] inception_5b/pool_2d -> inception_5b/pool
I0614 14:57:36.261132  2768 net.cpp:163] Setting up inception_5b/pool_2d
I0614 14:57:36.262221  2768 net.cpp:170] Top shape: 2 1024 1 7 7 (100352)
I0614 14:57:36.262235  2768 layer_factory.hpp:74] Creating layer inception_5b/pool_proj_2d
I0614 14:57:36.262259  2768 net.cpp:99] Creating Layer inception_5b/pool_proj_2d
I0614 14:57:36.262262  2768 net.cpp:480] inception_5b/pool_proj_2d <- inception_5b/pool
I0614 14:57:36.262266  2768 net.cpp:130] This layer is inheriting previous layer's sync mode: 1
I0614 14:57:36.262271  2768 net.cpp:436] inception_5b/pool_proj_2d -> inception_5b/pool_proj
I0614 14:57:36.262277  2768 net.cpp:163] Setting up inception_5b/pool_proj_2d
I0614 14:57:36.397685  2768 net.cpp:170] Top shape: 2 128 1 7 7 (12544)
I0614 14:57:36.397713  2768 layer_factory.hpp:74] Creating layer inception_5b/pool_proj_bn
I0614 14:57:36.397720  2768 layer_factory.cpp:181] Layer inception_5b/pool_proj_bn is using CUDNN engine.
I0614 14:57:36.397728  2768 net.cpp:99] Creating Layer inception_5b/pool_proj_bn
I0614 14:57:36.397733  2768 net.cpp:480] inception_5b/pool_proj_bn <- inception_5b/pool_proj
I0614 14:57:36.397738  2768 net.cpp:130] This layer is inheriting previous layer's sync mode: 1
I0614 14:57:36.397743  2768 net.cpp:436] inception_5b/pool_proj_bn -> inception_5b/pool_proj_bn
I0614 14:57:36.397761  2768 net.cpp:163] Setting up inception_5b/pool_proj_bn
I0614 14:57:36.398814  2768 cudnn_bn_layer.cpp:30] using cuDNN BN engine
I0614 14:57:36.398833  2768 net.cpp:170] Top shape: 2 128 1 7 7 (12544)
I0614 14:57:36.398845  2768 layer_factory.hpp:74] Creating layer inception_5b/relu_pool_proj
I0614 14:57:36.398855  2768 net.cpp:99] Creating Layer inception_5b/relu_pool_proj
I0614 14:57:36.398865  2768 net.cpp:480] inception_5b/relu_pool_proj <- inception_5b/pool_proj_bn
I0614 14:57:36.398869  2768 net.cpp:130] This layer is inheriting previous layer's sync mode: 1
I0614 14:57:36.398872  2768 net.cpp:425] inception_5b/relu_pool_proj -> inception_5b/pool_proj_bn (in-place)
I0614 14:57:36.398890  2768 net.cpp:163] Setting up inception_5b/relu_pool_proj
I0614 14:57:36.400231  2768 net.cpp:170] Top shape: 2 128 1 7 7 (12544)
I0614 14:57:36.400245  2768 layer_factory.hpp:74] Creating layer inception_5b/output
I0614 14:57:36.400255  2768 net.cpp:99] Creating Layer inception_5b/output
I0614 14:57:36.400264  2768 net.cpp:480] inception_5b/output <- inception_5b/1x1_bn
I0614 14:57:36.400271  2768 net.cpp:480] inception_5b/output <- inception_5b/3x3_bn
I0614 14:57:36.400276  2768 net.cpp:480] inception_5b/output <- inception_5b/double_3x3_2_bn
I0614 14:57:36.400280  2768 net.cpp:480] inception_5b/output <- inception_5b/pool_proj_bn
I0614 14:57:36.400283  2768 net.cpp:130] This layer is inheriting previous layer's sync mode: 1
I0614 14:57:36.400287  2768 net.cpp:436] inception_5b/output -> inception_5b/output
I0614 14:57:36.400305  2768 net.cpp:163] Setting up inception_5b/output
I0614 14:57:36.400313  2768 net.cpp:170] Top shape: 2 1024 1 7 7 (100352)
I0614 14:57:36.400321  2768 layer_factory.hpp:74] Creating layer global_pool_2d
I0614 14:57:36.400331  2768 net.cpp:99] Creating Layer global_pool_2d
I0614 14:57:36.400333  2768 net.cpp:480] global_pool_2d <- inception_5b/output
I0614 14:57:36.400337  2768 net.cpp:130] This layer is inheriting previous layer's sync mode: 1
I0614 14:57:36.400344  2768 net.cpp:436] global_pool_2d -> global_pool
I0614 14:57:36.400349  2768 net.cpp:163] Setting up global_pool_2d
I0614 14:57:36.400516  2768 net.cpp:170] Top shape: 2 1024 1 1 1 (2048)
I0614 14:57:36.400526  2768 layer_factory.hpp:74] Creating layer global_pool_reshape
I0614 14:57:36.400534  2768 net.cpp:99] Creating Layer global_pool_reshape
I0614 14:57:36.400538  2768 net.cpp:480] global_pool_reshape <- global_pool
I0614 14:57:36.400542  2768 net.cpp:130] This layer is inheriting previous layer's sync mode: 1
I0614 14:57:36.400569  2768 net.cpp:436] global_pool_reshape -> global_pool_reshape
I0614 14:57:36.400576  2768 net.cpp:163] Setting up global_pool_reshape
I0614 14:57:36.400584  2768 net.cpp:170] Top shape: 2 1024 (2048)
I0614 14:57:36.400588  2768 layer_factory.hpp:74] Creating layer drop
I0614 14:57:36.400595  2768 net.cpp:99] Creating Layer drop
I0614 14:57:36.400599  2768 net.cpp:480] drop <- global_pool_reshape
I0614 14:57:36.400609  2768 net.cpp:130] This layer is inheriting previous layer's sync mode: 1
I0614 14:57:36.400614  2768 net.cpp:436] drop -> global_pool_reshape1
I0614 14:57:36.400619  2768 net.cpp:163] Setting up drop
I0614 14:57:36.400624  2768 net.cpp:170] Top shape: 2 1024 (2048)
I0614 14:57:36.400627  2768 layer_factory.hpp:74] Creating layer fc
I0614 14:57:36.400650  2768 net.cpp:99] Creating Layer fc
I0614 14:57:36.400655  2768 net.cpp:480] fc <- global_pool_reshape1
I0614 14:57:36.400657  2768 net.cpp:130] This layer is inheriting previous layer's sync mode: 1
I0614 14:57:36.400662  2768 net.cpp:436] fc -> fc
I0614 14:57:36.400667  2768 net.cpp:163] Setting up fc
I0614 14:57:36.410327  2768 net.cpp:170] Top shape: 2 400 (800)
I0614 14:57:36.410337  2768 layer_factory.hpp:74] Creating layer reshape_fc
I0614 14:57:36.410346  2768 net.cpp:99] Creating Layer reshape_fc
I0614 14:57:36.410348  2768 net.cpp:480] reshape_fc <- fc
I0614 14:57:36.410352  2768 net.cpp:130] This layer is inheriting previous layer's sync mode: 1
I0614 14:57:36.410362  2768 net.cpp:436] reshape_fc -> reshape_fc
I0614 14:57:36.410368  2768 net.cpp:163] Setting up reshape_fc
I0614 14:57:36.410374  2768 net.cpp:170] Top shape: 1 1 2 400 (800)
I0614 14:57:36.410377  2768 layer_factory.hpp:74] Creating layer pool_fusion
I0614 14:57:36.410398  2768 net.cpp:99] Creating Layer pool_fusion
I0614 14:57:36.410401  2768 net.cpp:480] pool_fusion <- reshape_fc
I0614 14:57:36.410405  2768 net.cpp:130] This layer is inheriting previous layer's sync mode: 1
I0614 14:57:36.410408  2768 net.cpp:436] pool_fusion -> pool_fc
I0614 14:57:36.410413  2768 net.cpp:163] Setting up pool_fusion
I0614 14:57:36.411664  2768 net.cpp:170] Top shape: 1 1 1 400 (400)
I0614 14:57:36.411679  2768 layer_factory.hpp:74] Creating layer pool_fc_pool_fusion_0_split
I0614 14:57:36.411700  2768 net.cpp:99] Creating Layer pool_fc_pool_fusion_0_split
I0614 14:57:36.411703  2768 net.cpp:480] pool_fc_pool_fusion_0_split <- pool_fc
I0614 14:57:36.411707  2768 net.cpp:130] This layer is inheriting previous layer's sync mode: 1
I0614 14:57:36.411710  2768 net.cpp:436] pool_fc_pool_fusion_0_split -> pool_fc_pool_fusion_0_split_0
I0614 14:57:36.411718  2768 net.cpp:436] pool_fc_pool_fusion_0_split -> pool_fc_pool_fusion_0_split_1
I0614 14:57:36.411723  2768 net.cpp:436] pool_fc_pool_fusion_0_split -> pool_fc_pool_fusion_0_split_2
I0614 14:57:36.411727  2768 net.cpp:163] Setting up pool_fc_pool_fusion_0_split
I0614 14:57:36.411733  2768 net.cpp:170] Top shape: 1 1 1 400 (400)
I0614 14:57:36.411736  2768 net.cpp:170] Top shape: 1 1 1 400 (400)
I0614 14:57:36.411741  2768 net.cpp:170] Top shape: 1 1 1 400 (400)
I0614 14:57:36.411742  2768 layer_factory.hpp:74] Creating layer loss
I0614 14:57:36.411749  2768 net.cpp:99] Creating Layer loss
I0614 14:57:36.411752  2768 net.cpp:480] loss <- pool_fc_pool_fusion_0_split_0
I0614 14:57:36.411761  2768 net.cpp:480] loss <- label_data_1_split_0
I0614 14:57:36.411765  2768 net.cpp:130] This layer is inheriting previous layer's sync mode: 1
I0614 14:57:36.411770  2768 net.cpp:436] loss -> loss
…
